Curie_Weiss/checkpoints/SDE_method_naive_patch_L_32_L_64_seed_42/model.pt (torch, 39836 bytes, 7 tensors)

weight f4 [64, 1]
00000000: 9818 153f bf27 6e3f 9668 b3be 029d 8c3f
00000010: b05c 60be 38a2 4e3e ef0e 52bf 5392 de3e
00000020: 8393 363f 0ecf 3bbf a483 5e3f b0a6 3f3e
00000030: 0267 853f 95f5 0f3e c843 973e ae8a c5be
00000040: e675 713f 385b 173e d521 0abf 0882 823e
00000050: b861 f0be c02c f0bd 2def d0be aed2 293f
00000060: 6f1e 4fbf 7759 2bbf 2e7b b1be 0982 04bf
00000070: 62d5 6abc 32cd 6fbf b712 733f 2259 6cbf
00000080: a5f1 473f c869 2a3e ac3f a6be f831 1e3f
00000090: 5897 1f3e 4885 673f 00e3 df3d 9878 a1be
000000a0: bf72 debc 08d8 8abe a47a d73e 2cdd 893f
000000b0: b6fb 133f 14d5 dfbe c3a5 413e 07f4 ea3c
000000c0: d106 f33d 8608 1cbf 014f 51bf 87ee 95be
000000d0: e058 38bf d60e 523f d878 933e cc13 d43e
000000e0: 7fce b23e 0082 8ebc a26f 573f 2867 29bf
000000f0: 20f3 803d b9f5 1cbf 50e0 9d3e e052 b0be
0.5824065 0.930294 -0.3504073 1.0985415 -0.21910357 0.20179069 -0.82054037 0.43471012
0.71318835 -0.73362815 0.8691962 0.1871593 1.042206 0.14058526 0.295439 -0.38582367
0.94320524 0.14780891 -0.53957874 0.2548983 -0.46949553 -0.117272854 -0.40807477 0.66337097
-0.8090581 -0.6693339 -0.3466429 -0.5176092 -0.014333101 -0.9367248 0.9495043 -0.92323506
0.78103095 0.16641915 -0.32470453 0.61794996 0.15585077 0.90437746 0.10931969 -0.31537318
-0.027154325 -0.27117944 0.42085755 1.0770621 0.57805955 -0.43717253 0.1891089 0.028680814
0.118665345 -0.60950506 -0.81761175 -0.29283544 -0.7201061 0.8205389 0.28803134 0.41421354
0.3492317 -0.017395973 0.84154713 -0.6617303 0.062963724 -0.61312443 0.308352 -0.3443823

bias f4 [64]
00000000: e02b 81bd 68c7 3cbe 04bb 123f c417 f5be
00000010: 8aad 18bf e6af 18bf 845b 3b3f c5da de3d
00000020: f861 043f 4e45 53bf 98eb 7dbf fe48 48bf
00000030: 6723 d5be 80f8 8a3e d86d 593e 8264 413f
00000040: bd85 d2be aa84 2ebf c264 f63e e4f3 cebe
00000050: 3497 093f f0fe 72be 1bd1 b93e 60e7 46bf
00000060: f889 37bf 1429 b43e 6d5f 3a3e 23fc 86be
00000070: cebe b23e c56a 0c3f 8642 40bf 431a e1be
00000080: 2389 213f f4c3 acbe 2c83 b5be 48b4 77bf
00000090: 849a 12bf f93a d7bc 3829 07be aad3 39bf
000000a0: b194 7ebe 6ede 2ebf 8630 59bf 5137 dcbe
000000b0: e60d 60bf 4401 23bf dd2e 243f 06d2 b9bc
000000c0: 6601 a43d 66c4 6ebf 6f48 54bf 5a14 dabe
000000d0: ccde 8b3e 8642 61bf 649b dcbe 5842 19bf
000000e0: 7d6e 19bc 5084 bebe d811 c5bc f9cb 3abf
000000f0: 98b7 2fbf 520c 27bf 9c41 afbe 500e 4abf
-0.063071966 -0.18435442 0.57316613 -0.47869694 -0.596398 -0.596434 0.73186517 0.10881571
0.5171199 -0.82527626 -0.9918761 -0.7823638 -0.41628572 0.27142715 0.21233308 0.7554399
-0.4111766 -0.6817118 0.48123747 -0.4042045 0.5374634 -0.23730063 0.36292347 -0.776968
-0.716949 0.3518759 0.18200465 -0.2636424 0.34911197 0.5485042 -0.75101507 -0.4396535
0.6309988 -0.3374325 -0.3545164 -0.9675946 -0.5726702 -0.026273238 -0.13199317 -0.725886
-0.24861409 -0.6830815 -0.84839666 -0.43010953 -0.8752121 -0.63673806 0.6413401 -0.022683155
0.08008079 -0.9326843 -0.82923025 -0.42593652 0.27318418 -0.8799213 -0.43087304 -0.5986686
-0.009364721 -0.3721032 -0.02405636 -0.7296749 -0.68639517 -0.65253174 -0.34229743 -0.7892809

weight f4 [64, 64]
00000000: fa2a 743d 5827 a4bd 0e9d 813d c44b 86bc
00000010: b0c7 d8bd 3829 b13d 7894 a0bd eb79 bebd
00000020: 1434 18be 5081 febd 187d 123d c0af dfbc
00000030: 19b2 d9bb e4c3 16be 79bc 433d 3f5a 0bbe
00000040: 2a8a 9dbd f0e1 d53c 08d7 aa3c e4ab ce3d
00000050: e993 8f3d f2fc cabd 4daf 4abc 7839 5cbd
00000060: 65d9 94bd 1fe7 1fbe 7992 503d a03d 1cbe
00000070: 3b77 b63c c4df 99bc f61b 71bc d5e8 03be
00000080: a7d6 8c3d 4006 e13c 38ba 833c ea99 e1bd
00000090: 84ee 563d eb17 83bd 448f 6abd ece3 db3d
000000a0: bad7 9fbc 86a3 8dbd 5292 81bd 2d22 7bbd
000000b0: c4f0 8e3d 54d5 02bd 30bf edbd 9797 b3bd
000000c0: 04c5 0dbe 8898 363d cbb5 103d 308f 28be
000000d0: 2700 00bd 5c3f 843d 68ae b93c f855 36bd
000000e0: 9829 223c 0888 863d c8f9 0cbc 695c 59bd
000000f0: 0894 07bd 2fae 4ebd d0e4 b4bc 9893 18bd
00000100: 10a3 a33d 9c01 dc3d 20bf 4abc 3845 e5bc
00000110: 8014 ef3a a090 f4bb 602e f63c c87a 0f3d
00000120: 8483 e8bd 84f2 3cbd cc95 d73d c073 473d
00000130: a0b9 cbbb 0858 9abd 429f 9cbd fa50 e5bd
00000140: 8ce4 26bd 90e7 2c3d 2c3b a33d 9863 6c3d
00000150: 284a e2bd e4f2 99bd b09a a1bc 38a4 f73d
00000160: 1821 943c d097 04bd 7cd2 533d e802 43bd
00000170: 8cb2 a5bd e4d9 ba3d acce 68bd 2847 cdbc
00000180: 7eab febd 5255 ab3d 58f4 c13d f498 3a3d
00000190: 9080 b2bd 18a8 fcbd f6ea cfbd 36e6 be3d
000001a0: 6cd0 753d d66c d73d 561c 863d 4c95 013d
000001b0: 8071 a0ba 86b0 c2bd 6c55 dbbd 0273 efbd
000001c0: e497 513d 2860 7bbd 2815 cebc 5054 93bd
000001d0: d098 babc 862e b4bd 4046 a7bd 00d6 293d
000001e0: 202a 18bd 340a 9e3d 0c41 24bd 10cb bbbd
000001f0: 68ac b4bc d030 78bd 60a4 1cbd fcb5 f3bd
00000200: 035c 353c 72a3 14be 4f57 3a3c 9a27 97ba
00000210: 10e5 b63d 865d c4bd 99d8 273d 4c3f f1bd
00000220: 1995 3dbc d269 f03d a86a 90bc 0069 7dba
00000230: 5792 a0bd a0cb 24be 04e4 563a 5eed 34be
00000240: 789c aa3c ae8b bf3d a522 973d 688a f1bc
00000250: 1577 19be e839 e63c c77e b03c 8ecc febd
00000260: 0446 b4bc ec5e ddbd 15a1 44bd bad2 50bd
00000270: 3c90 d8bd f92c 96bd 4714 2fbe da15 f23d
00000280: 0fd9 403d 48a2 a0bc 003b 69bc 18f5 50bd
00000290: 202f e7bd dc42 39be 044a 3e3d 4a8e 8cbd
000002a0: 4b6e 0ebe a0ca 1fbc 7080 2abd cf3f cebd
000002b0: 009c 833b 0034 d9bc fe2b ccbd 630a efbd
000002c0: 1bd9 24be 68a8 d63d ad1f 0cbd d1d9 903d
000002d0: 9ab7 5abd 506c 263c 3eab ee3d d8e3 6b3d
000002e0: 4bf3 29be d836 4b3d fe3f 723d 9257 543c
000002f0: f4a0 ab3d 75a5 1d3e 10e8 9cbc 2889 d43c
00000300: d2ed b1bd e005 d3bc e696 bd3d c23c 833d
00000310: 76fe a1bd 5648 cdbd ecf0 aebd 04a4 fcbd
00000320: 228a c5bd 883b fdbc c0c4 ac3d 4066 ab3c
00000330: 0ab7 c2bd 8c5e cdbd 14b5 7e3d 626c bebd
00000340: 402a 7cbc 089c 753d b4f5 6cbd 5050 5fbc
00000350: 6044 32bc e842 f2bc dccc 81bd 4e35 e4bd
00000360: 7cf0 cebd 0414 89bd 2441 f73d b44d 77bd
00000370: 42e9 abbd 3036 f83c cc1c 0d3d d043 8c3d
00000380: 4097 c23d 4e8f 8e3d 02d3 fdbd 60a2 353c
00000390: a212 9b3d 9049 3dbc 00db 96bd 140e f43d
000003a0: 9480 3fbd 90c0 91bd 50cc e6bd 20f6 b63b
000003b0: 58e2 623d f0ac e23c e87e ca3c ae25 c2bd
000003c0: 3c13 efbd 8041 103b f66d e93d 1eb1 933d
000003d0: 4e0d 95bd 88ec 84bc 10b8 bcbd 3400 77bd
000003e0: d871 b93c e066 8b3d 0210 d43d 0009 ebbd
000003f0: 5e2a ab3d 068e b4bd 2cba 3f3d 88a3 d83d
0.0596113 -0.08015317 0.06328784 -0.01639355 -0.10584962 0.0865044 -0.07840818 -0.09300598
-0.14863616 -0.12427008 0.03576383 -0.027305484 -0.0066435453 -0.14723164 0.047787163 -0.13608645
-0.07692368 0.026108712 0.020854488 0.10091379 0.070106335 -0.09911527 -0.0123708965 -0.053765744
-0.07268027 -0.1561551 0.050920937 -0.15257883 0.02227365 -0.018783458 -0.014716139 -0.12881787
0.06876879 0.0274688 0.016080007 -0.11015685 0.05247356 -0.06401046 -0.057265535 0.10736832
-0.019512046 -0.06915955 -0.063267365 -0.06131189 0.06979516 -0.031941727 -0.11608732 -0.08769148
-0.13844687 0.04457906 0.03532962 -0.16460872 -0.031250145 0.06457397 0.022666171 -0.04451558
0.009897612 0.06568915 -0.008604474 -0.053066645 -0.033100158 -0.050459083 -0.022081763 -0.03725013
0.07990086 0.107424945 -0.012374669 -0.027987108 0.0018240362 -0.0074635297 0.03005141 0.035029203
-0.113532096 -0.04612972 0.10526618 0.048694372 -0.0062171966 -0.07536322 -0.076475635 -0.11197086
-0.040745303 0.042213023 0.079702705 0.057712168 -0.110493004 -0.07517031 -0.019727081 0.12091869
0.018082187 -0.032371342 0.051714405 -0.047610193 -0.08090696 0.091235906 -0.056837723 -0.025058344
-0.12435053 0.08365883 0.09470433 0.045556024 -0.087159276 -0.12336749 -0.10152237 0.09321253
0.06001322 0.10518806 0.065483734 0.03163652 -0.0012240857 -0.095063254 -0.10709652 -0.11691858
0.051170245 -0.061371 -0.025156572 -0.07193816 -0.022777945 -0.08797936 -0.08167696 0.041463852
-0.03714955 0.0771679 -0.040101096 -0.091695905 -0.022054866 -0.060593426 -0.038242698 -0.11899945
0.011069301 -0.14515474 0.011373355 -0.0011532188 0.08930409 -0.09588151 0.040978048 -0.11779651
-0.011571192 0.117389336 -0.017628983 -0.00096668303 -0.07840412 -0.16093302 0.0008197429 -0.17668673
0.020826563 0.09352814 0.07379655 -0.029484943 -0.14986832 0.028103784 0.021544827 -0.124413595
-0.022006042 -0.108091205 -0.048005182 -0.050982215 -0.105743855 -0.073327966 -0.17097579 0.11820574
0.047082003 -0.019608632 -0.014235258 -0.05101499 -0.11288285 -0.18091911 0.046457306 -0.06863077
-0.13909261 -0.009752899 -0.041626394 -0.10070764 0.0040163994 -0.026514053 -0.09969328 -0.11671903
-0.16098444 0.1048134 -0.034209896 0.07072795 -0.053397752 0.01015766 0.116537556 0.057590336
-0.16596715 0.04961285 0.05914306 0.0129603315 0.08380309 0.15395148 -0.019153625 0.025944307
-0.08687939 -0.025759637 0.09257297 0.06408073 -0.07909863 -0.100235626 -0.08542046 -0.12335971
-0.09645487 -0.030912176 0.084359646 0.02092278 -0.09507568 -0.10027799 0.06218441 -0.09298016
-0.015390933 0.059963256 -0.05785151 -0.013629988 -0.01088056 -0.029572919 -0.06337902 -0.111429796
-0.101044625 -0.06693271 0.120729715 -0.060376838 -0.083941 0.030299276 0.03445129 0.06848872
0.09501505 0.06960927 -0.12393762 0.0110860765 0.07571913 -0.011553183 -0.0736599 0.11916748
-0.04675348 -0.071168065 -0.11269438 0.0055835396 0.05539164 0.027670354 0.024718717 -0.09479843
-0.116735905 0.0022011697 0.113979265 0.07211517 -0.07277928 -0.016226068 -0.09214795 -0.060302928
0.022637293 0.06806731 0.10354616 -0.11476326 0.0835769 -0.08816151 0.046808407 0.10578066

bias f4 [64]
00000000: c527 04be f203 cabd 5523 153d f0b9 5f3c
00000010: 281a 66bc a27a f7bd 2818 fa3c 551e 06be
00000020: 7b72 0a3d ea45 99bd 43ce 5ebd b465 7b3d
00000030: 15b0 bebd b8a3 0fbd a884 d23c 7959 58bb
00000040: 261e aa3c e49a b4bd 209b eebd 9fb7 193d
00000050: 698b 1ebd 2e96 34be 6f3b 913d e526 2dbe
00000060: da4e 8f3d fbe3 443c a5ce a53d 75e2 bbbc
00000070: 9d4f 78bd 184a 13bd e93c 90bd dc5f dcbd
00000080: de57 0c3c 1738 703c 1049 80bc 74cc f03d
00000090: dabc 31bd 7d31 febd 569f aabd f212 883c
000000a0: 07e0 0cbe 31b9 133c 40ad f8bd 6018 8d3b
000000b0: d0e1 b0bd 21e7 e2bc ac79 993d 1013 b7bc
000000c0: b460 ebbd e052 35be 0c68 01be 540e f5bd
000000d0: 468f 923d 15fd 01be 2a5f ccbb 3b08 263d
000000e0: fd4a 02bd a6e5 2dbe f0a4 68bc 072f bdbd
000000f0: 60a4 a93c 577b aabd a926 99bd a4c5 ce3d
-0.12905796 -0.09864034 0.03641065 0.013655171 -0.014044322 -0.12083937 0.030529097 -0.13097508
0.033800583 -0.07484038 -0.054395925 0.06137629 -0.09310929 -0.035068244 0.025698021 -0.0033012314
0.020766329 -0.088186055 -0.116506815 0.03752863 -0.03870717 -0.17635414 0.07091414 -0.16909368
0.069974616 0.012017245 0.08096055 -0.022935132 -0.0606228 -0.035959333 -0.07042868 -0.10760471
0.008565871 0.01466181 -0.015659839 0.11757746 -0.043392994 -0.12411783 -0.08331172 0.016610596
-0.13757335 0.009016321 -0.1214242 0.0043058842 -0.0863682 -0.027698101 0.0749391 -0.022347957
-0.11493054 -0.17707396 -0.12637347 -0.119656235 0.071562335 -0.126942 -0.0062369304 0.040535193
-0.031809796 -0.16982135 -0.01419948 -0.092374854 0.020708263 -0.083243065 -0.07478077 0.10096291

weight f4 [64, 64]
00000000: 916c 6e3d 0457 6d3d e342 9dbb d66a a73d
00000010: 1b36 43bc c0b1 cdbc ddbd 853c 9181 3cbe
00000020: 6f4d 293d 8c57 22bb b544 913c 6afb 87bd
00000030: e09a 973c 40c7 393b becf 67bd ad01 16be
00000040: 5b76 11bd a1f5 333d fbc0 31bd 9ab6 febb
00000050: 5a6f c43b d251 93bd 5874 703c 44dd 4abd
00000060: ff75 e1bb ebef 443d 9903 a3bd d345 c4bd
00000070: ebde e5bd 27f8 073e ffd4 12bc d9f3 4fbd
00000080: d0e9 39bc 9cef 443c 5e59 ea3d fe46 8d3d
00000090: 6913 d7bd 2483 fa3d 6236 d3bd 210f a2bd
000000a0: 1b68 a53c 29a2 173e 387c 1a3d 4c01 f7bd
000000b0: 7871 23bd 9355 2f3d 89a3 a6bd f9d4 d2bd
000000c0: 0c22 f3bd b2e5 03be c91e 56bd d6ba dabc
000000d0: cfef 89bc 18d2 e93d 7fbf 093d 9f69 6dbd
000000e0: 9ef7 aa3d 48a4 ae3d 70ce dcbd 54c5 413c
000000f0: d6d5 63bd 5af7 a83d 839a ffbd be13 b8ba
00000100: 0055 aeba fc89 6d3d 5196 833c 7cb3 b9bd
00000110: 095b 51bd 7203 973d 056c 31bc 6f8d c8bc
00000120: 180b 6abd c81d 79bd 101a 81bc 4021 193c
00000130: 001e 67ba 206b 07bd e8dc 9e3d 1182 7f3d
00000140: 97ea 29bc 3480 07bd e682 96bd 458f b539
00000150: 6a7c f1bd d58f 943d b45b c6bd bc7a 9dbc
00000160: 1589 bf3d 2f50 cebd 7fce 15bd 6446 cabd
00000170: 44a3 083d f490 dfbc afaf f0bd 171b ce3d
00000180: e873 543d 7084 91bd 40cd debb 1869 5cbd
00000190: b191 453d 95f1 f33d c991 04be a6cb b1bd
000001a0: 37a3 273e 653e e6bd 74d6 2fbd d047 453d
000001b0: 8e46 e23d 1f65 5f3c 83ed db3c 48da 2a3d
000001c0: c6d3 e0bd 1040 c7bc 506d e03c 34b7 87bd
000001d0: 423e 89bd 9807 d23d 3042 843d 4e83 c73d
000001e0: 0786 93bd ad64 383e cede f1bd 6c16 11bd
000001f0: c00c 893d 544a 033d 3be0 dc3a c049 91bd
00000200: 0daa 063e 2643 f0bd 5afe 92bc e047 0bbc
00000210: 4402 7ebc dc55 f3bd a9e0 33bd 1eb9 053e
00000220: eb3f bd3d 505d 23bd 22df c03d 6622 dfbd
00000230: 84c7 f1bd 7087 b2bd 0caa f7bd 1926 423e
00000240: 8b87 d13c 2036 0abd 2c82 50bd 1fbe 683d
00000250: 90a2 99bc dd69 5abd e016 293e d5c2 983d
00000260: 1ffa 63ba 4237 3f3e 30d7 d7b9 80ae 9aba
00000270: 9cee 593d 1361 99bd 927e 593d 383f 773d
00000280: 822d a6bd b974 09bc 12a5 fdbd ccec 233d
00000290: 7c83 513c 1c2c a6bc 1a61 10be 9819 fdbd
000002a0: cf8b ae3b 4529 843d 74ff 8e3d 9ad2 e23d
000002b0: 8c5c 78bd e838 e9bd 1777 133d 80fe 1f3b
000002c0: 7abf b7bd d81e 963c 2ea9 48bc 4c16 64bc
000002d0: dbfe 913d 5717 033e 50e1 133e 5653 b6bd
000002e0: e41e 91bd ebeb 97bb 2038 63bc 8e30 133d
000002f0: bd45 d93b 994b 8abd 17b9 d8bd 3b93 9a3d
00000300: 82ea 86bd a26c eebd 8cac 493d 16d2 bd3d
00000310: 0161 17be a030 503c f192 573d 5f21 f4bd
00000320: 8122 1fbe 5f21 043e 8040 22bb 500a 233d
00000330: 5627 003c 78a9 b93c 2a69 043e 9c20 31bd
00000340: 224f aebd 1890 76bd c2c7 b2bc ed34 073d
00000350: 08f0 f1bd 6a87 64bd 25dc 3b3d 9b7c debd
00000360: 3571 b8bd 62e6 a4bd 8f28 bfbd 1e1d 993d
00000370: 0342 79bd 2953 853c 62b4 cfbd 792c 7fbd
00000380: 402d 0abc 4be6 023d a404 9fbd b2f4 e8bd
00000390: 5655 05be 1d94 07be 4d24 cdbd 5460 ec3d
000003a0: b13a 01be f1e8 e1bd 30b1 d0bd dc9a 80bd
000003b0: c0f9 65bb daa5 1fbe 9512 26bd 5046 863d
000003c0: e650 20bd 78f4 e43d 0450 83bc d929 433d
000003d0: e5f0 49bd 2062 873d 9496 ba3d 92de f43d
000003e0: 7006 173d f118 03be 7474 abbd c710 933d
000003f0: 09a5 013b 65cb bf3d 37ac de3c 2d9b 84bd
0.058209006 0.057944313 -0.0047992333 0.08174674 -0.011914755 -0.025109172 0.016325885 -0.184088
0.041333612 -0.002477142 0.017732957 -0.0663975 0.018506467 0.0028347522 -0.056594603 -0.14649077
-0.035513263 0.04393542 -0.04339693 -0.0077732326 0.0059947195 -0.0719334 0.014676176 -0.04952742
-0.0068805213 0.048080366 -0.079596706 -0.095836304 -0.11224159 0.13278256 -0.008961915 -0.05076966
-0.011347249 0.012020018 0.11442827 0.06898306 -0.10501749 0.12232044 -0.10313107 -0.07913042
0.020191243 0.14807953 0.03771612 -0.12060794 -0.039903134 0.04280622 -0.081366606 -0.102945276
-0.11871728 -0.1288059 -0.052275453 -0.026700418 -0.016837982 0.11417025 0.03362989 -0.057962056
0.083480105 0.08527428 -0.10781562 0.011826832 -0.05562385 0.082503036 -0.12480643 -0.001404397
-0.0013300478 0.05799292 0.016062887 -0.09067437 -0.05111221 0.07373704 -0.0108289765 -0.024481503
-0.057139486 -0.060819417 -0.015759498 0.009346306 -0.0008816421 -0.033061147 0.07756978 0.0623799
-0.010370872 -0.03308125 -0.07349186 0.00034629754 -0.11791308 0.07253996 -0.0968546 -0.019223563
0.09352318 -0.100738876 -0.036573883 -0.09876707 0.033358827 -0.027290799 -0.11752259 0.10063761
0.05186835 -0.071053386 -0.00679937 -0.053811163 0.048234645 0.119113125 -0.12946238 -0.08681421
0.16370855 -0.112423696 -0.042929128 0.04816419 0.110486135 0.013634949 0.026846653 0.041712075
-0.109778926 -0.02432254 0.027395874 -0.0662674 -0.06701328 0.10255355 0.06457937 0.09741841
-0.07203298 0.18007155 -0.11810075 -0.035421774 0.06691885 0.032053307 0.0016851494 -0.07094145
0.13150807 -0.117315575 -0.01794355 -0.008501023 -0.01550347 -0.11881611 -0.043915424 0.13058898
0.09240707 -0.03988391 0.09417559 -0.10895233 -0.11805633 -0.08717239 -0.12092981 0.18959846
0.025577327 -0.033743024 -0.05090539 0.05682194 -0.018754274 -0.053323615 0.16512632 0.07459036
-0.0008696634 0.18673423 -0.00041168323 -0.0011801273 0.05320607 -0.074892186 0.053099222 0.060363024
-0.08114149 -0.008389645 -0.12385 0.04002075 0.012787696 -0.020284705 -0.14099541 -0.12358397
0.005326725 0.06453184 0.069823176 0.11075325 -0.060635135 -0.11387807 0.036002245 0.0024413168
-0.08972068 0.018325254 -0.012247367 -0.013921332 0.07128688 0.12801872 0.14441419 -0.08902614
-0.0708597 -0.004636278 -0.013868362 0.035934977 0.006630628 -0.067527 -0.10582178 0.07547613
-0.065876976 -0.11641814 0.04923682 0.09268586 -0.14783098 0.012706906 0.05263037 -0.119204275
-0.15540506 0.12903355 -0.0024757683 0.039804757 0.007821878 0.022663817 0.12930742 -0.04324399
-0.08511187 -0.060196012 -0.021823768 0.03300946 -0.118133605 -0.055793203 0.045864243 -0.1086361
-0.090059675 -0.080517545 -0.09333908 0.07476257 -0.06085397 0.016275005 -0.10141827 -0.06229827
-0.00843364 0.031957906 -0.07764557 -0.11374797 -0.13020834 -0.13240094 -0.100166894 0.11541811
-0.12620045 -0.11030758 -0.10190046 -0.06279537 -0.003509149 -0.15590611 -0.040545065 0.0655638
-0.03913965 0.11179441 -0.016029365 0.04764733 -0.049302 0.06610513 0.09110752 0.119565144
0.036871374 -0.12802483 -0.08371821 0.071809344 0.0019782207 0.09364966 0.027181728 -0.0647491

bias f4 [64]
00000000: f7ff 393d 31a7 90bd 6bf7 253e fd18 953b
00000010: 4e81 20bd 69e3 10bd 4c16 5cbd aed2 20be
00000020: 1521 8bbd bde2 84bd 85d3 52bd 0cd6 b53c
00000030: 7b2b a5bd 25b3 883b 4cd5 26bd 2975 31bc
00000040: 9133 abbc a259 10be c035 9ebd 56dd ccbd
00000050: e78d 53be d070 9fbe 73df 1e3d 2a44 1cbe
00000060: d72f 103c 5371 19be 15df 42bd a841 45bd
00000070: c1a0 943c 6847 bebd 2d6f adbc f4b9 6dbd
00000080: da97 f3bd 27c8 183d 9954 90bd 6f15 c8bd
00000090: 6e6a 29be 3081 f5bb ef15 96bc 25d4 ebbc
000000a0: 4624 02be 63eb 4dbe ba4a 003c 78cd b4bd
000000b0: 7835 14be c9ae 48bc 759c 1a3d 2015 63bb
000000c0: 5e2c a9bd 06a2 a0bd 418d a8bd 8bc3 25bd
000000d0: 59f0 1dbd f668 a0bd 2d10 483c 2b98 14be
000000e0: a5ab bf3b 7dab 3fbe a644 15be d3bb bbbd
000000f0: 7538 e73c 912c fcbd c637 10be cf7c b6bd
0.045410123 -0.07063139 0.16207664 0.004550098 -0.039185815 -0.035373125 -0.0537322 -0.15705368
-0.06793419 -0.064885594 -0.051471252 0.022196792 -0.08064934 0.0041717463 -0.04073076 -0.010831156
-0.020898612 -0.14096692 -0.07725096 -0.10003154 -0.206596 -0.31140757 0.038787317 -0.15260378
0.008800468 -0.14984636 -0.04757603 -0.048158318 0.01814306 -0.092909634 -0.021171177 -0.058038667
-0.11894198 0.037300255 -0.07047386 -0.09769713 -0.16544506 -0.007492207 -0.018321006 -0.028787682
-0.1270915 -0.20109324 0.007830316 -0.088282526 -0.14473522 -0.012248703 0.037746865 -0.0034650043
-0.082604155 -0.078434035 -0.08230067 -0.040469687 -0.03855929 -0.0783252 0.012210888 -0.14511172
0.005849319 -0.18717761 -0.14576969 -0.09166684 0.028225163 -0.12313188 -0.14083776 -0.08910524

weight f4 [1, 64]
00000000: a267 e03b 1298 84bd d161 063e 8203 e03c
00000010: 8a71 a53c d589 6a3b c86b 0e3d 4024 81bd
00000020: 0f5d febc 944e 0fbd e8f6 9e3c 40e5 a7bc
00000030: eaf0 c0bc 70a5 fdbb 524a 0fbc e9f3 6d3d
00000040: c4e8 013d 0251 1dbd 0520 49bc 86bd ec3b
00000050: 06f7 ffbc 91af c6bd d739 ef3c 1f44 b8bb
00000060: 92c6 babc 9931 57bd cd67 efbd 107a 4cbd
00000070: eb97 9cbc a871 943c 1e3f 153d 1f9e 333d
00000080: ea7c f03d e99e ad3b a59e 0f3c 4e73 cdbd
00000090: 808f 96bc e454 b0bc 87fe 01ba 0a58 123a
000000a0: 5b38 a2bd 8e38 ebbc df56 1d3d b5ca 743d
000000b0: 1aa2 f33a 78e8 8abb 0a25 0c3b a0f9 113d
000000c0: 49b8 5cbd 1ba4 d8bc 27d2 5e3c ac7e 603d
000000d0: da57 b23c 3087 ac3d af0f 363b 1310 493d
000000e0: eefc b2bc b436 8dbd 3a07 26bd 3f0d ee3c
000000f0: 4d45 e2bb 13bd 82bb 306e 74bd 2431 1b3d
0.0068482915 -0.064743176 0.13123251 0.027345423 0.020195741 0.003578772 0.034770757 -0.06305742
-0.031050233 -0.034987047 0.019404843 -0.020495057 -0.023552377 -0.007740669 -0.008745747 0.05809394
0.031716123 -0.038407333 -0.0122757 0.0072247414 -0.03124572 -0.097014554 0.029202385 -0.005623355
-0.022799764 -0.052537534 -0.1168972 -0.049921095 -0.019115409 0.018120602 0.036437146 0.043851968
0.117425755 0.0052984846 0.008765851 -0.10031758 -0.018378973 -0.021524854 -0.0004958887 0.0005582577
-0.07920905 -0.02871349 0.038412925 0.05976363 0.0018587739 -0.004239138 0.0021384382 0.03563845
-0.053886686 -0.02644544 0.013599909 0.054808304 0.021770407 0.084242225 0.0027780344 0.049087595
-0.021849122 -0.068951994 -0.040534236 0.02905905 -0.006905234 -0.0039898246 -0.059675395 0.03788866
