Curie_Weiss/checkpoints/SDE_method_ours_patch_L_16_L_64_seed_42/epoch_50.pt (torch, 40326 bytes, 7 tensors)

weight f4 [64, 1]
0	0x3e4c331f	0.19941376
1	0x3f6ff517	0.9373335
2	0xbe93543e	-0.2877521
3	0x3fa3bcce	1.2791994
4	0xbe605cb0	-0.21910357
5	0x3e4ea238	0.20179069
6	0xbf5604dc	-0.83601165
7	0x3edf7bab	0.4364904
8	0x3f1689f0	0.58804226
9	0xbf3bcf0e	-0.73362815
10	0x3f5e83a4	0.8691962
11	0x3e3fa6b0	0.1871593
12	0x3f9b8a91	1.2151662
13	0x3de23d10	0.11046803
14	0x3e3cb397	0.18427883
15	0xbf4a53b1	-0.7903395
16	0x3f7a96c3	0.97886294
17	0x3e175b38	0.14780891
18	0xbf088eb7	-0.53342766
19	0x3e828208	0.2548983
20	0xbebfa364	-0.37429345
21	0xbdf02cc0	-0.117272854
22	0xbe82899b	-0.2549561
23	0x3f29d2ae	0.66337097
24	0xbf275979	-0.653709
25	0xbf26bded	-0.65133554
26	0xbe7ce42c	-0.24696416
27	0xbf0ba5d7	-0.54549927
28	0xbcfcc466	-0.030855369
29	0xbf89a4e3	-1.0753444
30	0x3f996319	1.1983367
31	0xbf4dcd05	-0.8039096
32	0x3f5bb0c6	0.8581661
33	0x3e2a69c8	0.16641915
34	0xbea63fac	-0.32470453
35	0x3f1e31f8	0.61794996
36	0x3e1f9758	0.15585077
37	0x3f8a365f	1.0797843
38	0x3ddfe300	0.10931969
39	0xbea17898	-0.31537318
40	0x3db2fde4	0.08739832
41	0xbe8ad808	-0.27117944
42	0x3ed77aa4	0.42085755
43	0x3f94900c	1.160646
44	0x3f13fbb6	0.57805955
45	0xbedfd514	-0.43717253
46	0x3e568600	0.20949554
47	0x3d039fce	0.032134824
48	0x3e85c4b1	0.26126626
49	0xbf1c0886	-0.60950506
50	0xbf4f8351	-0.8105975
51	0xbe97989c	-0.2960862
52	0xbf3874b6	-0.72053087
53	0x3f520ed6	0.8205389
54	0x3e9378d8	0.28803134
55	0x3ed413cc	0.41421354
56	0x3eb1d61d	0.34733668
57	0xbc8e8200	-0.017395973
58	0x3f5b4f42	0.8566781
59	0xbf1ffc96	-0.6249479
60	0x3d80f320	0.062963724
61	0xbf1cfd75	-0.61324245
62	0x3e9de050	0.308352
63	0xbeb052e0	-0.3443823

bias f4 [64]
0	0xbdae9a26	-0.08525495
1	0xbeae4ab1	-0.3404136
2	0x3e83802f	0.25683734
3	0xbf01bfcf	-0.506833
4	0xbf18ad8a	-0.596398
5	0xbf18afe6	-0.596434
6	0x3f352c30	0.7077055
7	0xbc15f9b8	-0.009153776
8	0x3ee47c97	0.44626305
9	0xbf53454e	-0.82527626
10	0xbf7deb98	-0.9918761
11	0xbf4848fe	-0.7823638
12	0xbeebf0a8	-0.46082044
13	0x3dfd9f12	0.12383856
14	0x3e046efe	0.12932965
15	0x3f3310fc	0.6994779
16	0xbf04c03b	-0.5185582
17	0xbf2e84aa	-0.6817118
18	0x3ee6f754	0.4511057
19	0xbecef3e4	-0.4042045
20	0x3e9b57bd	0.30340376
21	0xbe72fef0	-0.23730063
22	0x3e5a5a4e	0.21323511
23	0xbf46e760	-0.776968
24	0xbf27e35f	-0.65581316
25	0x3ec01cd4	0.37521994
26	0x3dcc32d5	0.09970633
27	0xbee4c988	-0.44685006
28	0x3e58f2cf	0.21186374
29	0x3f11ed6f	0.5700292
30	0xbf29fc84	-0.66400933
31	0xbeecb13f	-0.46228978
32	0x3f1f7263	0.62283915
33	0xbeacc3f4	-0.3374325
34	0xbeb5832c	-0.3545164
35	0xbf77b448	-0.9675946
36	0xbf129a84	-0.5726702
37	0xbc5b28e2	-0.013376446
38	0xbe072938	-0.13199317
39	0xbf39d3aa	-0.725886
40	0xbe110024	-0.1416021
41	0xbf2ede6e	-0.6830815
42	0xbf593086	-0.84839666
43	0xbf005826	-0.50134504
44	0xbf600de6	-0.8752121
45	0xbf230144	-0.63673806
46	0x3e4fbb01	0.2028618
47	0xbc990af9	-0.01868199
48	0xbba5028e	-0.005035705
49	0xbf6ec466	-0.9326843
50	0xbf55b6c9	-0.83482033
51	0xbed86419	-0.42263868
52	0x3e221929	0.1582991
53	0xbf614286	-0.8799213
54	0xbedc9b64	-0.43087304
55	0xbf194258	-0.5986686
56	0xbe199fe6	-0.15002403
57	0xbebe8450	-0.3721032
58	0xbe16c463	-0.14723353
59	0xbf444fa6	-0.76684034
60	0xbf2fb798	-0.68639517
61	0xbf270815	-0.6524671
62	0xbeaf419c	-0.34229743
63	0xbf4a0e50	-0.7892809

weight f4 [64, 64]
0	0x3d73dd27	0.05953708
1	0xbda4242f	-0.08014714
2	0x3d80bfa5	0.06286553
3	0xbc85cb3d	-0.016332263
4	0xbdd8c7b0	-0.10584962
5	0x3db12938	0.0865044
6	0xbda1bf8c	-0.07897863
7	0xbdbea97e	-0.09309672
8	0xbe18592a	-0.14877763
9	0xbdfe8150	-0.12427008
10	0x3d127d18	0.03576383
11	0xbcdfafc0	-0.027305484
12	0xbbc7fc9f	-0.006103113
13	0xbe17082f	-0.14749216
14	0x3d434d62	0.04768122
15	0xbe0bbf0f	-0.13647102
16	0xbd9d5d1d	-0.076837756
17	0x3cd5e1f0	0.026108712
18	0x39ead242	0.00044788612
19	0x3dceabe4	0.10091379
20	0x3d4f7288	0.050646335
21	0xbdcafcf2	-0.09911527
22	0xbc62f853	-0.01385315
23	0xbd5c3978	-0.053765744
24	0xbd9bf0e0	-0.07614303
25	0xbe20f8a7	-0.15719853
26	0x3d4d21db	0.050081115
27	0xbe1f1af9	-0.15537633
28	0x3cb40797	0.021976275
29	0xbca26b38	-0.019826517
30	0xbc6ed09f	-0.014576106
31	0xbe06f75a	-0.13180295
32	0x3d8c865c	0.068615645
33	0x3ce10640	0.0274688
34	0x3c83ba38	0.016080007
35	0xbde199ea	-0.11015685
36	0x3d56ee84	0.05247356
37	0xbd8349c2	-0.064105526
38	0xbd6a8f44	-0.057265535
39	0x3ddbe3ec	0.10736832
40	0xbcd2bbb0	-0.025724262
41	0xbd8da386	-0.06915955
42	0xbd819252	-0.063267365
43	0xbd7af2ee	-0.061266832
44	0x3d8ef0c4	0.06979516
45	0xbd02d554	-0.031941727
46	0xbdee21dc	-0.11627552
47	0xbdb3f085	-0.0878611
48	0xbe0dde72	-0.13854387
49	0x3d369888	0.04457906
50	0x3d048096	0.03234919
51	0xbe2f9fb0	-0.1715076
52	0xbd099f07	-0.033598926
53	0x3d843f5c	0.06457397
54	0x3cb9ae68	0.022666171
55	0xbd3655f8	-0.04451558
56	0x3c224566	0.009904241
57	0x3d868808	0.06568915
58	0xbc0ceb39	-0.008601003
59	0xbd815db3	-0.063167
60	0xbd079408	-0.033100158
61	0xbd546ad8	-0.051859707
62	0xbcb4e4d0	-0.022081763
63	0xbd189398	-0.03725013
64	0x3da3a310	0.07990086
65	0x3ddc019c	0.107424945
66	0xbc4abf20	-0.012374669
67	0xbce54538	-0.027987108
68	0x3aef1480	0.0018240362
69	0xbbf490a0	-0.0074635297
70	0x3cf62e60	0.03005141
71	0x3d0f7ac8	0.035029203
72	0xbde88384	-0.113532096
73	0xbd3cf284	-0.04612972
74	0x3dd795cc	0.10526618
75	0x3d4773c0	0.048694372
76	0xbbcbb9a0	-0.0062171966
77	0xbd9a5808	-0.07536322
78	0xbd9c9f42	-0.076475635
79	0xbde550fa	-0.11197086
80	0xbd26e48c	-0.040745303
81	0x3d2ce790	0.042213023
82	0x3da33b2c	0.079702705
83	0x3d6c6398	0.057712168
84	0xbde24a28	-0.110493004
85	0xbd99f2e4	-0.07517031
86	0xbca19ab0	-0.019727081
87	0x3df7a438	0.12091869
88	0x3c942118	0.018082187
89	0xbd0497d0	-0.032371342
90	0x3d53d27c	0.051714405
91	0xbd4302e8	-0.047610193
92	0xbda5b28c	-0.08090696
93	0x3dbad9e4	0.091235906
94	0xbd68ceac	-0.056837723
95	0xbccd4728	-0.025058344
96	0xbdfeab7e	-0.12435053
97	0x3dab5552	0.08365883
98	0x3dc1f458	0.09470433
99	0x3d3a98f4	0.045556024
100	0xbdb28090	-0.087159276
101	0xbdfca818	-0.12336749
102	0xbdcfeaf6	-0.10152237
103	0x3dbee636	0.09321253
104	0x3d75d06c	0.06001322
105	0x3dd76cd6	0.10518806
106	0x3d861c56	0.065483734
107	0x3d01954c	0.03163652
108	0xbaa07180	-0.0012240857
109	0xbdc2b086	-0.095063254
110	0xbddb556c	-0.10709652
111	0xbdef7302	-0.11691858
112	0x3d5197e4	0.051170245
113	0xbd7b6028	-0.061371
114	0xbcce1528	-0.025156572
115	0xbd935450	-0.07193816
116	0xbcba98d0	-0.022777945
117	0xbdb42e86	-0.08797936
118	0xbda74640	-0.08167696
119	0x3d29d600	0.041463852
120	0xbd182a20	-0.03714955
121	0x3d9e0a34	0.0771679
122	0xbd24410c	-0.040101096
123	0xbdbbcb10	-0.091695905
124	0xbcb4ac68	-0.022054866
125	0xbd7830d0	-0.060593426
126	0xbd1ca460	-0.038242698
127	0xbdf3b5fc	-0.11899945
128	0x3c80b33c	0.015710466
129	0xbe0feb34	-0.14054567
130	0x3c67b6cd	0.014142704
131	0xba694c38	-0.0008899602
132	0x3db6e510	0.08930409
133	0xbdc45d86	-0.09588151
134	0x3d309e67	0.043119814
135	0xbde7e651	-0.11323226
136	0xbbf09053	-0.0073414235
137	0x3df069d2	0.117389336
138	0xbc906aa8	-0.017628983
139	0xba7d6900	-0.00096668303
140	0xbd9fc34d	-0.078009225
141	0xbe20d8fe	-0.15707776
142	0x3bb5e3a2	0.0055508176
143	0xbe31dee5	-0.17370184
144	0x3caa348e	0.020777013
145	0x3dbf8bae	0.09352814
146	0x3d994995	0.07484738
147	0xbcf18a68	-0.029484943
148	0xbe17d4b1	-0.14827229
149	0x3ce639e8	0.028103784
150	0x3cc2a7bd	0.023761624
151	0xbdfecc8e	-0.124413595
152	0xbcfb786a	-0.030697066
153	0xbde23d09	-0.11046798
154	0xbd4881ee	-0.048952036
155	0xbd75aa4e	-0.05997687
156	0xbdd17857	-0.10228031
157	0xbd99e109	-0.07513625
158	0xbe30b3ad	-0.17256041
159	0x3de1311c	0.10995695
160	0x3d51f02b	0.051254433
161	0xbca0a248	-0.019608632
162	0xbc693b00	-0.014235258
163	0xbd50f518	-0.05101499
164	0xbde72f20	-0.11288285
165	0xbe3464e3	-0.1761661
166	0x3d3e4a04	0.046457306
167	0xbd8c8e4a	-0.06863077
168	0xbe0a0dca	-0.13481823
169	0xbc1fcaa0	-0.009752899
170	0xbd2a8070	-0.041626394
171	0xbdcbba71	-0.0994767
172	0x3b839c00	0.0040163994
173	0xbcd93400	-0.026514053
174	0xbdc41073	-0.0957345
175	0xbde69a27	-0.11259871
176	0xbe2028a0	-0.15640497
177	0x3dd6a868	0.1048134
178	0xbd2da9ea	-0.04239837
179	0x3d7b74d0	0.061390698
180	0xbd7bef2f	-0.0615074
181	0x3c266c50	0.01015766
182	0x3deeab3e	0.116537556
183	0x3d6be3d8	0.057590336
184	0xbe253a5d	-0.16135545
185	0x3d4b36d8	0.04961285
186	0x3d82ed05	0.06392864
187	0x3af6dc74	0.0018834011
188	0x3daba0f4	0.08380309
189	0x3e153bd0	0.14573598
190	0xbc9ce810	-0.019153625
191	0x3cd48928	0.025944307
192	0xbedd9dec	-0.43284547
193	0xbec3d6e2	-0.3824988
194	0xbe4c3df2	-0.19945505
195	0xbe91d0af	-0.28479525
196	0xbda1fe76	-0.07909863
197	0xbdcd4856	-0.100235626
198	0xbec3f239	-0.3827074
199	0xbef563a2	-0.47927576
200	0xbede8e20	-0.43467808
201	0xbcfd3b88	-0.030912176
202	0x3dacc4c0	0.084359646
203	0x3cab6640	0.02092278
204	0xbee5b7f2	-0.44866902
205	0xbee0f21c	-0.43934715
206	0xbe8e6226	-0.27809256
207	0xbec47c8d	-0.38376275
208	0xbe9d1779	-0.3068197
209	0x3d759c08	0.059963256
210	0xbeb3f71c	-0.35149467
211	0xbc5f5050	-0.013629988
212	0xbe99b58a	-0.30021316
213	0xbcf242e8	-0.029572919
214	0xbeb870b8	-0.36023498
215	0xbde4354e	-0.111429796
216	0xbdcef07c	-0.101044625
217	0xbcd18a39	-0.025578605
218	0x3ea0da0d	0.3141636
219	0x3eaacc15	0.33358827
220	0xbed78758	-0.42095447
221	0x3e2b8bd0	0.16752553
222	0xbe83fa86	-0.25777072
223	0x3e86ba27	0.26313898
224	0xbe7942f5	-0.24341948
225	0x3d8e8f4e	0.06960927
226	0xbdfdd302	-0.12393762
227	0x3c35a260	0.0110860765
228	0x3d9b12a2	0.07571913
229	0xbebb3aa0	-0.36568165
230	0xbd96db00	-0.0736599
231	0x3df40e14	0.11916748
232	0xbd3f8094	-0.04675348
233	0xbd91c090	-0.071168065
234	0xbde6cc50	-0.11269438
235	0xbe9e7aed	-0.3095316
236	0x3d62e258	0.05539164
237	0x3ce2acf0	0.027670354
238	0xbea072b4	-0.31337512
239	0xbed0409f	-0.40674302
240	0xbef22f6a	-0.473018
241	0x3b104180	0.0022011697
242	0x3de96df6	0.113979265
243	0x3d93b11e	0.07211517
244	0x3dccfd65	0.10009269
245	0xbc84ec88	-0.016226068
246	0xbdbcb810	-0.09214795
247	0xbd770034	-0.060302928
248	0xbea2972d	-0.31755963
249	0x3d8b66e0	0.06806731
250	0xbe835c0b	-0.2565616
251	0xbdeb0900	-0.11476326
252	0x3dab2a5e	0.0835769
253	0xbdb48e06	-0.08816151
254	0x3d3fba2c	0.046808407
255	0x3dd8a388	0.10578066

bias f4 [64]
0	0xbe047d09	-0.12938322
1	0xbdca03f2	-0.09864034
2	0x3d22a362	0.039706595
3	0xbea53979	-0.3227041
4	0xbd3a3221	-0.045457963
5	0xbdf77aa2	-0.12083937
6	0x3d2fbe26	0.04290595
7	0xbe06120e	-0.13092825
8	0x3cbddd13	0.023176705
9	0xbd993cfa	-0.074823335
10	0xbdbe68c0	-0.09297323
11	0xbe5f47b6	-0.218047
12	0xbdbeac6d	-0.09310231
13	0xbe65fc92	-0.22459629
14	0x3cd83196	0.026390832
15	0x3cdf8720	0.027286112
16	0x3ca41e9a	0.020034123
17	0xbdb2a151	-0.08722175
18	0xbdedf7e2	-0.116195455
19	0x3d0ac0e1	0.03387535
20	0xbd1e7f48	-0.038695604
21	0xbe2d7c57	-0.16941963
22	0x3d8abbda	0.06774111
23	0xbde75ff6	-0.112976
24	0x3d903759	0.07041807
25	0xbdc2bbea	-0.09508498
26	0x3daa7724	0.083235055
27	0xbcbbcd24	-0.022924967
28	0xbd763a9d	-0.06011449
29	0xbd0ec508	-0.034855872
30	0xbd8a8e2b	-0.06765398
31	0xbde2a6a5	-0.11066941
32	0x3c0c8ae6	0.008578038
33	0x3c7c22c2	0.015389146
34	0xbe9ad972	-0.30244023
35	0xbdd5505a	-0.104157165
36	0xbd1b18e6	-0.037865542
37	0xbdfc0d9f	-0.123072855
38	0xbdc90f05	-0.09817318
39	0x3c89323e	0.01674759
40	0xbe04548a	-0.12922874
41	0x3add775f	0.0016896537
42	0xbedf264a	-0.435839
43	0xbcc772b0	-0.02434668
44	0xbdb0e1d0	-0.0863682
45	0xbd226acb	-0.039652627
46	0x3b3fcc77	0.0029266158
47	0xbcb344ce	-0.021883395
48	0xbdea1038	-0.11428875
49	0xbe354f64	-0.17706066
50	0xbe00595e	-0.12534091
51	0xbe164a86	-0.14676866
52	0x3d543a30	0.051813304
53	0xbe03507e	-0.12823674
54	0xbbad2e38	-0.0052850507
55	0x3d261065	0.04054298
56	0xbd03108d	-0.031998206
57	0xbe223a27	-0.15842496
58	0xbc68a4f0	-0.01419948
59	0xbdbd0adb	-0.09230586
60	0xbc34bdcc	-0.011031579
61	0xbdaa5761	-0.083174475
62	0xbdfb2e98	-0.122647464
63	0x3d151d7e	0.03640508

weight f4 [64, 64]
0	0x3d5d9e7e	0.054106228
1	0x3d6d5704	0.057944313
2	0xbb73ccbc	-0.0037200889
3	0x3ef7e0f3	0.4841381
4	0x3d03b9a6	0.03215947
5	0xbccdb1c0	-0.025109172
6	0x3cd95c32	0.02653322
7	0xbe3c90d8	-0.18414629
8	0x3d2ddc5c	0.04244648
9	0xbb1afe4a	-0.0023650103
10	0xbdebc041	-0.11511279
11	0x3e79c36b	0.24390952
12	0x3c97e699	0.018542575
13	0x3ea3284b	0.3186668
14	0xbd688e29	-0.0567762
15	0xbd069e73	-0.032865953
16	0xbd1489a9	-0.036264095
17	0x3d3457b4	0.044028953
18	0xbd282456	-0.041050278
19	0xbc013efb	-0.007888551
20	0x3bc800ed	0.006103626
21	0xbd98e9a3	-0.07466438
22	0x3c7fe0f7	0.015617601
23	0xbdabe2bc	-0.083928555
24	0xbbc48e95	-0.0059984424
25	0x3d1ae9aa	0.037820496
26	0xbda51c17	-0.08061998
27	0xbdc3ed68	-0.09566766
28	0xbde5ca87	-0.1122027
29	0x3e04306b	0.12909095
30	0xbbd1243a	-0.0063824924
31	0xbd4c2b71	-0.049846116
32	0xbc35513f	-0.011066734
33	0x3c460cea	0.01208804
34	0x3eda4992	0.42634255
35	0xbe4a2b8b	-0.19743173
36	0xbdc6149f	-0.09671902
37	0x3e001bbf	0.12510584
38	0xbea6929e	-0.32533735
39	0xbda6ec40	-0.0815053
40	0x3cac2aab	0.02101644
41	0x3e163ceb	0.14671676
42	0x3d1a7c38	0.03771612
43	0xbe0e79e8	-0.13913691
44	0xbd237178	-0.039903134
45	0x3d8b0908	0.06788832
46	0xbd35c8e5	-0.04438104
47	0xbdcfdb85	-0.10149292
48	0xbdfb7168	-0.1227749
49	0xbe03ca78	-0.12870204
50	0xbd659a6f	-0.056055482
51	0x3d3a51e7	0.045488264
52	0xbd997e65	-0.07494811
53	0x3decaf0b	0.11556824
54	0x3d1562c5	0.036471147
55	0xbd6d4a1b	-0.057932
56	0x3da6f2a9	0.081517525
57	0x3da63a4d	0.08116589
58	0xbddcce70	-0.10781562
59	0x3c634953	0.013872462
60	0x3b934d4f	0.0044953
61	0x3da97f27	0.082762055
62	0xbeac7853	-0.3368555
63	0xbc7a6637	-0.015283159
64	0xbaae5500	-0.0013300478
65	0x3d6d89fc	0.05799292
66	0x3d80ffde	0.06298803
67	0xbf0e9a50	-0.5570421
68	0x3dad80a6	0.08471803
69	0x3d970372	0.07373704
70	0xbc184876	-0.00929462
71	0xbccd52a7	-0.025063826
72	0xbd1d6800	-0.03842926
73	0xbd791dc8	-0.060819417
74	0xbc6b0b50	-0.014345959
75	0x3ea3a997	0.31965324
76	0xba671e00	-0.0008816421
77	0x3e90c3da	0.28274423
78	0x3d9edce8	0.07756978
79	0xbd23e7ad	-0.040015865
80	0x3b64939c	0.003487802
81	0xbd078034	-0.03308125
82	0xbd9682e6	-0.07349186
83	0x3be7cbf7	0.007073875
84	0xbdf17c6a	-0.11791308
85	0x3da57e14	0.08080688
86	0xbdc65bb4	-0.0968546
87	0xbd10f988	-0.03539422
88	0x3df30784	0.11866668
89	0xbd39cc33	-0.045360755
90	0xbc6b51af	-0.014362737
91	0xbdca4664	-0.09876707
92	0x3d08a344	0.033358827
93	0xbcaeeecc	-0.021354102
94	0xbdef1dc9	-0.11675603
95	0x3ddf24b8	0.108956754
96	0x3d5473e8	0.05186835
97	0xbd5e1cf2	-0.054226823
98	0x3e9deaa0	0.30843067
99	0xbea46fd5	-0.3211657
100	0x3d8b376e	0.06797682
101	0x3df6b940	0.120470524
102	0xbe302e3b	-0.17205136
103	0xbdb1cba6	-0.08681421
104	0x3e329cc4	0.17442614
105	0xbdb626cb	-0.08894118
106	0xbd2fd674	-0.042929128
107	0xbe2733b6	-0.1632832
108	0x3de2468e	0.110486135
109	0x3e39d35f	0.18147038
110	0x3d4ba31d	0.049716104
111	0x3d2ada48	0.041712075
112	0xbde0d3c6	-0.109778926
113	0xbcc74010	-0.02432254
114	0x3d24b161	0.040208224
115	0x3da54eb5	0.08071653
116	0xbdf84961	-0.12123371
117	0x3df54318	0.11975688
118	0x3d844230	0.06457937
119	0x3dc7834e	0.09741841
120	0xbd92c0b9	-0.07165665
121	0x3e463c01	0.19358827
122	0xbdf1dece	-0.11810075
123	0xbccffbd3	-0.025388634
124	0x3e199d60	0.1500144
125	0x3d034a54	0.032053307
126	0xbcea9555	-0.02863566
127	0xbd893dde	-0.06701253
128	0x3e04d556	0.12972006
129	0xbdf04326	-0.117315575
130	0xbdd898b6	-0.10576002
131	0xbe692001	-0.22766115
132	0xbdd5c434	-0.104378134
133	0xbdf355dc	-0.11881611
134	0xbe1b6b30	-0.15177608
135	0x3d41e7e4	0.04734029
136	0xbbe4da0a	-0.006984
137	0xbd235d50	-0.03988391
138	0xb99e7b7c	-0.0003022811
139	0x3e4e2c5f	0.20134114
140	0xbdf1c784	-0.11805633
141	0x3e4f5e40	0.20250797
142	0xbdf7aa0c	-0.12092981
143	0x3e9e0ae8	0.30867696
144	0xbd57c597	-0.05267867
145	0xbd0a3620	-0.033743024
146	0xbd429a94	-0.0475107
147	0xbd045920	-0.03231156
148	0xbc99a290	-0.018754274
149	0xbe0da70c	-0.13833255
150	0x3e045ea0	0.12926722
151	0x3cefff87	0.02929665
152	0xbd79655e	-0.060887687
153	0x3e00e53c	0.12587446
154	0xbd951b04	-0.072805434
155	0xba9aae80	-0.0011801273
156	0x3d59ee9c	0.05320607
157	0xbd9a6851	-0.07539428
158	0x3d5b3692	0.05351884
159	0x3cc219cb	0.02369394
160	0xbda62d82	-0.08114149
161	0xbde7b19d	-0.11313174
162	0x3e361a64	0.17783505
163	0xbe5f0e98	-0.21782911
164	0x3c92a659	0.017901586
165	0xbcb1eae9	-0.02171846
166	0xbda6e310	-0.081487775
167	0xbdfd1998	-0.12358397
168	0x3b56325d	0.0032683827
169	0x3d6eb80d	0.058280993
170	0x3d8eff74	0.069823176
171	0x3d629423	0.055317055
172	0xbd785c8c	-0.060635135
173	0xbd8dbbee	-0.0692061
174	0x3d83f49c	0.0644314
175	0x3b1ffe80	0.0024413168
176	0xbdb7bf7a	-0.08972068
177	0x3c961ed8	0.018325254
178	0xbdaf14b8	-0.08548874
179	0x3da99478	0.08280271
180	0x3cfb33fe	0.03066444
181	0x3e0498d4	0.12948924
182	0x3e13a4dd	0.14418359
183	0xbdb65356	-0.08902614
184	0xbd9118a7	-0.0708478
185	0xbd7ffbcc	-0.06249599
186	0xbc633820	-0.013868362
187	0x3d192300	0.037386894
188	0xbc8baea9	-0.017051058
189	0xbd8ac445	-0.06775717
190	0xbeadec47	-0.33969328
191	0x3cab2671	0.020892354
192	0xbd8664ee	-0.065622196
193	0xbdee6ca2	-0.11641814
194	0x3d4739dd	0.048639167
195	0xbe64ce20	-0.22344255
196	0xbe18d3a6	-0.14924487
197	0x3c5030a0	0.012706906
198	0x3d58e23c	0.05295013
199	0xbdf0dc08	-0.11760718
200	0xbe1fccb0	-0.15605426
201	0x3e0219e4	0.12705189
202	0xbb224080	-0.0024757683
203	0x3d230a50	0.039804757
204	0x3bfc85f4	0.007706398
205	0x3cb9a978	0.022663817
206	0x3e03dc9f	0.12877129
207	0xbebc7852	-0.36810547
208	0xbdafb943	-0.08580258
209	0xbd777dd8	-0.06042275
210	0xbcd0383d	-0.025417442
211	0x3d04d7ac	0.032432243
212	0xbdf1f008	-0.118133605
213	0xbd668bf6	-0.05628582
214	0x3d3ab77f	0.04558515
215	0xbde13e99	-0.10998268
216	0xbdb9b5b2	-0.09067859
217	0xbda6b2eb	-0.08139595
218	0xbdc14980	-0.09437847
219	0x3d98d5a1	0.074626215
220	0xbd79a35d	-0.06094681
221	0x3c85bcc9	0.016325371
222	0xbdcce3b8	-0.100043714
223	0xbd804483	-0.062630676
224	0xbc0a2d40	-0.00843364
225	0x3cfdbcf1	0.030973883
226	0xbd9f04a4	-0.07764557
227	0xbde8f4b2	-0.11374797
228	0xbe065c91	-0.13121249
229	0xbe083e05	-0.13304909
230	0xbe122b18	-0.14274251
231	0x3decea2e	0.11568104
232	0xbe02f609	-0.12789167
233	0xbde30c2b	-0.11086305
234	0xbdd0b130	-0.10190046
235	0xbd809adc	-0.06279537
236	0xbb65f9c0	-0.003509149
237	0xbe278ba4	-0.16361862
238	0xbd2a3386	-0.041553043
239	0x3d7fd8c4	0.062462583
240	0xbd20d5cf	-0.039266404
241	0x3dbe7a50	0.09300673
242	0xbc89e426	-0.016832422
243	0x3d45a1a4	0.048249856
244	0xbd4d7e57	-0.050169315
245	0x3d867b7a	0.0656652
246	0x3dab903d	0.08377121
247	0x3df4cedc	0.11953518
248	0x3d148eef	0.036269125
249	0xbe03effb	-0.12884514
250	0xbdab7474	-0.08371821
251	0x3d86be83	0.06579306
252	0x3a935f01	0.0011243523
253	0x3dbc9226	0.09207563
254	0x3cd46883	0.025928741
255	0xbd88104d	-0.06643734

bias f4 [64]
0	0x3d6993fa	0.057025887
1	0x3c92d0af	0.017921774
2	0x3dca9dd9	0.09893388
3	0xbe936392	-0.28786904
4	0xbda203c9	-0.07910878
5	0xbc14ccdc	-0.009082045
6	0xbe10e603	-0.14150243
7	0xbe2a75a8	-0.16646445
8	0xbe6c9fdd	-0.23107858
9	0xbd84e24c	-0.06488475
10	0xbd7e313a	-0.062058665
11	0xbd850e8a	-0.06496914
12	0xbda4fbff	-0.08055877
13	0x3adc6065	0.0016813396
14	0xbd8042bf	-0.06262731
15	0xbd1953f7	-0.03743359
16	0xbde8f6a9	-0.11375172
17	0xbe1ed89e	-0.1551232
18	0xbdf0ee09	-0.117641516
19	0xbd7bdf54	-0.06149228
20	0xbe0d2416	-0.13783297
21	0xbe74bd4d	-0.23900338
22	0xbbcaee12	-0.006192931
23	0xbe1cb7bd	-0.15304466
24	0xbdbc350d	-0.09189806
25	0xbd99bed4	-0.07507101
26	0xbd8d6bf9	-0.0690536
27	0xbd4541a8	-0.048158318
28	0x3c85d3ab	0.016336283
29	0xbdbe4768	-0.092909634
30	0xbe933e6f	-0.2875857
31	0xbd6db490	-0.058033526
32	0xbde9074d	-0.11378346
33	0x3d1cfd8d	0.038327742
34	0x3d920c5f	0.07131266
35	0xbe7c01a1	-0.24609996
36	0xbe29eacf	-0.16593479
37	0xbced4197	-0.02896194
38	0xbd513a2a	-0.05108086
39	0x3c48d9b9	0.01225894
40	0xbe413013	-0.18865995
41	0xbe38175a	-0.17977658
42	0xbdb140f2	-0.086549655
43	0xbdb809fa	-0.08986278
44	0xbe38decc	-0.1805374
45	0xbe322b29	-0.17399277
46	0x3ca7e79f	0.020496188
47	0xbc8d16e3	-0.017222827
48	0xbdc5c1ba	-0.09656091
49	0xbddb7e8e	-0.10717498
50	0xbe08ef93	-0.1337264
51	0xbd257a31	-0.040399734
52	0xbd273601	-0.040822987
53	0xbda068f6	-0.0783252
54	0xbd6263f4	-0.055271104
55	0xbe1753d1	-0.14778067
56	0x3ca1f9e0	0.01977247
57	0xbe9151a0	-0.28382587
58	0xbecc6991	-0.3992429
59	0xbeac3151	-0.33631375
60	0x3c602e35	0.013682892
61	0xbe007c5b	-0.12547438
62	0xbe126149	-0.14294924
63	0xbd6d2513	-0.057896685

weight f4 [1, 64]
0	0x3c064527	0.008195198
1	0x3be64ac9	0.007027958
2	0x3dfe4907	0.124162726
3	0xbc46dddb	-0.012137855
4	0xbdb6c0f8	-0.089235246
5	0xbbd73749	-0.00656787
6	0x3e5086d9	0.2036394
7	0xbdcc0b2a	-0.09963067
8	0xbe56ad79	-0.20964612
9	0xbd0f4fa5	-0.034988064
10	0x3dae288e	0.08503829
11	0x3d9a914d	0.07547245
12	0xbcbf8461	-0.023378553
13	0x3c7c21f2	0.015388953
14	0x3d93eae3	0.072225355
15	0xbb53832a	-0.0032274225
16	0x3c929c9d	0.017896945
17	0x3de757cb	0.11296042
18	0xba64eff1	-0.0008733264
19	0x3da88714	0.08228889
20	0x3c7acc7a	0.01530754
21	0x3dc90ced	0.098169185
22	0xbb00e607	-0.0019668357
23	0xbbfb4b14	-0.007668862
24	0xbc00d7fc	-0.007863995
25	0xbd045bae	-0.032313995
26	0x3c94cfe0	0.018165529
27	0xbd4c7a10	-0.049921095
28	0x3bae3575	0.005316431
29	0x3c9471a8	0.018120602
30	0xbe66c766	-0.22537002
31	0x3d339c53	0.043850254
32	0x3cd5ab5a	0.026082683
33	0xbc4fe397	-0.012688539
34	0xbdb9aef2	-0.09066571
35	0x3da75f0a	0.08172424
36	0xbc98812f	-0.018616287
37	0xbb903c5b	-0.004401726
38	0x3cfd89c0	0.030949473
39	0x3ab1ba4e	0.0013559551
40	0x3d7fdab3	0.062464427
41	0xbc26537f	-0.010151743
42	0x3d7c94db	0.061665397
43	0x3d744c65	0.059643168
44	0x3ccbbcb4	0.024870254
45	0x3da38122	0.079836145
46	0x39b2f791	0.00034135257
47	0x3d109ac2	0.03530384
48	0x3c630b5e	0.013857691
49	0x3da13e88	0.07873255
50	0x3d79d4f5	0.060994107
51	0x3d605667	0.0547699
52	0x3cacf0b0	0.021110862
53	0x3dac8730	0.084242225
54	0x3c5f13ea	0.013615588
55	0x3d348d50	0.04408008
56	0x3ce0e188	0.027451292
57	0xbe207823	-0.15670829
58	0x3e6f02d2	0.2334092
59	0xbe7565b8	-0.23964584
60	0x3c1c3ff5	0.009536733
61	0xbbac3da7	-0.005256373
62	0x3d4d1297	0.050066557
63	0x3d1a33c3	0.03764702
