Curie_Weiss/checkpoints/SDE_method_ours_patch_L_16_L_64_seed_42/epoch_25.pt (torch, 40326 bytes, 7 tensors)

weight f4 [64, 1]
00000000: 2719 6a3e e9dc 673f 1111 84be 29f7 9a3f
00000010: b05c 60be 38a2 4e3e 1e59 5cbf 13a3 da3e
00000020: 0c52 413f 0ecf 3bbf a483 5e3f b0a6 3f3e
00000030: abd9 943f 4b8d 093e bc32 823e a394 51bf
00000040: e23a 7c3f 385b 173e a1af 0bbf 0882 823e
00000050: fd34 d5be c02c f0bd 4bef acbe aed2 293f
00000060: 7959 27bf 82fa 29bf dd5b 88be 01ef efbe
00000070: cea6 d5bc a387 8fbf 11f8 983f 4fe3 5bbf
00000080: a4f8 6b3f c869 2a3e ac3f a6be f831 1e3f
00000090: 5897 1f3e d856 833f 00e3 df3d 9878 a1be
000000a0: e4fd b23d 08d8 8abe a47a d73e 4457 8d3f
000000b0: b6fb 133f 14d5 dfbe c5c2 943e d1b0 143d
000000c0: dac0 993e 8608 1cbf 5183 4fbf 9c98 97be
000000d0: bcea 40bf d60e 523f d878 933e cc13 d43e
000000e0: a097 ab3e 0082 8ebc 826f 533f 96fc 1fbf
000000f0: 20f3 803d 75fd 1cbf 50e0 9d3e e052 b0be
0.22861157 0.9057146 -0.2579427 1.2106677 -0.21910357 0.20179069 -0.8607348 0.4270254
0.7551582 -0.73362815 0.8691962 0.1871593 1.1628927 0.13432805 0.25429332 -0.81867427
0.9852735 0.14780891 -0.54564863 0.2548983 -0.4164199 -0.117272854 -0.33776316 0.66337097
-0.653709 -0.6639787 -0.26632586 -0.46862033 -0.026080515 -1.1213268 1.1950704 -0.8589372
0.9217627 0.16641915 -0.32470453 0.61794996 0.15585077 1.0260878 0.10931969 -0.31537318
0.08739832 -0.27117944 0.42085755 1.1042256 0.57805955 -0.43717253 0.29054847 0.036301438
0.30029947 -0.60950506 -0.8105975 -0.2960862 -0.75358176 0.8205389 0.28803134 0.41421354
0.33514118 -0.017395973 0.8259202 -0.6249479 0.062963724 -0.61324245 0.308352 -0.3443823

bias f4 [64]
00000000: 2889 95bc 3e3c 90be a17a bd3e 25ab eebe
00000010: 8aad 18bf e6af 18bf 7af3 383f d2ea 173c
00000020: 89a6 123f 4e45 53bf 98eb 7dbf fe48 48bf
00000030: 09e9 cdbe 3ff7 523e c20a 3f3e 98f1 353f
00000040: 94f3 f5be aa84 2ebf 13be eb3e e4f3 cebe
00000050: 9c3f ae3e f0fe 72be cfcb 8c3e 60e7 46bf
00000060: 5fe3 27bf cc17 c13e 8a2c 143e 6bd5 d0be
00000070: 4ba9 943e 74b3 0b3f c433 27bf 4d58 ebbe
00000080: 1dcd 313f f4c3 acbe 2c83 b5be 48b4 77bf
00000090: 849a 12bf 4300 5abc 3829 07be aad3 39bf
000000a0: 2400 11be 6ede 2ebf 8630 59bf ddbd 01bf
000000b0: e60d 60bf 4401 23bf 4d38 a23e 7831 90bc
000000c0: 9448 313d 66c4 6ebf c9b6 55bf 1964 d8be
000000d0: 28b8 313e 8642 61bf 649b dcbe 5842 19bf
000000e0: 3c04 03be 5084 bebe fb4c 10be a64f 44bf
000000f0: 98b7 2fbf 1508 27bf 9c41 afbe 500e 4abf
-0.018253878 -0.2817096 0.3700762 -0.46614948 -0.596398 -0.596434 0.72246516 0.009272294
0.5728536 -0.82527626 -0.9918761 -0.7823638 -0.40216854 0.2060213 0.18656448 0.7107177
-0.48037398 -0.6817118 0.46043453 -0.4042045 0.34032905 -0.23730063 0.27499244 -0.776968
-0.65581316 0.37713468 0.14470115 -0.40787825 0.2903541 0.545707 -0.65313363 -0.45965806
0.69453603 -0.3374325 -0.3545164 -0.9675946 -0.5726702 -0.013305726 -0.13199317 -0.725886
-0.1416021 -0.6830815 -0.84839666 -0.50680333 -0.8752121 -0.63673806 0.3168358 -0.017601714
0.043282107 -0.9326843 -0.83482033 -0.42263868 0.17355406 -0.8799213 -0.43087304 -0.5986686
-0.12794584 -0.3721032 -0.14091866 -0.76684034 -0.68639517 -0.6524671 -0.34229743 -0.7892809

weight f4 [64, 64]
00000000: 27dd 733d 2f24 a4bd a5bf 803d 3dcb 85bc
00000010: b0c7 d8bd 3829 b13d 8cbf a1bd 7ea9 bebd
00000020: 2a59 18be 5081 febd 187d 123d c0af dfbc
00000030: 9ffc c7bb 2f08 17be 624d 433d 0fbf 0bbe
00000040: 1d5d 9dbd f0e1 d53c 42d2 ea39 e4ab ce3d
00000050: 8872 4f3d f2fc cabd 53f8 62bc 7839 5cbd
00000060: e0f0 9bbd a7f8 20be db21 4d3d f91a 1fbe
00000070: 9707 b43c 386b a2bc 9fd0 6ebc 5af7 06be
00000080: 5c86 8c3d 4006 e13c 38ba 833c ea99 e1bd
00000090: 84ee 563d c249 83bd 448f 6abd ece3 db3d
000000a0: b0bb d2bc 86a3 8dbd 5292 81bd eef2 7abd
000000b0: c4f0 8e3d 54d5 02bd dc21 eebd 85f0 b3bd
000000c0: 72de 0dbe 8898 363d 9680 043d b09f 2fbe
000000d0: 079f 09bd 5c3f 843d 68ae b93c f855 36bd
000000e0: 6645 223c 0888 863d 39eb 0cbc b35d 81bd
000000f0: 0894 07bd d86a 54bd d0e4 b4bc 9893 18bd
00000100: 10a3 a33d 9c01 dc3d 20bf 4abc 3845 e5bc
00000110: 8014 ef3a a090 f4bb 602e f63c c87a 0f3d
00000120: 8483 e8bd 84f2 3cbd cc95 d73d c073 473d
00000130: a0b9 cbbb 0858 9abd 429f 9cbd fa50 e5bd
00000140: 8ce4 26bd 90e7 2c3d 2c3b a33d 9863 6c3d
00000150: 284a e2bd e4f2 99bd b09a a1bc 38a4 f73d
00000160: 1821 943c d097 04bd 7cd2 533d e802 43bd
00000170: 8cb2 a5bd e4d9 ba3d acce 68bd 2847 cdbc
00000180: 7eab febd 5255 ab3d 58f4 c13d f498 3a3d
00000190: 9080 b2bd 18a8 fcbd f6ea cfbd 36e6 be3d
000001a0: 6cd0 753d d66c d73d 561c 863d 4c95 013d
000001b0: 8071 a0ba 86b0 c2bd 6c55 dbbd 0273 efbd
000001c0: e497 513d 2860 7bbd 2815 cebc 5054 93bd
000001d0: d098 babc 862e b4bd 4046 a7bd 00d6 293d
000001e0: 202a 18bd 340a 9e3d 0c41 24bd 10cb bbbd
000001f0: 68ac b4bc d030 78bd 60a4 1cbd fcb5 f3bd
00000200: 3cb3 803c 34eb 0fbe cdb6 673c 384c 69ba
00000210: 10e5 b63d 865d c4bd 679e 303d 51e6 e7bd
00000220: 5390 f0bb d269 f03d a86a 90bc 0069 7dba
00000230: 4dc3 9fbd fed8 20be a2e3 b53b e5de 31be
00000240: 8e34 aa3c ae8b bf3d 9549 993d 688a f1bc
00000250: b1d4 17be e839 e63c bda7 c23c 8ecc febd
00000260: 6a78 fbbc 093d e2bd ee81 48bd 4eaa 75bd
00000270: 5778 d1bd 09e1 99bd adb3 30be 1c31 e13d
00000280: 2bf0 513d 48a2 a0bc 003b 69bc 18f5 50bd
00000290: 202f e7bd e364 34be 044a 3e3d 4a8e 8cbd
000002a0: ca0d 0abe a0ca 1fbc 7080 2abd 71ba cbbd
000002b0: 009c 833b 0034 d9bc 7310 c4bd 279a e6bd
000002c0: a028 20be 68a8 d63d eaa9 2dbd d074 7b3d
000002d0: 2fef 7bbd 506c 263c 3eab ee3d d8e3 6b3d
000002e0: 5d3a 25be d836 4b3d 05ed 823d 74dc f63a
000002f0: f4a0 ab3d d03b 153e 10e8 9cbc 2889 d43c
00000300: d2ed b1bd e005 d3bc e696 bd3d c23c 833d
00000310: 76fe a1bd 5648 cdbd ecf0 aebd 04a4 fcbd
00000320: 228a c5bd 883b fdbc c0c4 ac3d 4066 ab3c
00000330: 0ab7 c2bd 8c5e cdbd 14b5 7e3d 626c bebd
00000340: 402a 7cbc 089c 753d b4f5 6cbd 5050 5fbc
00000350: 6044 32bc e842 f2bc dccc 81bd 4e35 e4bd
00000360: 7cf0 cebd 0414 89bd 2441 f73d b44d 77bd
00000370: 42e9 abbd 3036 f83c cc1c 0d3d d043 8c3d
00000380: 4097 c23d 4e8f 8e3d 02d3 fdbd 60a2 353c
00000390: a212 9b3d 9049 3dbc 00db 96bd 140e f43d
000003a0: 9480 3fbd 90c0 91bd 50cc e6bd 20f6 b63b
000003b0: 58e2 623d f0ac e23c e87e ca3c ae25 c2bd
000003c0: 3c13 efbd 8041 103b f66d e93d 1eb1 933d
000003d0: 4e0d 95bd 88ec 84bc 10b8 bcbd 3400 77bd
000003e0: d871 b93c e066 8b3d 0210 d43d 0009 ebbd
000003f0: 5e2a ab3d 068e b4bd 2cba 3f3d 88a3 d83d
0.05953708 -0.08014714 0.06286553 -0.016332263 -0.10584962 0.0865044 -0.07897863 -0.09309672
-0.14877763 -0.12427008 0.03576383 -0.027305484 -0.006103113 -0.14749216 0.04768122 -0.13647102
-0.076837756 0.026108712 0.00044788612 0.10091379 0.050646335 -0.09911527 -0.01385315 -0.053765744
-0.07614303 -0.15719853 0.050081115 -0.15537633 0.021976275 -0.019826517 -0.014576106 -0.13180295
0.068615645 0.0274688 0.016080007 -0.11015685 0.05247356 -0.064105526 -0.057265535 0.10736832
-0.025724262 -0.06915955 -0.063267365 -0.061266832 0.06979516 -0.031941727 -0.11627552 -0.0878611
-0.13854387 0.04457906 0.03234919 -0.1715076 -0.033598926 0.06457397 0.022666171 -0.04451558
0.009904241 0.06568915 -0.008601003 -0.063167 -0.033100158 -0.051859707 -0.022081763 -0.03725013
0.07990086 0.107424945 -0.012374669 -0.027987108 0.0018240362 -0.0074635297 0.03005141 0.035029203
-0.113532096 -0.04612972 0.10526618 0.048694372 -0.0062171966 -0.07536322 -0.076475635 -0.11197086
-0.040745303 0.042213023 0.079702705 0.057712168 -0.110493004 -0.07517031 -0.019727081 0.12091869
0.018082187 -0.032371342 0.051714405 -0.047610193 -0.08090696 0.091235906 -0.056837723 -0.025058344
-0.12435053 0.08365883 0.09470433 0.045556024 -0.087159276 -0.12336749 -0.10152237 0.09321253
0.06001322 0.10518806 0.065483734 0.03163652 -0.0012240857 -0.095063254 -0.10709652 -0.11691858
0.051170245 -0.061371 -0.025156572 -0.07193816 -0.022777945 -0.08797936 -0.08167696 0.041463852
-0.03714955 0.0771679 -0.040101096 -0.091695905 -0.022054866 -0.060593426 -0.038242698 -0.11899945
0.015710466 -0.14054567 0.014142704 -0.0008899602 0.08930409 -0.09588151 0.043119814 -0.11323226
-0.0073414235 0.117389336 -0.017628983 -0.00096668303 -0.078009225 -0.15707776 0.0055508176 -0.17370184
0.020777013 0.09352814 0.07484738 -0.029484943 -0.14827229 0.028103784 0.023761624 -0.124413595
-0.030697066 -0.11046798 -0.048952036 -0.05997687 -0.10228031 -0.07513625 -0.17256041 0.10995695
0.051254433 -0.019608632 -0.014235258 -0.05101499 -0.11288285 -0.1761661 0.046457306 -0.06863077
-0.13481823 -0.009752899 -0.041626394 -0.0994767 0.0040163994 -0.026514053 -0.0957345 -0.11259871
-0.15640497 0.1048134 -0.04239837 0.061390698 -0.0615074 0.01015766 0.116537556 0.057590336
-0.16135545 0.04961285 0.06392864 0.0018834011 0.08380309 0.14573598 -0.019153625 0.025944307
-0.08687939 -0.025759637 0.09257297 0.06408073 -0.07909863 -0.100235626 -0.08542046 -0.12335971
-0.09645487 -0.030912176 0.084359646 0.02092278 -0.09507568 -0.10027799 0.06218441 -0.09298016
-0.015390933 0.059963256 -0.05785151 -0.013629988 -0.01088056 -0.029572919 -0.06337902 -0.111429796
-0.101044625 -0.06693271 0.120729715 -0.060376838 -0.083941 0.030299276 0.03445129 0.06848872
0.09501505 0.06960927 -0.12393762 0.0110860765 0.07571913 -0.011553183 -0.0736599 0.11916748
-0.04675348 -0.071168065 -0.11269438 0.0055835396 0.05539164 0.027670354 0.024718717 -0.09479843
-0.116735905 0.0022011697 0.113979265 0.07211517 -0.07277928 -0.016226068 -0.09214795 -0.060302928
0.022637293 0.06806731 0.10354616 -0.11476326 0.0835769 -0.08816151 0.046808407 0.10578066

bias f4 [64]
00000000: 097d 04be f203 cabd 62a3 223d f0b9 5f3c
00000010: 2132 3abd a27a f7bd 26be 2f3d 0e12 06be
00000020: 03ab 003d fa3c 99bd c068 bebd b647 5fbe
00000030: 6dac bebd b8a3 0fbd 9631 d83c aaa6 a8bc
00000040: 9a1e a43c 51a1 b2bd e2f7 edbd e1c0 0a3d
00000050: 487f 1ebd 577c 2dbe dabb 8a3d f65f e7bd
00000060: 5937 903d 99b7 a6bd 2477 aa3d 24cd bbbc
00000070: 9d3a 76bd 08c5 0ebd 2b8e 8abd a5a6 e2bd
00000080: e68a 0c3c c222 7c3c 1aea 43be 5a50 d5bd
00000090: e618 1bbd 9f0d fcbd 0129 b9bd 3e32 893c
000000a0: 8a54 04be 5f77 dd3a 40ad f8bd b072 c7bc
000000b0: d0e1 b0bd cb6a 22bd 77cc 3f3b ce44 b3bc
000000c0: 3810 eabd 644f 35be 5e59 00be 864a 16be
000000d0: 0a8f 593d 7e50 03be 382e adbb 6510 263d
000000e0: 8d10 03bd 273a 22be f0a4 68bc db0a bdbd
000000f0: ccbd 34bc 6157 aabd 1cd9 02be 5029 183d
-0.12938322 -0.09864034 0.039706595 0.013655171 -0.045457963 -0.12083937 0.04290595 -0.13092825
0.03141309 -0.074823335 -0.09297323 -0.218047 -0.09310231 -0.035068244 0.026390832 -0.020587284
0.020034123 -0.08722175 -0.116195455 0.03387535 -0.038695604 -0.16941963 0.06774111 -0.112976
0.07041807 -0.08140487 0.083235055 -0.022924967 -0.06011449 -0.034855872 -0.06765398 -0.11066941
0.008578038 0.015389146 -0.19132271 -0.104157165 -0.037865542 -0.123072855 -0.09041024 0.01674759
-0.12922874 0.0016896537 -0.1214242 -0.02434668 -0.0863682 -0.039652627 0.0029266158 -0.021883395
-0.11428875 -0.17706066 -0.12534091 -0.14676866 0.05311493 -0.12823674 -0.0052850507 0.04054298
-0.031998206 -0.15842496 -0.01419948 -0.09230586 -0.011031579 -0.083174475 -0.12778133 0.037148774

weight f4 [64, 64]
00000000: 7e9e 5d3d 0457 6d3d bccc 73bb d66a a73d
00000010: a6b9 033d c0b1 cdbc 325c d93c d890 3cbe
00000020: da74 2d3d 4afe 1abb 41c0 ebbd 6bc3 793e
00000030: 99e6 973c 40c7 393b 298e 68bd d658 75bc
00000040: a989 14bd b457 343d 5624 28bd fb3e 01bc
00000050: ed00 c83b a3e9 98bd f7e0 7f3c bce2 abbd
00000060: 958e c4bb 2e34 453d 171c a5bd 68ed c3bd
00000070: 87ca e5bd 6b30 043e 3a24 d1bb 712b 4cbd
00000080: 3f51 35bc ea0c 463c 15ff a13e 8b2b 4abe
00000090: 9f14 c6bd bf1b 003e 704b 96be 40ec a6bd
000000a0: ab2a ac3c eb3c 163e 387c 1a3d e879 0ebe
000000b0: 7871 23bd 0809 8b3d e5c8 35bd 85db cfbd
000000c0: 6871 fbbd 78ca 03be 6f9a 65bd e751 3a3d
000000d0: e10e 66bd 0baf ec3d c562 153d 1b4a 6dbd
000000e0: a9f2 a63d 4d3a a63d 70ce dcbd 5349 633c
000000f0: 4f4d 933b 277f a93d 5378 acbe 9009 01bc
00000100: 0055 aeba fc89 6d3d deff 803d 7cb3 b9bd
00000110: a680 ad3d 7203 973d 7648 18bc a752 cdbc
00000120: 02cf 20bd c81d 79bd 500b 6bbc 97a9 a33e
00000130: 001e 67ba 206b 07bd e8dc 9e3d 78d0 1e3c
00000140: 9c93 643b 3480 07bd e682 96bd f7cb e73b
00000150: 6a7c f1bd 147e a53d b45b c6bd 88f9 10bd
00000160: 8407 f33d 56d7 27bd af51 6bbc 6446 cabd
00000170: 44a3 083d ccee aebc c91d efbd b824 df3d
00000180: e873 543d f21c 5ebd 1847 4b3e d56f a4be
00000190: 6e37 8b3d 40b9 f63d 9818 26be a6cb b1bd
000001a0: c49c 323e cb26 b6bd 74d6 2fbd b633 27be
000001b0: 8e46 e23d 5fd3 393e 1da3 4b3d 48da 2a3d
000001c0: c6d3 e0bd 1040 c7bc 61b1 243d b54e a53d
000001d0: 3701 f7bd 1843 f53d 3042 843d 4e83 c73d
000001e0: b9c0 92bd 013c 463e cede f1bd d3fb cfbc
000001f0: 609d 193e 544a 033d 5595 eabc db26 86bd
00000200: 56d5 043e 2643 f0bd b698 d8bd e047 0bbc
00000210: 34c4 d5bd dc55 f3bd 306b 1bbe e4e7 413d
00000220: d472 33bc 505d 23bd 7c7b 9eb9 5f2c 4e3e
00000230: 84c7 f1bd 7087 b2bd 0caa f7bd 9352 933e
00000240: 97c5 57bd 2036 0abd 949a 42bd 2059 04bd
00000250: 90a2 99bc 0ca7 0dbe a05e 043e 87ff ef3c
00000260: 5e65 79bd 18d6 1a3e 041b 95bd 80ae 9aba
00000270: 9cee 593d 5168 9abd 9236 5b3d cb19 c23c
00000280: 822d a6bd 9db1 e7bd b809 8b3d 980e 5fbe
00000290: 59a6 923c e9ea b1bc ca1f d6bd 9819 fdbd
000002a0: 5d32 563b 0db8 6e3d 74ff 8e3d 2394 623d
000002b0: 8c5c 78bd eebb 8dbd 9cf4 833d 80fe 1f3b
000002c0: 7abf b7bd d81e 963c b814 afbd 7894 a93d
000002d0: c136 a23d d498 043e dda4 133e 5653 b6bd
000002e0: a718 91bd ccfb 7fbd 2038 63bc 0023 193d
000002f0: a9ae 8bbc 45c4 8abd 7d5c b1be cfb0 213d
00000300: ee64 86bd a26c eebd dd39 473d 16d2 bd3d
00000310: a6d3 18be a030 503c 3ce2 583d 08dc f0bd
00000320: b0cc 1fbe e419 023e 8040 22bb 500a 233d
00000330: f485 fc3b 78a9 b93c 9fdc 033e 572b 57bd
00000340: 43b9 afbd d87d 77bd 3d38 d0bc acd7 043d
00000350: 08f0 f1bd f68b 66bd 7fb7 3a3d 993e e1bd
00000360: b2b5 b9bd ebb2 a6bd 8049 c1bd a1d5 983d
00000370: 5da3 79bd c9bc 853c b8e3 ccbd 8344 80bd
00000380: 402d 0abc f1bc fd3c a404 9fbd b2f4 e8bd
00000390: 915c 06be 053e 08be 044e d2bd 2eea ec3d
000003a0: 09f6 02be 2b0c e3bd 30b1 d0bd dc9a 80bd
000003b0: c0f9 65bb a48b 27be 8633 2abd c4d8 7f3d
000003c0: cfd5 20bd 507a be3d 26e4 89bc a4a1 453d
000003d0: 577e 4dbd 7a7b 863d 3d90 ab3d dcce f43d
000003e0: ef8e 143d fbef 03be 7474 abbd 83be 863d
000003f0: 015f 933a 2692 bc3d 8368 d43c 4d10 88bd
0.054106228 0.057944313 -0.0037200889 0.08174674 0.03215947 -0.025109172 0.02653322 -0.18414629
0.042347766 -0.0023650103 -0.11511279 0.24390952 0.018542575 0.0028347522 -0.0567762 -0.014974793
-0.036264095 0.044028953 -0.041050278 -0.007888551 0.006103626 -0.07466438 0.015617601 -0.083928555
-0.0059984424 0.048145466 -0.08061998 -0.09566766 -0.1122027 0.12909095 -0.0063824924 -0.049846116
-0.011066734 0.01208804 0.31639925 -0.19743173 -0.09671902 0.12510584 -0.2935443 -0.0815053
0.02101644 0.14671676 0.03771612 -0.13913691 -0.039903134 0.06788832 -0.04438104 -0.10149292
-0.1227749 -0.12870204 -0.056055482 0.045488264 -0.056166533 0.11556824 0.036471147 -0.057932
0.081517525 0.08116589 -0.10781562 0.013872462 0.0044953 0.082762055 -0.3368555 -0.007875815
-0.0013300478 0.05799292 0.06298803 -0.09067437 0.08471803 0.07373704 -0.00929462 -0.025063826
-0.039259918 -0.060819417 -0.014345959 0.31965324 -0.0008816421 -0.033061147 0.07756978 0.0096932575
0.003487802 -0.03308125 -0.07349186 0.007073875 -0.11791308 0.08080688 -0.0968546 -0.03539422
0.11866668 -0.040976845 -0.014362737 -0.09876707 0.033358827 -0.021354102 -0.11675603 0.108956754
0.05186835 -0.054226823 0.19851339 -0.3211657 0.06797682 0.120470524 -0.1622032 -0.08681421
0.17442614 -0.08894118 -0.042929128 -0.1632832 0.110486135 0.18147038 0.049716104 0.041712075
-0.109778926 -0.02432254 0.040208224 0.08071653 -0.120607786 0.11975688 0.06457937 0.09741841
-0.07165665 0.19358827 -0.11810075 -0.025388634 0.1500144 0.032053307 -0.02863566 -0.0655038
0.12972006 -0.117315575 -0.10576002 -0.008501023 -0.104378134 -0.11881611 -0.15177608 0.04734029
-0.01095267 -0.03988391 -0.0003022811 0.20134114 -0.11805633 -0.08717239 -0.12092981 0.28773937
-0.05267867 -0.033743024 -0.0475107 -0.03231156 -0.018754274 -0.13833255 0.12926722 0.02929665
-0.060887687 0.15120733 -0.072805434 -0.0011801273 0.05320607 -0.07539428 0.05351884 0.02369394
-0.08114149 -0.11313174 0.06788963 -0.21782911 0.017901586 -0.02171846 -0.10455282 -0.12358397
0.0032683827 0.058280993 0.069823176 0.055317055 -0.060635135 -0.0692061 0.0644314 0.0024413168
-0.08972068 0.018325254 -0.08548874 0.08280271 0.079206 0.12948924 0.14418359 -0.08902614
-0.0708478 -0.06249599 -0.013868362 0.037386894 -0.017051058 -0.06775717 -0.34640875 0.03947526
-0.065622196 -0.11641814 0.048639167 0.09268586 -0.14924487 0.012706906 0.05295013 -0.11760718
-0.15605426 0.12705189 -0.0024757683 0.039804757 0.007706398 0.022663817 0.12877129 -0.052531566
-0.08580258 -0.06042275 -0.025417442 0.032432243 -0.118133605 -0.05628582 0.04558515 -0.10998268
-0.09067859 -0.08139595 -0.09437847 0.074626215 -0.06094681 0.016325371 -0.100043714 -0.062630676
-0.00843364 0.030973883 -0.07764557 -0.11374797 -0.13121249 -0.13304909 -0.102687865 0.11568104
-0.12789167 -0.11086305 -0.10190046 -0.06279537 -0.003509149 -0.16361862 -0.041553043 0.062462583
-0.039266404 0.09300673 -0.016832422 0.048249856 -0.050169315 0.0656652 0.08377121 0.11953518
0.036269125 -0.12884514 -0.08371821 0.06579306 0.0011243523 0.09207563 0.025928741 -0.06643734

bias f4 [64]
00000000: c83e 913d a9b7 063d 163a 023e 330a 81bc
00000010: c903 a2bd dccc 14bc 03e6 10be a875 2abe
00000020: dd9f 6cbe 4ce2 84bd 3a31 7ebd 8a0e 85bd
00000030: fffb a4bd 591a a03b bf42 80bd f753 19bd
00000040: a9f6 e8bd 9ed8 1ebe a8d2 f0bd 54df 7bbd
00000050: 1624 0dbe 4dbd 74be 3eb4 8ebb bdb7 1cbe
00000060: 0d35 bcbd d4be 99bd 472c 4fbd a841 45bd
00000070: 33b6 173d 6847 bebd 6f3e 93be 90b4 6dbd
00000080: 4d07 e9bd 191d 613d f760 c23d a101 7cbe
00000090: cfea 29be 3e46 e8bc 2a3a 51bd 3692 8f3c
000000a0: 1330 41be d1bf 37be f240 b1bd fa09 b8bd
000000b0: ccde 38be 292b 32be 18c7 543d e316 8dbc
000000c0: bac1 c5bd 8e7e dbbd 93ef 08be 317a 25bd
000000d0: 0136 27bd f668 a0bd f463 62bd d153 17be
000000e0: 89a1 be3c a051 91be a332 15be 6362 b1bd
000000f0: 5cfa d83b 5b7c 00be 4961 12be 1325 6dbd
0.07092053 0.032889996 0.1271747 -0.015751934 -0.07910878 -0.009082045 -0.14150243 -0.16646445
-0.23107858 -0.06488475 -0.062058665 -0.06496914 -0.08055877 0.0048859534 -0.06262731 -0.03743359
-0.11375172 -0.1551232 -0.117589295 -0.06149228 -0.13783297 -0.23900338 -0.0043549826 -0.15304466
-0.09189806 -0.07507101 -0.050579336 -0.048158318 0.037038993 -0.092909634 -0.2875857 -0.058033526
-0.11378346 0.05495939 0.09491151 -0.24609996 -0.16593479 -0.028353807 -0.05108086 0.017525773
-0.18865995 -0.17944266 -0.086549655 -0.08986278 -0.1805374 -0.17399277 0.051947683 -0.017222827
-0.09656091 -0.10717498 -0.1337264 -0.040399734 -0.040822987 -0.0783252 -0.055271104 -0.14778067
0.023270385 -0.28382587 -0.14570098 -0.08661344 0.006621642 -0.12547438 -0.14294924 -0.057896685

weight f4 [1, 64]
00000000: d106 a73c b45e e33b 877c 003e 95d0 dd3c
00000010: f8c0 b6bd 4937 d7bb d986 503e 2a0b ccbd
00000020: 79ad 56be a54f 0fbd 8e28 ae3d 4d91 9a3d
00000030: 6184 bfbc ec25 763c e3ea 933d 2a83 53bb
00000040: 9d9c 923c cb57 e73d 78ec 8bba 1487 a83d
00000050: 7acc 7a3c ed0c c93d e63f 7c3b 144b fbbb
00000060: fcd7 00bc ae5b 04bd a7a5 993c 107a 4cbd
00000070: 9b21 07bc a871 943c 66c7 66be 539c 333d
00000080: 5aab d53c 5b2f c23a ae0d bfbd 0a5f a73d
00000090: 2f81 98bc 3a1d b2bb c089 fd3c b12d 073c
000000a0: b3da 7f3d 7772 26bc db94 7c3d 654c 743d
000000b0: b4bc cb3c 2281 a33d 16a9 5b3c c29a 103d
000000c0: 5e0b 633c 883e a13d f5d4 793d 6756 603d
000000d0: b0f0 ac3c 3087 ac3d ea13 5f3c 508d 343d
000000e0: e60b 583c 2378 20be a943 25bd 7837 2d3d
000000f0: 9b40 e33b a73d acbb 9712 4d3d c333 1a3d
0.020388993 0.0069387797 0.12547503 0.027076999 -0.089235246 -0.00656787 0.2036394 -0.09963067
-0.20964612 -0.034988064 0.08503829 0.07547245 -0.023378553 0.01502369 0.072225355 -0.0032274225
0.017896945 0.11296042 -0.0010675332 0.08228889 0.01530754 0.098169185 0.0038490235 -0.007668862
-0.007863995 -0.032313995 0.018755747 -0.049921095 -0.008247758 0.018120602 -0.22537002 0.043850254
0.026082683 0.0014815138 -0.09328781 0.08172424 -0.018616287 -0.005435613 0.030949473 0.00825064
0.062464427 -0.0101591265 0.061665397 0.059643168 0.024870254 0.079836145 0.013407012 0.03530384
0.013857691 0.07873255 0.060994107 0.0547699 0.021110862 0.084242225 0.013615588 0.04408008
0.013186431 -0.15670829 -0.04034773 0.042289227 0.006935192 -0.005256373 0.050066557 0.03764702
