Curie_Weiss/checkpoints/SDE_method_naive_patch_L_64_L_64_seed_42/model.pt (torch, 39836 bytes, 7 tensors)

weight f4 [64, 1]
000000 5b ee 37 3f b6 4d 63 3f 14 21 fa be d6 1d 84 3f
       0.71848077 0.8879045 -0.48853362 1.0321605
000010 b0 5c 60 be 38 a2 4e 3e 1a 74 2c bf 4e fe 98 3e
       -0.21910357 0.20179069 -0.67364657 0.2988152
000020 1a d0 36 3f 0e cf 3b bf a4 83 5e 3f b0 a6 3f 3e
       0.7141129 -0.73362815 0.8691962 0.1871593
000030 a3 bd 79 3f 5f e9 31 3d d4 d9 b4 3e aa 30 8a be
       0.9755499 0.04343545 0.3532244 -0.26990253
000040 57 56 77 3f 38 5b 17 3e 5b 27 1c bf 08 82 82 3e
       0.9661612 0.14780891 -0.6099755 0.2548983
000050 c3 b8 fe be c0 2c f0 bd 7b 8b 1f bf ae d2 29 3f
       -0.49750337 -0.117272854 -0.62322205 0.66337097
000060 7f d6 1e bf f0 3e 0f bf 39 4a ba be ae 38 bc be
       -0.62046045 -0.5595541 -0.36384752 -0.36761993
000070 32 5c 36 be 7c 8e 8c bf 07 f6 47 3f 52 68 27 bf
       -0.17808607 -1.0980983 0.7810978 -0.65393555
000080 68 2a 1f 3f c8 69 2a 3e ac 3f a6 be f8 31 1e 3f
       0.6217408 0.16641915 -0.32470453 0.61794996
000090 58 97 1f 3e 72 9e 61 3f 00 e3 df 3d 98 78 a1 be
       0.15585077 0.88132393 0.10931969 -0.31537318
0000a0 46 1d 10 3d 08 d8 8a be a4 7a d7 3e 88 38 85 3f
       0.035184167 -0.27117944 0.42085755 1.0407877
0000b0 b6 fb 13 3f 14 d5 df be 9e 43 ca 3e a7 49 ee 3b
       0.57805955 -0.43717253 0.39504713 0.0072719636
0000c0 70 43 86 3e 86 08 1c bf d0 f9 4d bf 23 9c aa be
       0.26223326 -0.60950506 -0.8045931 -0.33322248
0000d0 44 3a 68 bf d6 0e 52 3f d8 78 93 3e cc 13 d4 3e
       -0.90713906 0.8205389 0.28803134 0.41421354
0000e0 0e d2 84 3e 00 82 8e bc 86 ef 45 3f ae 32 28 bf
       0.2594151 -0.017395973 0.7731861 -0.6570233
0000f0 20 f3 80 3d 4e 90 1a bf 50 e0 9d 3e e0 52 b0 be
       0.062963724 -0.6037644 0.308352 -0.3443823

bias f4 [64]
000000 1e 4a 29 3e 2b 7d 42 be 26 ee 1d 3f ce 68 0a bf
       0.1653218 -0.1899306 0.6169151 -0.5406617
000010 8a ad 18 bf e6 af 18 bf 2c 07 44 3f 9c 73 c4 3c
       -0.596398 -0.596434 0.76573443 0.023980908
000020 3e ab 40 3f 4e 45 53 bf 98 eb 7d bf fe 48 48 bf
       0.75261295 -0.82527626 -0.9918761 -0.7823638
000030 e9 c6 eb be 7e 13 b8 3e 2b f4 69 3e c5 03 3f 3f
       -0.46050194 0.3595237 0.22847049 0.74615127
000040 f9 fb b6 be aa 84 2e bf 91 35 dc 3e e4 f3 ce be
       -0.35739115 -0.6817118 0.43009618 -0.4042045
000050 1b e7 18 3f f0 fe 72 be 6b bb bf 3e 60 e7 46 bf
       0.5972764 -0.23730063 0.37447676 -0.776968
000060 db 46 2c bf 11 0b 86 3e b3 51 1c 3e 03 43 fb be
       -0.67295617 0.26180318 0.15265541 -0.49074563
000070 fe ed 9d 3e d8 aa 20 3f dd e5 58 bf ad 7f 38 bf
       0.30845636 0.62760687 -0.84725744 -0.7206982
000080 40 94 3b 3f f4 c3 ac be 2c 83 b5 be 48 b4 77 bf
       0.73273087 -0.3374325 -0.3545164 -0.9675946
000090 84 9a 12 bf 2b 0a 51 3e 38 29 07 be aa d3 39 bf
       -0.5726702 0.20414035 -0.13199317 -0.725886
0000a0 ce e3 50 be 6e de 2e bf 86 30 59 bf c5 05 ef be
       -0.203994 -0.6830815 -0.84839666 -0.4668409
0000b0 e6 0d 60 bf 44 01 23 bf f8 2d 5d 3f 5e de ed 3b
       -0.8752121 -0.63673806 0.8639827 0.0072591743
0000c0 ad 53 ed 3c 66 c4 6e bf eb 32 5a bf b3 99 c5 be
       0.028970564 -0.9326843 -0.85233945 -0.38593826
0000d0 50 48 fd 3e 86 42 61 bf 64 9b dc be 58 42 19 bf
       0.49469233 -0.8799213 -0.43087304 -0.5986686
0000e0 c2 03 99 bd 50 84 be be 49 1c 08 be 2d 2f 3b bf
       -0.0747142 -0.3721032 -0.1329204 -0.7311886
0000f0 98 b7 2f bf 61 53 29 bf 9c 41 af be 50 0e 4a bf
       -0.68639517 -0.6614285 -0.34229743 -0.7892809

weight f4 [64, 64]
000000 f4 73 73 3d 63 27 a4 bd cc 8b 7f 3d b0 87 1f 3d
       0.059436753 -0.08015325 0.06238918 0.03894776
000010 b0 c7 d8 bd 38 29 b1 3d c1 cc a2 bd bd 03 bf bd
       -0.10584962 0.0865044 -0.0794921 -0.09326885
000020 db a2 18 be 50 81 fe bd 18 7d 12 3d c0 af df bc
       -0.14905874 -0.12427008 0.03576383 -0.027305484
000030 5c 55 47 3d c9 65 17 be 3b 68 42 3d e6 3a 0c be
       0.04866539 -0.14784922 0.047462683 -0.13694343
000040 48 d1 b0 bc f0 e1 d5 3c 66 2b a0 3c e4 ab ce 3d
       -0.021584168 0.026108712 0.019551944 0.10091379
000050 d1 fc 8c 3d f2 fc ca bd 17 ae 5e bc 78 39 5c bd
       0.068841584 -0.09911527 -0.013591311 -0.053765744
000060 2a 0f a5 3d 54 6d 0d be d8 67 8d 3d 11 6e d6 bc
       0.08059533 -0.13811237 0.06904572 -0.02617553
000070 78 ad b0 3c 84 d6 22 ba a0 60 26 3d 2d cf e0 3c
       0.021567091 -0.0006211775 0.040619493 0.02744254
000080 ff ec 8b 3d 40 06 e1 3c 38 ba 83 3c ea 99 e1 bd
       0.06832313 0.0274688 0.016080007 -0.11015685
000090 84 ee 56 3d e3 61 83 bd 44 8f 6a bd ec e3 db 3d
       0.05247356 -0.06415155 -0.057265535 0.10736832
0000a0 cc 14 e1 bc 86 a3 8d bd 52 92 81 bd 80 9b c3 bb
       -0.027475737 -0.06915955 -0.063267365 -0.005969465
0000b0 c4 f0 8e 3d 54 d5 02 bd c7 c9 ee bd b5 89 b4 bd
       0.06979516 -0.031941727 -0.1165958 -0.08815328
0000c0 ec 10 0e be 88 98 36 3d e5 e6 43 3e cc b4 90 bd
       -0.13873643 0.04457906 0.19131048 -0.07065734
0000d0 71 27 84 3d 5c 3f 84 3d 68 ae b9 3c f8 55 36 bd
       0.06452835 0.06457397 0.022666171 -0.04451558
0000e0 95 2b 22 3c 08 88 86 3d 4c f9 0c bc 80 da e0 3b
       0.009898086 0.06568915 -0.008604359 0.0068619847
0000f0 08 94 07 bd 58 71 88 3d d0 e4 b4 bc 98 93 18 bd
       -0.033100158 0.066622436 -0.022081763 -0.03725013
000100 10 a3 a3 3d 9c 01 dc 3d 20 bf 4a bc 38 45 e5 bc
       0.07990086 0.107424945 -0.012374669 -0.027987108
000110 80 14 ef 3a a0 90 f4 bb 60 2e f6 3c c8 7a 0f 3d
       0.0018240362 -0.0074635297 0.03005141 0.035029203
000120 84 83 e8 bd 84 f2 3c bd cc 95 d7 3d c0 73 47 3d
       -0.113532096 -0.04612972 0.10526618 0.048694372
000130 a0 b9 cb bb 08 58 9a bd 42 9f 9c bd fa 50 e5 bd
       -0.0062171966 -0.07536322 -0.076475635 -0.11197086
000140 8c e4 26 bd 90 e7 2c 3d 2c 3b a3 3d 98 63 6c 3d
       -0.040745303 0.042213023 0.079702705 0.057712168
000150 28 4a e2 bd e4 f2 99 bd b0 9a a1 bc 38 a4 f7 3d
       -0.110493004 -0.07517031 -0.019727081 0.12091869
000160 18 21 94 3c d0 97 04 bd 7c d2 53 3d e8 02 43 bd
       0.018082187 -0.032371342 0.051714405 -0.047610193
000170 8c b2 a5 bd e4 d9 ba 3d ac ce 68 bd 28 47 cd bc
       -0.08090696 0.091235906 -0.056837723 -0.025058344
000180 7e ab fe bd 52 55 ab 3d 58 f4 c1 3d f4 98 3a 3d
       -0.12435053 0.08365883 0.09470433 0.045556024
000190 90 80 b2 bd 18 a8 fc bd f6 ea cf bd 36 e6 be 3d
       -0.087159276 -0.12336749 -0.10152237 0.09321253
0001a0 6c d0 75 3d d6 6c d7 3d 56 1c 86 3d 4c 95 01 3d
       0.06001322 0.10518806 0.065483734 0.03163652
0001b0 80 71 a0 ba 86 b0 c2 bd 6c 55 db bd 02 73 ef bd
       -0.0012240857 -0.095063254 -0.10709652 -0.11691858
0001c0 e4 97 51 3d 28 60 7b bd 28 15 ce bc 50 54 93 bd
       0.051170245 -0.061371 -0.025156572 -0.07193816
0001d0 d0 98 ba bc 86 2e b4 bd 40 46 a7 bd 00 d6 29 3d
       -0.022777945 -0.08797936 -0.08167696 0.041463852
0001e0 20 2a 18 bd 34 0a 9e 3d 0c 41 24 bd 10 cb bb bd
       -0.03714955 0.0771679 -0.040101096 -0.091695905
0001f0 68 ac b4 bc d0 30 78 bd 60 a4 1c bd fc b5 f3 bd
       -0.022054866 -0.060593426 -0.038242698 -0.11899945
000200 69 ea 9c 3c 72 a7 0d be c5 d5 4d 3c 98 48 9d 3b
       0.019154744 -0.13833407 0.012563174 0.0047999136
000210 10 e5 b6 3d 86 5d c4 bd 85 0c 23 3d 46 ac e0 bd
       0.08930409 -0.09588151 0.03980686 -0.109703586
000220 5f 8b 8b bb d2 69 f0 3d a8 6a 90 bc 00 69 7d ba
       -0.0042585577 0.117389336 -0.017628983 -0.00096668303
000230 90 c1 eb bc b3 02 1f be 4a f0 17 3c 08 b3 32 be
       -0.028778821 -0.15528373 0.009273598 -0.17451108
000240 6a e6 d5 3c ae 8b bf 3d 8f 81 8c 3d 68 8a f1 bc
       0.026110847 0.09352814 0.06860649 -0.029484943
000250 45 ac 1c be e8 39 e6 3c 99 1c 9d 3c 8e cc fe bd
       -0.1530009 0.028103784 0.019178675 -0.124413595
000260 99 e0 45 3d 99 17 fd bd 57 ab 75 bd 1e e9 06 3d
       0.048309896 -0.123580165 -0.059977856 0.03293716
000270 10 18 d0 bd 6f 74 b5 bd 6b 72 2b be 2d 3d 38 3e
       -0.101608396 -0.088600986 -0.16742866 0.17992087
000280 3b a2 5d 3d 48 a2 a0 bc 00 3b 69 bc 18 f5 50 bd
       0.054109793 -0.019608632 -0.014235258 -0.05101499
000290 20 2f e7 bd a2 b6 30 be 04 4a 3e 3d 4a 8e 8c bd
       -0.11288285 -0.17257169 0.046457306 -0.06863077
0002a0 46 3e 06 be a0 ca 1f bc 70 80 2a bd 8f 65 bd bd
       -0.13109693 -0.009752899 -0.041626394 -0.092478864
0002b0 00 9c 83 3b 00 34 d9 bc a5 da bf bd ff 76 e1 bd
       0.0040163994 -0.026514053 -0.09367875 -0.11009025
0002c0 04 48 1c be 68 a8 d6 3d 81 7f e0 3c a8 1b a5 3d
       -0.15261847 0.1048134 0.027404549 0.08061916
0002d0 0d 23 eb 3c 50 6c 26 3c 3e ab ee 3d d8 e3 6b 3d
       0.028703237 0.01015766 0.116537556 0.057590336
0002e0 52 bb 22 be d8 36 4b 3d 5b 42 8a 3d 48 49 80 3d
       -0.1589177 0.04961285 0.067509376 0.06263977
0002f0 f4 a0 ab 3d bb 26 32 3e 10 e8 9c bc 28 89 d4 3c
       0.08380309 0.17397587 -0.019153625 0.025944307
000300 d2 ed b1 bd e0 05 d3 bc e6 96 bd 3d c2 3c 83 3d
       -0.08687939 -0.025759637 0.09257297 0.06408073
000310 76 fe a1 bd 56 48 cd bd ec f0 ae bd 04 a4 fc bd
       -0.07909863 -0.100235626 -0.08542046 -0.12335971
000320 22 8a c5 bd 88 3b fd bc c0 c4 ac 3d 40 66 ab 3c
       -0.09645487 -0.030912176 0.084359646 0.02092278
000330 0a b7 c2 bd 8c 5e cd bd 14 b5 7e 3d 62 6c be bd
       -0.09507568 -0.10027799 0.06218441 -0.09298016
000340 40 2a 7c bc 08 9c 75 3d b4 f5 6c bd 50 50 5f bc
       -0.015390933 0.059963256 -0.05785151 -0.013629988
000350 60 44 32 bc e8 42 f2 bc dc cc 81 bd 4e 35 e4 bd
       -0.01088056 -0.029572919 -0.06337902 -0.111429796
000360 7c f0 ce bd 04 14 89 bd 24 41 f7 3d b4 4d 77 bd
       -0.101044625 -0.06693271 0.120729715 -0.060376838
000370 42 e9 ab bd 30 36 f8 3c cc 1c 0d 3d d0 43 8c 3d
       -0.083941 0.030299276 0.03445129 0.06848872
000380 40 97 c2 3d 4e 8f 8e 3d 02 d3 fd bd 60 a2 35 3c
       0.09501505 0.06960927 -0.12393762 0.0110860765
000390 a2 12 9b 3d 90 49 3d bc 00 db 96 bd 14 0e f4 3d
       0.07571913 -0.011553183 -0.0736599 0.11916748
0003a0 94 80 3f bd 90 c0 91 bd 50 cc e6 bd 20 f6 b6 3b
       -0.04675348 -0.071168065 -0.11269438 0.0055835396
0003b0 58 e2 62 3d f0 ac e2 3c e8 7e ca 3c ae 25 c2 bd
       0.05539164 0.027670354 0.024718717 -0.09479843
0003c0 3c 13 ef bd 80 41 10 3b f6 6d e9 3d 1e b1 93 3d
       -0.116735905 0.0022011697 0.113979265 0.07211517
0003d0 4e 0d 95 bd 88 ec 84 bc 10 b8 bc bd 34 00 77 bd
       -0.07277928 -0.016226068 -0.09214795 -0.060302928
0003e0 d8 71 b9 3c e0 66 8b 3d 02 10 d4 3d 00 09 eb bd
       0.022637293 0.06806731 0.10354616 -0.11476326
0003f0 5e 2a ab 3d 06 8e b4 bd 2c ba 3f 3d 88 a3 d8 3d
       0.0835769 -0.08816151 0.046808407 0.10578066

bias f4 [64]
000000 06 ef 04 be f2 03 ca bd 2e 03 23 3d f0 b9 5f 3c
       -0.12981805 -0.09864034 0.039797954 0.013655171
000010 ce f5 75 bd a2 7a f7 bd 98 b0 5c 3d a8 dc 11 be
       -0.06004887 -0.12083937 0.05387935 -0.1424433
000020 05 6b 2c 3c 32 43 98 bd 0c d2 40 bd b4 65 7b 3d
       0.010523562 -0.074346915 -0.047075316 0.06137629
000030 98 a3 be bd b8 a3 0f bd 0f 79 04 3d fa 35 21 bd
       -0.09308547 -0.035068244 0.032342013 -0.039358117
000040 cc 66 4a 3b 2e 80 bc bd 7d 9a e4 bd 46 79 20 3d
       0.0030884026 -0.09204136 -0.11162279 0.039178155
000050 5e c4 0a bd 10 88 35 be 98 13 70 3d 8e 0b 1b be
       -0.033878677 -0.17727685 0.058612436 -0.15141127
000060 9d 7c 5a 3d 30 b0 c7 bd ba 5f 61 3d ff e2 bb bc
       0.053341497 -0.09750402 0.055022933 -0.022935389
000070 ff db 86 bd 75 47 12 bd ec 3f 82 bd 9f 7a e2 bd
       -0.0658493 -0.035712678 -0.063598484 -0.11058544
000080 06 87 87 3c 5f 1a 9a 3c 05 03 2c be c4 72 9d 3c
       0.016543876 0.018811403 -0.16798027 0.019219764
000090 78 4b 26 bd 2a 0c 05 be fa 80 9d bd 93 c5 8c 3c
       -0.040599316 -0.12992921 -0.07690616 0.017184054
0000a0 f4 f5 08 be ca 9a d8 ba 40 ad f8 bd 60 18 8d 3b
       -0.13375074 -0.0016525623 -0.1214242 0.0043058842
0000b0 d0 e1 b0 bd e6 de 7c bc 95 c5 60 3d e2 9e 9f bc
       -0.0863682 -0.0154340025 0.05487593 -0.01948494
0000c0 5c f3 e3 bd c9 29 35 be 0e ee fb bd 54 e5 e0 bd
       -0.111304015 -0.17691721 -0.12301265 -0.10981241
0000d0 a2 a7 20 3c 1c b8 e5 bd 5a d3 b1 ba 90 08 26 3d
       0.009805592 -0.11216757 -0.0013567016 0.04053551
0000e0 ad 95 e2 bc c5 d2 46 be f0 a4 68 bc f5 da c5 bd
       -0.027659262 -0.1941634 -0.01419948 -0.09660903
0000f0 c7 e8 f6 bd 98 89 a0 bd b4 fe 87 bd fe 5d de 3c
       -0.120561175 -0.07838744 -0.06640378 0.027144428

weight f4 [64, 64]
000000 fb 1f ea 3c 04 57 6d 3d e3 dc c6 bd d6 6a a7 3d
       0.028579703 0.057944313 -0.097100995 0.08174674
000010 57 2f 12 bd c0 b1 cd bc fd 2b 89 bd d0 ff 21 be
       -0.035689678 -0.025109172 -0.06697843 -0.15820241
000020 22 ab 59 bd 59 37 0b b9 37 2c 00 be 6a fb 87 bd
       -0.05314172 -0.00013276692 -0.12516867 -0.0663975
000030 bd 76 99 3c 40 c7 39 3b ad f4 82 bd f8 96 81 be
       0.018733377 0.0028347522 -0.063943245 -0.25310493
000040 a5 ec f7 bd 99 6d 32 3d 32 17 93 bd d2 04 d3 bd
       -0.12105683 0.04356155 -0.071821585 -0.10303654
000050 d1 48 6c 3c 40 8d 26 be 1a fd 0b bb 58 19 33 bd
       0.014421658 -0.1626482 -0.0021360577 -0.04372534
000060 7b 27 c3 bd 0d 7f 66 3a a9 4f 39 be b4 47 c4 bd
       -0.09529015 0.0008792736 -0.18096794 -0.09583989
000070 8b 0f e6 bd f7 a2 65 3d 36 06 09 bc 50 12 1b be
       -0.11233433 0.05606362 -0.008363297 -0.15143704
000080 67 5b be b9 1a 43 99 bd 5e 59 ea 3d fe 46 8d 3d
       -0.00036307724 -0.07483502 0.11442827 0.06898306
000090 5f c5 f4 bd 81 49 53 3d 08 f0 7b be c3 c8 b4 bd
       -0.11951708 0.05158377 -0.24603283 -0.08827355
0000a0 4c 22 c1 bc 9a ae 84 3d 38 7c 1a 3d 4c 01 f7 bd
       -0.023575924 0.06478615 0.03771612 -0.12060794
0000b0 78 71 23 bd 3c d4 8d 3d 0b 2d dd bd 34 9f f4 bd
       -0.039903134 0.06925246 -0.10799607 -0.11944428
0000c0 20 32 23 be a3 2f fa bd 55 38 13 be a5 5b b3 3b
       -0.1593709 -0.12216117 -0.14376958 0.0054735714
0000d0 6d 73 02 bd 1d d4 73 3d 67 69 a2 3c 3f 69 6d bd
       -0.03184836 0.05952846 0.01982565 -0.0579617
0000e0 e3 cf 04 3c d1 25 4b 3a 70 ce dc bd f1 1f 55 3b
       0.008106205 0.00077494705 -0.10781562 0.003252026
0000f0 e1 0e 32 be 13 ab 18 3d f6 d5 e9 bd db d6 08 bd
       -0.17388488 0.037272524 -0.11417763 -0.033408027
000100 00 55 ae ba fc 89 6d 3d f0 45 9f 3c 7c b3 b9 bd
       -0.0013300478 0.05799292 0.019442528 -0.09067437
000110 0c 68 4f 3d 72 03 97 3d c1 97 d1 ba a4 11 a6 bd
       0.050636336 0.07373704 -0.0015990661 -0.081088334
000120 b6 51 ae bd c8 1d 79 bd 51 dd 3f 3c 40 21 19 3c
       -0.08511679 -0.060819417 0.011710481 0.009346306
000130 00 1e 67 ba 20 6b 07 bd e8 dc 9e 3d ca 15 62 bd
       -0.0008816421 -0.033061147 0.07756978 -0.05519656
000140 e3 25 04 bd 34 80 07 bd e6 82 96 bd 01 7a b9 bd
       -0.032262694 -0.03308125 -0.07349186 -0.090564735
000150 6a 7c f1 bd b4 5f 30 bd b4 5b c6 bd 63 00 a9 bd
       -0.11791308 -0.04306002 -0.0968546 -0.08252027
000160 c4 5e af 3d 19 52 2b 3c 6d 0e d1 bc 64 46 ca bd
       0.08562997 0.010456585 -0.025519574 -0.09876707
000170 44 a3 08 3d 90 23 c6 3c 40 22 84 bd 70 a6 bf 3c
       0.033358827 0.02418688 -0.06451845 0.023394793
000180 e8 73 54 3d 78 0c 41 bd 40 cd de bb 18 69 5c bd
       0.05186835 -0.04713103 -0.00679937 -0.053811163
000190 37 c4 0e 3d c2 8a 8e 3d 66 4c 27 be a6 cb b1 bd
       0.034855094 0.0696006 -0.16337737 -0.08681421
0001a0 70 a7 33 3e e6 fe e9 bd 74 d6 2f bd d0 47 45 3d
       0.17544341 -0.11425571 -0.042929128 0.04816419
0001b0 8e 46 e2 3d 7a 75 f8 3d dd 6e c9 3d 48 da 2a 3d
       0.110486135 0.12131782 0.098355986 0.041712075
0001c0 c6 d3 e0 bd 10 40 c7 bc f8 53 c2 3c 3b 10 e9 bd
       -0.109778926 -0.02432254 0.02372168 -0.11380049
0001d0 43 3b 2e be 4e f5 19 3e 30 42 84 3d 4e 83 c7 3d
       -0.17014794 0.15034983 0.06457937 0.09741841
0001e0 48 25 ad bc b6 42 1f 3e ce de f1 bd 6c 16 11 bd
       -0.021135941 0.15552792 -0.11810075 -0.035421774
0001f0 2b 50 44 3d 54 4a 03 3d bc 1e 71 3d 10 e0 a9 bd
       0.047928017 0.032053307 0.0588672 -0.0829469
000200 ee c6 1f 3e 26 43 f0 bd a8 2a 7f bc e0 47 0b bc
       0.1560323 -0.117315575 -0.015574135 -0.008501023
000210 ae b4 f8 bd dc 55 f3 bd e8 b2 3c ba 36 d2 cd 3d
       -0.12143837 -0.11881611 -0.000719829 0.1004986
000220 96 e7 b0 3d 50 5d 23 bd 78 22 06 3d 66 22 df bd
       0.086379215 -0.03988391 0.032747716 -0.10895233
000230 84 c7 f1 bd 70 87 b2 bd 0c aa f7 bd a4 8e 2f 3e
       -0.11805633 -0.08717239 -0.12092981 0.17144257
000240 9b 9d 47 3d 20 36 0a bd 8d 88 5f bd a7 e1 94 3d
       0.04873429 -0.033743024 -0.054573584 0.07269602
000250 90 a2 99 bc 12 58 2e bc 89 19 1b 3e 11 6c 74 3d
       -0.018754274 -0.010641115 0.1514646 0.059673373
000260 4f 43 23 ba c1 b0 c8 3d 6f 10 98 3d 80 ae 9a ba
       -0.00062279863 0.09799338 0.074250095 -0.0011801273
000270 9c ee 59 3d 80 b1 ba bc 3a 82 d9 3d 45 0e 02 3e
       0.05320607 -0.022789717 0.10620542 0.12700756
000280 82 2d a6 bd 53 24 c5 3c 89 05 dc 3c 80 d1 c7 3d
       -0.08114149 0.024065172 0.026858108 0.09756756
000290 62 dd 49 3c e6 92 d6 bd a5 43 d6 3b 98 19 fd bd
       0.012320848 -0.104772374 0.0065388256 -0.12358397
0002a0 7f a8 0c 3d 30 74 27 3e 74 ff 8e 3d 9a d2 e2 3d
       0.034340378 0.16352916 0.069823176 0.11075325
0002b0 8c 5c 78 bd 60 ff 51 bd 15 c7 57 3d 80 fe 1f 3b
       -0.060635135 -0.051268935 0.052680094 0.0024413168
0002c0 7a bf b7 bd d8 1e 96 3c 91 6a af 3c 23 28 9c 3d
       -0.08972068 0.018325254 0.02141312 0.07624843
0002d0 8a 5e 49 3e f2 d0 3c 3e 91 5f 13 3e 56 53 b6 bd
       0.1966497 0.18439081 0.14391924 -0.08902614
0002e0 90 f2 0b 3d 49 bf 8e 3c 20 38 63 bc eb 81 cd 3c
       0.034166873 0.017425196 -0.013868362 0.025086364
0002f0 bd de b6 bd e6 b7 8a bd 90 d8 3d bd fe 97 be 3d
       -0.08929203 -0.06773357 -0.04634911 0.09306334
000300 41 8e 89 bd a2 6c ee bd 20 b5 33 3d 16 d2 bd 3d
       -0.06716586 -0.11641814 0.043873906 0.09268586
000310 f5 1b a9 bc a0 30 50 3c 1b 9e 90 3d 4c 3d 71 bd
       -0.020643214 0.012706906 0.07061406 -0.058896348
000320 8b c2 24 be 08 4e 02 3e f3 8a a9 3c 50 0a 23 3d
       -0.16089837 0.12725079 0.020696139 0.039804757
000330 c8 78 fa 3b 78 a9 b9 3c cf b7 f7 3d 3f 04 9e bd
       0.007643793 0.022663817 0.120956056 -0.07715654
000340 5f f6 b1 bd 73 91 72 bd c2 66 d3 bc fd 99 e7 3c
       -0.0868957 -0.059220742 -0.025805835 0.02827167
000350 12 70 85 bd 87 ed 70 bd 73 32 35 3d 7e 33 09 be
       -0.06515516 -0.058820274 0.044237565 -0.13398549
000360 1c 25 c5 bd d0 f2 c2 bd d2 83 bf bd 9f 1e 99 3d
       -0.09626219 -0.09518969 -0.093513146 0.07476544
000370 06 04 78 bd da 9b 83 3c e9 f2 dc 3c a3 2b 88 bd
       -0.060550712 0.016065527 0.026971297 -0.06648948
000380 4e cd 2f 3d a9 6a d6 3c a4 04 9f bd b2 f4 e8 bd
       0.042920403 0.026173906 -0.07764557 -0.11374797
000390 d4 f2 09 be a7 4f 02 bd ba 7f 01 be af ee 0a 3e
       -0.13471538 -0.031814244 -0.1264638 0.13567613
0003a0 cd df 09 be 5f 60 ed bd 30 b1 d0 bd dc 9a 80 bd
       -0.1346428 -0.11590647 -0.10190046 -0.06279537
0003b0 c0 f9 65 bb fb 77 de bc 8d 28 40 bd ee 4e 84 3d
       -0.003509149 -0.02715682 -0.046913672 0.06460367
0003c0 dd 15 13 bd fe a4 dd 3d c0 9f 68 bc 82 a1 c4 3d
       -0.035909522 0.108224854 -0.014198244 0.09601118
0003d0 94 66 d5 bd 7a 9d 82 3d d0 d0 20 3e 9d de f4 3d
       -0.10419956 0.063776925 0.15704656 0.119565226
0003e0 19 35 f6 3c 40 43 02 be 74 74 ab bd 87 ae e7 3d
       0.030054616 -0.12720966 -0.08371821 0.11312585
0003f0 9e 8a c0 bc 07 9b b1 3d 9f 51 32 3d 37 dd 83 bd
       -0.023503598 0.08672147 0.04353487 -0.06438678

bias f4 [64]
000000 31 05 f2 bd d6 21 06 be ff 46 37 3e ae c2 d0 bd
       -0.118173964 -0.13098845 0.17898177 -0.10193382
000010 af e4 72 bd 3d 77 24 3c d0 89 de 3d af e8 d2 bd
       -0.05930012 0.010038194 0.108661294 -0.10298287
000020 29 91 26 bd b8 e2 84 bd 7e 47 6e bd f4 23 20 3c
       -0.04066578 -0.06488556 -0.05817365 0.009774197
000030 68 be aa bc d4 1f 47 3d 77 2e 10 3d 01 28 cf 3c
       -0.020842746 0.048614338 0.035200562 0.02528763
000040 94 1e 8e bc 01 b0 52 be 9b 54 28 be 2d d2 02 be
       -0.017348565 -0.20574953 -0.16438524 -0.12775488
000050 c2 d2 88 be 5b d0 91 be 8f 4b 40 be 0d 6c 21 be
       -0.26723295 -0.28479275 -0.18778823 -0.15763874
000060 6f ff 9b bb 00 8c 1c be f3 28 a9 bd a8 41 45 bd
       -0.0047606747 -0.15287781 -0.082597636 -0.048158318
000070 8c 61 85 bc 68 47 be bd 81 d5 23 bd b7 b9 6d bd
       -0.016281866 -0.092909634 -0.039998535 -0.05803844
000080 da 97 f3 bd 74 ab 7f 3c ff 45 d3 bd ba 12 17 be
       -0.11894198 0.015604842 -0.10316085 -0.14753237
000090 4c b5 37 be 4e 38 69 bd a3 93 0c 3d f4 8f 43 be
       -0.17940253 -0.056938462 0.034320485 -0.19097883
0000a0 53 e8 cb bd ab 6b fd be f0 8d f9 bd c9 9a 34 3d
       -0.09956422 -0.49496207 -0.121852756 0.044092927
0000b0 d1 50 aa be 8a ae 48 bc b4 de 08 3d dd 85 f8 bd
       -0.33264783 -0.012248645 0.03341551 -0.121349074
0000c0 cb 0c d0 bd a2 c1 12 3d 38 68 08 be d2 89 25 bd
       -0.1015869 0.035829194 -0.13321006 -0.04041464
0000d0 85 68 83 bd 65 ac 43 be a4 5b ca 3c 67 af 03 be
       -0.0641642 -0.19108732 0.0247019 -0.1285988
0000e0 12 b6 ab 3b 50 29 4b 3b 64 e8 14 be c8 4e 2c be
       0.0052402103 0.0030999966 -0.14541775 -0.16826928
0000f0 b8 73 85 3c 5f bc 12 be fd 9f 1e be fd ec 6c be
       0.01629053 -0.1432967 -0.15490718 -0.23137279

weight f4 [1, 64]
000000 c4 9a a6 3c 14 28 c8 3d db bd 06 3e 32 ea 03 3d
       0.02033747 0.09773269 0.13158362 0.032205768
000010 95 02 41 3d 17 c0 09 bd f0 23 dd bd 6d fb db 3d
       0.047121603 -0.033630457 -0.1079787 0.10741315
000020 6e 1f a7 3c ae 4e 0f bd f4 ae 1b 3c 06 d4 b4 3c
       0.020400729 -0.034987144 0.009502161 0.022073757
000030 64 7a 14 3d 92 b5 97 3c a6 c3 8d 3c 94 5b 2e 3c
       0.036249533 0.018519197 0.017305207 0.010641951
000040 68 f4 fc 3c f5 42 17 bd ef 06 38 3d 27 d9 b3 bc
       0.03087826 -0.03692909 0.044928487 -0.021954132
000050 24 73 b5 bd eb 14 84 bd 96 9c 75 bd cf fe c5 bc
       -0.08859852 -0.06449302 -0.059963785 -0.024169354
000060 5f 32 f8 bc a0 05 66 bd 59 3c a3 bd 10 7a 4c bd
       -0.030297456 -0.05615771 -0.07970495 -0.049921095
000070 bd de f3 bc a8 71 94 3c 5d fc 02 3d f8 9d 33 3d
       -0.029769296 0.018120602 0.031978954 0.043851823
000080 ea 7c f0 3d 6f b8 1d 3c 25 f4 11 3e 78 c4 00 be
       0.117425755 0.009626492 0.1425329 -0.12574947
000090 b4 8b f6 bc 60 11 7c 3d 33 81 c7 3c 80 5f 00 bd
       -0.030095913 0.061540008 0.0243536 -0.031341076
0000a0 75 fa 6d 3b 3a 77 11 3e 87 a8 1e be d1 a1 e8 3d
       0.0036312614 0.14205638 -0.15493976 0.11358989
0000b0 d9 fd 51 3e 2d ea 8a bb 02 c7 4e bc 6b 20 0b bd
       0.20506991 -0.0042393417 -0.012620689 -0.033966463
0000c0 35 bf 4a ba e8 8c 89 3c cd 3a 10 3d 57 63 60 3d
       -0.00077341805 0.016790822 0.035212327 0.054782238
0000d0 4c b6 24 3c e9 f4 4c bd 51 02 c7 3b 2b c3 61 3d
       0.010053229 -0.050038252 0.006073274 0.055117767
0000e0 d3 ac 79 ba da aa 63 3d 11 72 21 bd 50 d5 1e 3d
       -0.0009524349 0.05558286 -0.039415423 0.03877765
0000f0 fb f0 3d 3c ab db 5a bc 20 fe 9b 3c 2b 2e e8 bd
       0.011593099 -0.013358037 0.019042075 -0.11336931
