Curie_Weiss/checkpoints/SDE_method_naive_patch_L_8_L_64_seed_42/epoch_25.pt (torch, 40326 bytes, 7 tensors)

weight f4 [64, 1]
00000000: c79f d83e 4276 703f 1f7c 08be 50d6 9a3f
00000010: b05c 60be 38a2 4e3e 91e3 33bf 7771 de3e
00000020: bcd9 cf3e 0ecf 3bbf a483 5e3f b0a6 3f3e
00000030: acbb 913f 8f95 733d 3bcd 483e d8da febe
00000040: 6ce5 863f 385b 173e f80d f1be 0882 823e
00000050: 974b cdbe c02c f0bd 3e77 95be aed2 293f
00000060: 4ef5 21bf baf7 20bf 0ad9 06be 5ffe d3be
00000070: 845e fdbb d48c 6ebf dc3a 7e3f fd42 31bf
00000080: 6390 143f c869 2a3e ac3f a6be f831 1e3f
00000090: 5897 1f3e ef97 783f 00e3 df3d 9878 a1be
000000a0: e598 063e 08d8 8abe a47a d73e 1075 953f
000000b0: b6fb 133f 14d5 dfbe a6a7 1d3e c8b3 9e3c
000000c0: dedd 623d 8608 1cbf c4ef 53bf 2568 98be
000000d0: 7ae6 10bf d60e 523f d878 933e cc13 d43e
000000e0: b2b8 7f3e 0082 8ebc 0397 733f 96a0 2fbf
000000f0: 20f3 803d 1121 1cbf 50e0 9d3e e052 b0be
0.423094 0.9393045 -0.13328598 1.2096653 -0.21910357 0.20179069 -0.70269114 0.43445942
0.40595806 -0.73362815 0.8691962 0.1871593 1.1385398 0.059468802 0.19609539 -0.4977634
1.0538764 0.14780891 -0.4708097 0.2548983 -0.40096733 -0.117272854 -0.29192537 0.66337097
-0.6326493 -0.62878 -0.13168731 -0.41405007 -0.0077322144 -0.93183637 0.9930856 -0.6924284
0.58032817 0.16641915 -0.32470453 0.61794996 0.15585077 0.9710683 0.10931969 -0.31537318
0.13144262 -0.27117944 0.42085755 1.167635 0.57805955 -0.43717253 0.15395984 0.019372836
0.05538737 -0.60950506 -0.8278773 -0.29766956 -0.5660168 0.8205389 0.28803134 0.41421354
0.249728 -0.017395973 0.951523 -0.6860441 0.062963724 -0.60987955 0.308352 -0.3443823

bias f4 [64]
00000000: 79cb 4ebe 086c a5be 6bb7 fa3d b5b9 f4be
00000010: 8aad 18bf e6af 18bf c494 123f fb08 5ebd
00000020: f73f 543e 4e45 53bf 98eb 7dbf fe48 48bf
00000030: 7089 e6be 7d7f 8b3c 5572 893b c134 0a3f
00000040: d764 d1be aa84 2ebf 7864 b93e e4f3 cebe
00000050: 0b7e a23e f0fe 72be 4c53 693e 60e7 46bf
00000060: a0de 28bf f74f 9d3e df64 353d 3e1c d9be
00000070: 5aae b03d ebfe f13e 0f05 27bf 07d7 35bf
00000080: 5a9c 9d3e f4c3 acbe 2c83 b5be 48b4 77bf
00000090: 849a 12bf 93e0 efbd 3829 07be aad3 39bf
000000a0: 8e68 e9bd 6ede 2ebf 8630 59bf 3f00 ebbe
000000b0: e60d 60bf 4401 23bf fb7c d13d 3e5f 9fbc
000000c0: de25 67ba 66c4 6ebf 1c74 57bf 569e d7be
000000d0: b45d 863e 8642 61bf 649b dcbe 5842 19bf
000000e0: 507c 26be 5084 bebe 1f2a f0bd 4341 35bf
000000f0: 98b7 2fbf dfe1 27bf 9c41 afbe 500e 4abf
-0.20194806 -0.32308984 0.122420155 -0.47797933 -0.596398 -0.596434 0.5725825 -0.054207783
0.20727526 -0.82527626 -0.9918761 -0.7823638 -0.45026731 0.017028565 0.0041945376 0.53986746
-0.40897247 -0.6817118 0.36209464 -0.4042045 0.31736788 -0.23730063 0.22785681 -0.776968
-0.659647 0.3072507 0.04428565 -0.4240436 0.08627005 0.472648 -0.65242094 -0.7103123
0.3078335 -0.3374325 -0.3545164 -0.9675946 -0.5726702 -0.11712756 -0.13199317 -0.725886
-0.11396895 -0.6830815 -0.84839666 -0.45898625 -0.8752121 -0.63673806 0.10228916 -0.019454595
-0.00088175933 -0.9326843 -0.84161544 -0.42112988 0.26243365 -0.8799213 -0.43087304 -0.5986686
-0.16258359 -0.3721032 -0.11726784 -0.70802706 -0.68639517 -0.65579027 -0.34229743 -0.7892809

weight f4 [64, 64]
00000000: 021d 743d 5927 a4bd 2bcd 803d 0b4c 86bc
00000010: b0c7 d8bd 3829 b13d 4baa a1bd 568c bebd
00000020: e94e 18be 5081 febd 187d 123d c0af dfbc
00000030: bfb4 d9bb 72fc 16be 5287 433d 9ab9 0bbe
00000040: 418a 9dbd f0e1 d53c 8c36 a53c e4ab ce3d
00000050: c845 8e3d f2fc cabd 7e89 54bc 7839 5cbd
00000060: 892b 9fbd ce2a 21be 6640 4c3d 3c7a 20be
00000070: 7d48 b43c d178 a3bc 091d 71bc b76a 08be
00000080: 409a 8c3d 4006 e13c 38ba 833c ea99 e1bd
00000090: 84ee 563d 041b 83bd 448f 6abd ece3 db3d
000000a0: f052 9ebc 86a3 8dbd 5292 81bd 4b22 7bbd
000000b0: c4f0 8e3d 54d5 02bd 6910 eebd 0ac7 b3bd
000000c0: 01cf 0dbe 8898 363d fa06 fe3c 390d 34be
000000d0: 1112 0bbd 5c3f 843d 68ae b93c f855 36bd
000000e0: 7829 223c 0888 863d cef9 0cbc 9c65 8abd
000000f0: 0894 07bd 1ca6 58bd d0e4 b4bc 9893 18bd
00000100: 10a3 a33d 9c01 dc3d 20bf 4abc 3845 e5bc
00000110: 8014 ef3a a090 f4bb 602e f63c c87a 0f3d
00000120: 8483 e8bd 84f2 3cbd cc95 d73d c073 473d
00000130: a0b9 cbbb 0858 9abd 429f 9cbd fa50 e5bd
00000140: 8ce4 26bd 90e7 2c3d 2c3b a33d 9863 6c3d
00000150: 284a e2bd e4f2 99bd b09a a1bc 38a4 f73d
00000160: 1821 943c d097 04bd 7cd2 533d e802 43bd
00000170: 8cb2 a5bd e4d9 ba3d acce 68bd 2847 cdbc
00000180: 7eab febd 5255 ab3d 58f4 c13d f498 3a3d
00000190: 9080 b2bd 18a8 fcbd f6ea cfbd 36e6 be3d
000001a0: 6cd0 753d d66c d73d 561c 863d 4c95 013d
000001b0: 8071 a0ba 86b0 c2bd 6c55 dbbd 0273 efbd
000001c0: e497 513d 2860 7bbd 2815 cebc 5054 93bd
000001d0: d098 babc 862e b4bd 4046 a7bd 00d6 293d
000001e0: 202a 18bd 340a 9e3d 0c41 24bd 10cb bbbd
000001f0: 68ac b4bc d030 78bd 60a4 1cbd fcb5 f3bd
00000200: 441c 3e3c 9465 14be 8059 413c 4e31 54bb
00000210: 10e5 b63d 865d c4bd 75a0 283d 8527 f0bd
00000220: 6716 34bc d269 f03d a86a 90bc 0069 7dba
00000230: 3bd2 a8bd 102f 24be aad5 c63a a46e 34be
00000240: 715b 983c ae8b bf3d 422e 973d 688a f1bc
00000250: c445 19be e839 e63c c094 b03c 8ecc febd
00000260: 2e5a ffbc 7a51 dfbd 9ab6 46bd 6ecf 6ebd
00000270: 2070 d7bd e4b7 98bd eb66 32be 2239 df3d
00000280: 3b3a 433d 48a2 a0bc 003b 69bc 18f5 50bd
00000290: 202f e7bd e7bf 38be 044a 3e3d 4a8e 8cbd
000002a0: 3420 0ebe a0ca 1fbc 7080 2abd dc0d d2bd
000002b0: 009c 833b 0034 d9bc 4d05 cbbd deef edbd
000002c0: 714f 24be 68a8 d63d 6481 32bd 9c97 813d
000002d0: a76c 6abd 506c 263c 3eab ee3d d8e3 6b3d
000002e0: e085 29be d836 4b3d 5af3 733d 0909 883b
000002f0: f4a0 ab3d f6a5 153e 10e8 9cbc 2889 d43c
00000300: cf6f cabe 6f5f abbe 1fb7 59be 8cc8 7abe
00000310: 76fe a1bd 5648 cdbd ecf0 aebd c039 ddbe
00000320: 0d9d cfbe 883b fdbc c0c4 ac3d 4066 ab3c
00000330: 91db cebe bcfe d0be de43 7cbe 8053 cdbe
00000340: d60a a6be 089c 753d b4f5 6cbd 5050 5fbc
00000350: 6044 32bc e842 f2bc dccc 81bd 4e35 e4bd
00000360: 7cf0 cebd 0414 89bd 2441 f73d b44d 77bd
00000370: c7ac c8be 3036 f83c b76c 8cbe d043 8c3d
00000380: 2035 5bbe 4e8f 8e3d 02d3 fdbd 60a2 353c
00000390: a212 9b3d 5021 a4be 00db 96bd 140e f43d
000003a0: b014 b4be 90c0 91bd 50cc e6bd c953 9bbe
000003b0: 58e2 623d f0ac e23c 9e76 91be ae25 c2bd
000003c0: 6091 d8be 8041 103b f66d e93d 1eb1 933d
000003d0: 4e0d 95bd 88ec 84bc 10b8 bcbd 3400 77bd
000003e0: 3deb 91be e066 8b3d 5264 52be 0009 ebbd
000003f0: 5e2a ab3d 068e b4bd 2cba 3f3d 88a3 d83d
0.059597977 -0.080153175 0.06289133 -0.016393682 -0.10584962 0.0865044 -0.07893809 -0.09304111
-0.14873852 -0.12427008 0.03576383 -0.027305484 -0.006643861 -0.14744738 0.047736473 -0.1364502
-0.076923855 0.026108712 0.020167612 0.10091379 0.069469035 -0.09911527 -0.012972234 -0.053765744
-0.077719755 -0.15738985 0.049866103 -0.15671629 0.022007221 -0.01995507 -0.014716395 -0.13321958
0.06865358 0.0274688 0.016080007 -0.11015685 0.05247356 -0.06401637 -0.057265535 0.10736832
-0.019326657 -0.06915955 -0.063267365 -0.061312 0.06979516 -0.031941727 -0.11624224 -0.08778198
-0.13848497 0.04457906 0.031009186 -0.17583169 -0.033952776 0.06457397 0.022666171 -0.04451558
0.009897582 0.06568915 -0.00860448 -0.06757662 -0.033100158 -0.05289279 -0.022081763 -0.03725013
0.07990086 0.107424945 -0.012374669 -0.027987108 0.0018240362 -0.0074635297 0.03005141 0.035029203
-0.113532096 -0.04612972 0.10526618 0.048694372 -0.0062171966 -0.07536322 -0.076475635 -0.11197086
-0.040745303 0.042213023 0.079702705 0.057712168 -0.110493004 -0.07517031 -0.019727081 0.12091869
0.018082187 -0.032371342 0.051714405 -0.047610193 -0.08090696 0.091235906 -0.056837723 -0.025058344
-0.12435053 0.08365883 0.09470433 0.045556024 -0.087159276 -0.12336749 -0.10152237 0.09321253
0.06001322 0.10518806 0.065483734 0.03163652 -0.0012240857 -0.095063254 -0.10709652 -0.11691858
0.051170245 -0.061371 -0.025156572 -0.07193816 -0.022777945 -0.08797936 -0.08167696 0.041463852
-0.03714955 0.0771679 -0.040101096 -0.091695905 -0.022054866 -0.060593426 -0.038242698 -0.11899945
0.011603419 -0.14491874 0.011801124 -0.003237802 0.08930409 -0.09588151 0.04116865 -0.11726288
-0.010991669 0.117389336 -0.017628983 -0.00096668303 -0.08243223 -0.16033578 0.0015169878 -0.17620331
0.01859829 0.09352814 0.0738187 -0.029484943 -0.1496802 0.028103784 0.021555305 -0.124413595
-0.03117093 -0.10904212 -0.048513986 -0.05830329 -0.10519433 -0.07456949 -0.17422073 0.10899569
0.047662955 -0.019608632 -0.014235258 -0.05101499 -0.11288285 -0.18041955 0.046457306 -0.06863077
-0.13879472 -0.009752899 -0.041626394 -0.1025655 0.0040163994 -0.026514053 -0.099131204 -0.11618017
-0.1604593 0.1048134 -0.043580428 0.06327745 -0.057232525 0.01015766 0.116537556 0.057590336
-0.16554976 0.04961285 0.05955825 0.0041514677 0.08380309 0.1461409 -0.019153625 0.025944307
-0.39538428 -0.33471248 -0.21261261 -0.24490565 -0.07909863 -0.100235626 -0.08542046 -0.43208122
-0.40549508 -0.030912176 0.084359646 0.02092278 -0.4040189 -0.40819347 -0.24635264 -0.40102768
-0.32430142 0.059963256 -0.05785151 -0.013629988 -0.01088056 -0.029572919 -0.06337902 -0.111429796
-0.101044625 -0.06693271 0.120729715 -0.060376838 -0.3919432 0.030299276 -0.27426693 0.06848872
-0.21406984 0.06960927 -0.12393762 0.0110860765 0.07571913 -0.32056665 -0.0736599 0.11916748
-0.35172033 -0.071168065 -0.11269438 -0.3033736 0.05539164 0.027670354 -0.2841081 -0.09479843
-0.42298412 0.0022011697 0.113979265 0.07211517 -0.07277928 -0.016226068 -0.09214795 -0.060302928
-0.28499785 0.06806731 -0.20546082 -0.11476326 0.0835769 -0.08816151 0.046808407 0.10578066

bias f4 [64]
00000000: 3678 04be f203 cabd 9644 173d 463f 97be
00000010: d649 9dbd a27a f7bd d241 153d 18ba 0abe
00000020: b860 cd3c e645 99bd 7b80 6f3c f2ec 4dbe
00000030: 15b0 bebd 1ca3 1abe 31b3 d73c 7fd2 243e
00000040: f7b3 9e3c c891 b3bd eeca edbd bf27 143d
00000050: 648b 1ebd ff97 36be cd11 8e3d d417 febd
00000060: 1a7f 8b3d b70a b03d 422b 6e3d 5be2 bbbc
00000070: 2f40 77bd ab61 0cbd ff23 46be 44e3 e2bd
00000080: a224 24bc f1da 6b3c 2fa3 69be 5773 a83d
00000090: a191 0abd 4704 04be 12f7 83bd 55c3 883c
000000a0: 70c3 0abe e3a0 083c 40ad f8bd 8a95 e8bd
000000b0: d0e1 b0bd cb78 15bc 1b2f 103d 3d91 b2bc
000000c0: 103f eabd dd52 35be ef2f 04be 48ff d3bd
000000d0: 91e2 123d 014e 02be 0039 69bb 3e08 263d
000000e0: 5c23 01bd 6288 30be f0a4 68bc 35eb bcbd
000000f0: 9f60 153c f43c aabd 0375 41be ad18 a93d
-0.12936482 -0.09864034 0.036930643 -0.2954046 -0.07680099 -0.12083937 0.036439724 -0.13547552
0.025070533 -0.07484035 0.0146180345 -0.20109919 -0.09310929 -0.15101284 0.026330562 0.16095923
0.019372923 -0.0876804 -0.116109714 0.036170717 -0.038707152 -0.1783142 0.06936989 -0.124068886
0.06811352 0.08595794 0.058146723 -0.022935083 -0.060363945 -0.03427283 -0.19349669 -0.11078504
-0.0100185 0.014395461 -0.22816156 0.08225124 -0.03383029 -0.12892257 -0.06443609 0.016694704
-0.13551116 0.00833914 -0.1214242 -0.11356647 -0.0863682 -0.009123038 0.035201173 -0.02179777
-0.114378095 -0.17707391 -0.1290891 -0.103514254 0.0358606 -0.12725069 -0.0035586953 0.040535204
-0.031527862 -0.17239526 -0.01419948 -0.0922455 0.009117275 -0.08312407 -0.18892293 0.0825666

weight f4 [64, 64]
00000000: 3b04 6e3d 0457 6d3d 0b8f 89bb d66a a73d
00000010: 4213 4fbd c0b1 cdbc 586d c83c fa6b 41be
00000020: 0470 2c3d 3156 22bb 22fa f23d 6afb 87bd
00000030: fd9a 973c 8a3b f43e ae45 65bd 881b 08be
00000040: 627f 1abd 19e4 333d 6b9a 27bd 949e fdbb
00000050: 596f c43b cfbe 98bd 60b5 773c 50e5 41bd
00000060: c02d d4bb 0a46 6cbb ea06 a6bd 4345 c4bd
00000070: b0e3 e5bd 68c8 063e 4381 0ebc 05a5 52bd
00000080: a3ea 39bc b666 363c 5e59 ea3d 65a8 41bd
00000090: d3f3 c2bd 5ff7 ce3d 8c0c 3dbe b8cf a4bd
000000a0: c6c8 b43c aa94 163e 387c 1a3d ac77 17bf
000000b0: 7871 23bd 35b7 433d 123c a7bd fc6a d0bd
000000c0: 93e2 f6bd afe5 03be 97f6 63bd 8b36 c8bc
000000d0: 891f f1bc d1f8 ed3d 9ddf 133d 7a69 6dbd
000000e0: eda9 a83d 8c30 a93d 70ce dcbd 9921 623c
000000f0: c5e8 24bd d8df aa3d 9127 6bbe c413 88bc
00000100: 0055 aeba fc89 6d3d e946 803c 7cb3 b9bd
00000110: 10a1 34bd 7203 973d 379c 29bb de7c 88bc
00000120: 7696 73bd c81d 79bd 101a 81bc 4021 193c
00000130: 001e 67ba 206b 07bd e8dc 9e3d a327 dabc
00000140: b679 b5bb 3480 07bd e682 96bd 87c6 1d3b
00000150: 6a7c f1bd 5b9b 9f3d b45b c6bd b58e 8ebc
00000160: e627 d53d fcb0 dcbd e171 cbbc 6446 cabd
00000170: 44a3 083d ca2d e7bc 66c9 f0bd 1fd8 dd3d
00000180: e873 543d ec93 89bd 40cd debb 1869 5cbd
00000190: ff49 553d 6174 f53d 3ad2 05be a6cb b1bd
000001a0: 0bca 293e fe07 d2bd 74d6 2fbd d047 453d
000001b0: 8e46 e23d 3b0a 253d 0b75 62bc 48da 2a3d
000001c0: c6d3 e0bd 1040 c7bc a559 f93c 268d 17bd
000001d0: f47e 68bd 1077 e93d 3042 843d 4e83 c73d
000001e0: d24b 93bd f31e 3b3e cede f1bd 6c16 11bd
000001f0: 989b 8b3d 544a 033d f468 90bd 16fd e3bd
00000200: 1a74 063e 2643 f0bd 901e b3bc e047 0bbc
00000210: 81fb 7cbd dc55 f3bd 4425 50bd 7449 053e
00000220: 6da4 a43d 505d 23bd 1f4c 873b eff1 153e
00000230: 84c7 f1bd 0095 033e 0caa f7bd caf8 6a3e
00000240: 85d3 c23c 2036 0abd c6d4 4abd df1c ea3c
00000250: 90a2 99bc b44e 8ebd b5ff 243e 1a73 a33d
00000260: a8de 80bb 0971 0d3e 1d71 383c 80ae 9aba
00000270: 9cee 593d 883b 9bbd af62 593d f28f ca3c
00000280: 822d a6bd 0741 64bc 4c53 943d b652 2a3c
00000290: e8bc 683c 0a8b b5bc 6213 3abe 9819 fdbd
000002a0: 05bb 563b 5faf 6e3d 74ff 8e3d 6449 f4bc
000002b0: 8c5c 78bd d6fc 1dbd 478b 10bb 80fe 1f3b
000002c0: 7abf b7bd d81e 963c 811f 89bc a0ab 393d
000002d0: 3746 17ba eaee 013e 0ff9 143e 5653 b6bd
000002e0: 261f 91bd d858 efbb 2038 63bc 0567 1a3d
000002f0: 57bf 23ba 174d 8abd c4ef e8bd 8fda 663c
00000300: 5c23 87bd a26c eebd 2b64 483d 16d2 bd3d
00000310: b46d 17be a030 503c b93d 523d 4f1f fdbd
00000320: a46b 1fbe 681f 043e 8040 22bb 500a 233d
00000330: 1f26 003c 78a9 b93c c5b0 013e 8a9a 4cbd
00000340: ba0a afbd 7b7a 76bd 550b dbbc 82aa 063d
00000350: 08f0 f1bd 7d1a 65bd 3f8d 3b3d 94a7 debd
00000360: af13 b9bd ebf8 a5bd 3727 c0bd ac1c 993d
00000370: d42b 79bd d2bb 743c c22c cebd 1763 7fbd
00000380: 402d 0abc 98bf fd3c a404 9fbd b2f4 e8bd
00000390: 8f35 06be 9c8e 03be 8c0d d0bd ee3a e43d
000003a0: 776d 03be d60c e4bd 30b1 d0bd dc9a 80bd
000003b0: c0f9 65bb bca8 1fbe 8db0 28bd c0c6 7e3d
000003c0: e259 2bbd 3c39 e53d 34c2 86bc 7b1c 433d
000003d0: 222f 4cbd 8984 863d bb1e ad3d 79de f43d
000003e0: f12f 123d 468c 03be 7474 abbd ec63 843d
000003f0: 6fb5 bd3a 236e b93d 652f de3c 81e2 85bd
0.058109503 0.057944313 -0.0041979603 0.08174674 -0.050555475 -0.025109172 0.024466202 -0.18888846
0.042099014 -0.0024770612 0.11864115 -0.0663975 0.018506521 0.47701675 -0.055974655 -0.13291752
-0.037719138 0.043918703 -0.04091875 -0.0077398513 0.005994719 -0.07458269 0.015118927 -0.04733783
-0.0064751804 -0.0036052489 -0.081067875 -0.09583523 -0.112250686 0.13162386 -0.008697811 -0.051426906
-0.011347446 0.011132887 0.11442827 -0.047279734 -0.09519162 0.10105776 -0.18461818 -0.08047432
0.022068392 0.14705148 0.03771612 -0.5916698 -0.039903134 0.04778214 -0.081657544 -0.10176656
-0.12054934 -0.12880586 -0.05565509 -0.02444007 -0.029433982 0.116197236 0.036101926 -0.05796192
0.08235536 0.08261213 -0.10781562 0.013801956 -0.04026105 0.08343476 -0.22964312 -0.016610987
-0.0013300478 0.05799292 0.015658813 -0.09067437 -0.044098914 0.07373704 -0.0025880465 -0.016661104
-0.059469663 -0.060819417 -0.015759498 0.009346306 -0.0008816421 -0.033061147 0.07756978 -0.026630228
-0.0055381907 -0.03308125 -0.07349186 0.002407463 -0.11791308 0.077933036 -0.0968546 -0.017402032
0.10408001 -0.107759446 -0.024834575 -0.09876707 0.033358827 -0.028220076 -0.11757164 0.108322375
0.05186835 -0.06717667 -0.00679937 -0.053811163 0.05207252 0.11985088 -0.13068476 -0.08681421
0.1658098 -0.10255431 -0.042929128 0.04816419 0.110486135 0.04029296 -0.0138218505 0.041712075
-0.109778926 -0.02432254 0.030438254 -0.036999844 -0.056761697 0.113996625 0.06457937 0.09741841
-0.07192196 0.18273525 -0.11810075 -0.035421774 0.068167865 0.032053307 -0.07051268 -0.11132257
0.13130227 -0.117315575 -0.02186516 -0.008501023 -0.06176329 -0.11881611 -0.05081679 0.13016301
0.08039174 -0.03988391 0.0041289474 0.14643072 -0.11805633 0.12849808 -0.12092981 0.22946468
0.023782501 -0.033743024 -0.049519323 0.02857822 -0.018754274 -0.06948605 0.1611317 0.07980938
-0.0039327927 0.1381265 0.011257437 -0.0011801273 0.05320607 -0.07579714 0.053072628 0.024726842
-0.08114149 -0.013931519 0.0724245 0.010395696 0.014205195 -0.022161026 -0.18171456 -0.12358397
0.003276528 0.058272716 0.069823176 -0.029820152 -0.060635135 -0.0385712 -0.0022055672 0.0024413168
-0.08972068 0.018325254 -0.016738655 0.04532969 -0.00057706557 0.12688795 0.14548133 -0.08902614
-0.07086019 -0.007304292 -0.013868362 0.037695903 -0.00062464684 -0.06752985 -0.11373857 0.014090194
-0.06598541 -0.11641814 0.048923653 0.09268586 -0.14787942 0.012706906 0.051328395 -0.12359487
-0.15568405 0.12902606 -0.0024757683 0.039804757 0.007821589 0.022663817 0.12665088 -0.049952067
-0.08546968 -0.0601754 -0.026738802 0.032877453 -0.118133605 -0.055933464 0.045789 -0.10871807
-0.090369575 -0.08104118 -0.0938248 0.07476172 -0.060832813 0.014937358 -0.100671306 -0.06235036
-0.00843364 0.030975148 -0.07764557 -0.11374797 -0.13106368 -0.1284737 -0.10158834 0.111440524
-0.12834726 -0.11135261 -0.10190046 -0.06279537 -0.003509149 -0.15591711 -0.041183997 0.06220126
-0.041833766 0.11192557 -0.016450025 0.047634583 -0.049849637 0.06568248 0.08453127 0.11956496
0.03569025 -0.12846479 -0.08371821 0.06464371 0.0014473627 0.0905421 0.027122209 -0.06537343

bias f4 [64]
00000000: 6299 9eba a635 7fbd ecc7 183e 414f a8bc
00000010: 0aca 14bd dfed 2bbd bb43 67bc 4829 3bbe
00000020: c26a 90bd bbe2 84bd 751e 9abd a3dd 1ebd
00000030: 362b a5bd ca98 babc 24f1 72bd 0c89 38bd
00000040: b1c6 b3bc aaa7 91bd b5fe e6bd 597e 65bd
00000050: c6c3 66be 9ff4 b2be 7659 f8bc ea07 1dbe
00000060: 63cd d3bc 3e76 1fbe 3026 5cbd a841 45bd
00000070: 8ebd 2bbb dc94 9abe e7ef afbc eeb9 6dbd
00000080: e3d3 06be 2584 f43b 4425 e2bc b048 8cbe
00000090: d3b5 29be adb1 aabd de60 55bc 23f8 67bd
000000a0: 26ba 88be f061 40be 246b c4bc e361 b7bd
000000b0: 4f17 9abe fe43 8bbc e53a 0d3c 7f57 44bd
000000c0: 42c9 dbbd 0641 bbbd 4df0 89bd 0ec3 25bd
000000d0: b563 24bd f668 a0bd a3e4 6cbd 7891 15be
000000e0: 4a39 8dbb 7324 6ebe 9463 15be 0bf1 b6bd
000000f0: 5309 6cbc 6d63 00be 2ba3 46be f5c8 99be
-0.0012100155 -0.062307023 0.14920014 -0.020545604 -0.036325492 -0.0419749 -0.014115269 -0.18277466
-0.070516124 -0.06488558 -0.075253405 -0.038785588 -0.080648825 -0.022777934 -0.059312 -0.045052573
-0.02194533 -0.071120575 -0.1127905 -0.056028698 -0.22535619 -0.34952256 -0.030316096 -0.1533505
-0.025854772 -0.1557245 -0.053747356 -0.048158318 -0.0026205513 -0.30191696 -0.021476699 -0.058038644
-0.13166766 0.007462042 -0.02760566 -0.27399206 -0.16573267 -0.0833467 -0.013023583 -0.056633126
-0.2670452 -0.1878736 -0.02397687 -0.08954217 -0.30095908 -0.017000195 0.008619999 -0.047935005
-0.10731746 -0.091432616 -0.06735287 -0.04046922 -0.04013415 -0.0783252 -0.057835232 -0.14606273
-0.004309808 -0.23256092 -0.14588767 -0.08932694 -0.01440652 -0.12537928 -0.19398181 -0.3003613

weight f4 [1, 64]
00000000: 7c78 553c c7c9 87bc 1662 093e 7574 c73c
00000010: 0a20 943c 5f28 b3bc 11f7 31bd 2563 803c
00000020: e366 4ebd 944e 0fbd 3462 113e bf74 073d
00000030: f3ec c0bc 033d 49bb 9cf7 103d e84c 613c
00000040: 126c 003d 3cdf 5cbd d1a4 6bbd ecb0 98bc
00000050: fc56 8abd c6ef 1ebe 47ef 98ba 76b6 03bc
00000060: 5726 c5bc fc5b 88bd d809 81bd 107a 4cbd
00000070: 2f78 ea3b 1e75 43be 6a30 153d 1c9e 333d
00000080: 313a 66bc 39d1 c23b 8696 01bd 22d6 2f3e
00000090: b009 96bc 1e89 8cbd 075e 063b bb3b 09bb
000000a0: 0910 9d3c 6b13 e2bc 3b0f e03c 8c97 743d
000000b0: 1b91 fd3d 39b4 5bbb c94e e03b 9c94 113d
000000c0: 763c cdbb 6493 273c d71f 6d3d 4a7e 603d
000000d0: 0e6d ac3c 3087 ac3d 201e 453c 0e27 463d
000000e0: f666 753c bae2 e2bd 499e 26bd 03fc c93c
000000f0: bcbc 02bd 5012 a4bb 3481 2d3d d9b6 383e
0.013029214 -0.016575707 0.13416323 0.024347523 0.018081684 -0.021869836 -0.04344851 0.015672276
-0.05039109 -0.034987047 0.14197618 0.033070322 -0.023550486 -0.0030706532 0.03539239 0.013751246
0.031353064 -0.05392383 -0.057530228 -0.01863905 -0.06754872 -0.15521154 -0.001166799 -0.008039108
-0.024066133 -0.066581696 -0.06300706 -0.049921095 0.0071554403 -0.19087645 0.036423124 0.043851957
-0.01405196 0.0059453514 -0.03163769 0.17171529 -0.018315166 -0.068620905 0.0020502822 -0.0020940143
0.019172685 -0.02759715 0.027351012 0.05971484 0.12381192 -0.003352417 0.0068453294 0.035542116
-0.006263311 0.010228012 0.057891693 0.05480794 0.021048095 0.084242225 0.012031108 0.04837709
0.014978161 -0.11078401 -0.040678296 0.024656301 -0.031918272 -0.005007066 0.042359546 0.18038501
