Curie_Weiss/checkpoints/SDE_method_naive_patch_L_8_L_64_seed_42/model.pt (torch, 39836 bytes, 7 tensors)

weight f4 [64, 1]
0	0x3ecf441b	0.40481648
1	0x3f757376	0.95879304
2	0xbda6d738	-0.081465185
3	0x3fa22600	1.2667847
4	0xbe605cb0	-0.21910357
5	0x3e4ea238	0.20179069
6	0xbf2efcdf	-0.683546
7	0x3ecea805	0.40362564
8	0x3e9e1497	0.30875084
9	0xbf3bcf0e	-0.73362815
10	0x3f5e83a4	0.8691962
11	0x3e3fa6b0	0.1871593
12	0x3f96d49b	1.1783632
13	0x3d54dfd3	0.051971268
14	0x3e773f53	0.2414525
15	0xbf10f6aa	-0.5662638
16	0x3f8ca488	1.0987711
17	0x3e175b38	0.14780891
18	0xbed0b3db	-0.4076222
19	0x3e828208	0.2548983
20	0xbea18bda	-0.3155201
21	0xbdf02cc0	-0.117272854
22	0xbe5a0188	-0.21289647
23	0x3f29d2ae	0.66337097
24	0xbf21f54e	-0.6326493
25	0xbf118760	-0.5684719
26	0xbd6f33c4	-0.058398977
27	0xbed3fe5f	-0.41405007
28	0x3c1a0cab	0.009402434
29	0xbf64b5b6	-0.8933977
30	0x3f7e5ccb	0.9936034
31	0xbf3142fd	-0.6924284
32	0x3eea1e05	0.45726028
33	0x3e2a69c8	0.16641915
34	0xbea63fac	-0.32470453
35	0x3f1e31f8	0.61794996
36	0x3e1f9758	0.15585077
37	0x3f7d0e78	0.988502
38	0x3ddfe300	0.10931969
39	0xbea17898	-0.31537318
40	0x3df70ad1	0.1206261
41	0xbe8ad808	-0.27117944
42	0x3ed77aa4	0.42085755
43	0x3f9d67f1	1.2297345
44	0x3f13fbb6	0.57805955
45	0xbedfd514	-0.43717253
46	0x3dcec3fb	0.10095974
47	0x3c9eb3c8	0.019372836
48	0x3d4ed8c6	0.0504997
49	0xbf1c0886	-0.60950506
50	0xbf53efc4	-0.8278773
51	0xbe986825	-0.29766956
52	0xbee57d59	-0.44822195
53	0x3f520ed6	0.8205389
54	0x3e9378d8	0.28803134
55	0x3ed413cc	0.41421354
56	0x3e7e05c6	0.2480689
57	0xbc8e8200	-0.017395973
58	0x3f77e407	0.9683232
59	0xbf2fa096	-0.6860441
60	0x3d80f320	0.062963724
61	0xbf1c2111	-0.60987955
62	0x3e9de050	0.308352
63	0xbeb052e0	-0.3443823

bias f4 [64]
0	0xbe324e9f	-0.17412804
1	0xbebced62	-0.3689986
2	0x3d7bb5e3	0.061452758
3	0xbef8da33	-0.48603973
4	0xbf18ad8a	-0.596398
5	0xbf18afe6	-0.596434
6	0x3f07cc47	0.5304608
7	0xbd705db3	-0.05868311
8	0x3e5a6efd	0.21331401
9	0xbf53454e	-0.82527626
10	0xbf7deb98	-0.9918761
11	0xbf4848fe	-0.7823638
12	0xbef7bad8	-0.48384738
13	0x3b80b27f	0.0039275284
14	0x3acf5ff0	0.0015821438
15	0x3ee10665	0.4395019
16	0xbed76075	-0.42065778
17	0xbf2e84aa	-0.6817118
18	0x3ea1c173	0.31592903
19	0xbecef3e4	-0.4042045
20	0x3e79c780	0.2439251
21	0xbe72fef0	-0.23730063
22	0x3de84832	0.11341895
23	0xbf46e760	-0.776968
24	0xbf28dea0	-0.659647
25	0x3e97ef97	0.2967498
26	0x3c3edd6c	0.011649471
27	0xbed91c3e	-0.4240436
28	0x3d1d9137	0.038468566
29	0x3eefef55	0.46862283
30	0xbf260860	-0.6485653
31	0xbf35d707	-0.7103123
32	0x3ea12a26	0.3147747
33	0xbeacc3f4	-0.3374325
34	0xbeb5832c	-0.3545164
35	0xbf77b448	-0.9675946
36	0xbf129a84	-0.5726702
37	0xbe11aa49	-0.14225115
38	0xbe072938	-0.13199317
39	0xbf39d3aa	-0.725886
40	0xbdfab25f	-0.12241053
41	0xbf2ede6e	-0.6830815
42	0xbf593086	-0.84839666
43	0xbeed859d	-0.46391
44	0xbf600de6	-0.8752121
45	0xbf230144	-0.63673806
46	0x3d0e2075	0.034698922
47	0xbc9f5f3e	-0.019454595
48	0xb7a1b188	-1.9275365e-05
49	0xbf6ec466	-0.9326843
50	0xbf57741c	-0.84161544
51	0xbed79e56	-0.42112988
52	0x3e6781bc	0.22608083
53	0xbf614286	-0.8799213
54	0xbedc9b64	-0.43087304
55	0xbf194258	-0.5986686
56	0xbe217526	-0.15767345
57	0xbebe8450	-0.3721032
58	0xbe0ddde2	-0.13854173
59	0xbf354143	-0.70802706
60	0xbf2fb798	-0.68639517
61	0xbf27e1df	-0.65579027
62	0xbeaf419c	-0.34229743
63	0xbf4a0e50	-0.7892809

weight f4 [64, 64]
0	0x3d741d02	0.059597977
1	0xbda42759	-0.080153175
2	0x3d80cd2b	0.06289133
3	0xbc864c0b	-0.016393682
4	0xbdd8c7b0	-0.10584962
5	0x3db12938	0.0865044
6	0xbda1aa4b	-0.07893809
7	0xbdbe8c56	-0.09304111
8	0xbe184ee9	-0.14873852
9	0xbdfe8150	-0.12427008
10	0x3d127d18	0.03576383
11	0xbcdfafc0	-0.027305484
12	0xbbd9b4bf	-0.006643861
13	0xbe16fc72	-0.14744738
14	0x3d438752	0.047736473
15	0xbe0bb99a	-0.1364502
16	0xbd9d8a41	-0.076923855
17	0x3cd5e1f0	0.026108712
18	0x3ca5368c	0.020167612
19	0x3dceabe4	0.10091379
20	0x3d8e45c8	0.069469035
21	0xbdcafcf2	-0.09911527
22	0xbc54897e	-0.012972234
23	0xbd5c3978	-0.053765744
24	0xbd9f2b89	-0.077719755
25	0xbe212ace	-0.15738985
26	0x3d4c4066	0.049866103
27	0xbe207a3c	-0.15671629
28	0x3cb4487d	0.022007221
29	0xbca378d1	-0.01995507
30	0xbc711d09	-0.014716395
31	0xbe086ab7	-0.13321958
32	0x3d8c9a40	0.06865358
33	0x3ce10640	0.0274688
34	0x3c83ba38	0.016080007
35	0xbde199ea	-0.11015685
36	0x3d56ee84	0.05247356
37	0xbd831b04	-0.06401637
38	0xbd6a8f44	-0.057265535
39	0x3ddbe3ec	0.10736832
40	0xbc9e52f0	-0.019326657
41	0xbd8da386	-0.06915955
42	0xbd819252	-0.063267365
43	0xbd7b224b	-0.061312
44	0x3d8ef0c4	0.06979516
45	0xbd02d554	-0.031941727
46	0xbdee1069	-0.11624224
47	0xbdb3c70a	-0.08778198
48	0xbe0dcf01	-0.13848497
49	0x3d369888	0.04457906
50	0x3cfe06fa	0.031009186
51	0xbe340d39	-0.17583169
52	0xbd0b1211	-0.033952776
53	0x3d843f5c	0.06457397
54	0x3cb9ae68	0.022666171
55	0xbd3655f8	-0.04451558
56	0x3c222978	0.009897582
57	0x3d868808	0.06568915
58	0xbc0cf9ce	-0.00860448
59	0xbd8a659c	-0.06757662
60	0xbd079408	-0.033100158
61	0xbd58a61c	-0.05289279
62	0xbcb4e4d0	-0.022081763
63	0xbd189398	-0.03725013
64	0x3da3a310	0.07990086
65	0x3ddc019c	0.107424945
66	0xbc4abf20	-0.012374669
67	0xbce54538	-0.027987108
68	0x3aef1480	0.0018240362
69	0xbbf490a0	-0.0074635297
70	0x3cf62e60	0.03005141
71	0x3d0f7ac8	0.035029203
72	0xbde88384	-0.113532096
73	0xbd3cf284	-0.04612972
74	0x3dd795cc	0.10526618
75	0x3d4773c0	0.048694372
76	0xbbcbb9a0	-0.0062171966
77	0xbd9a5808	-0.07536322
78	0xbd9c9f42	-0.076475635
79	0xbde550fa	-0.11197086
80	0xbd26e48c	-0.040745303
81	0x3d2ce790	0.042213023
82	0x3da33b2c	0.079702705
83	0x3d6c6398	0.057712168
84	0xbde24a28	-0.110493004
85	0xbd99f2e4	-0.07517031
86	0xbca19ab0	-0.019727081
87	0x3df7a438	0.12091869
88	0x3c942118	0.018082187
89	0xbd0497d0	-0.032371342
90	0x3d53d27c	0.051714405
91	0xbd4302e8	-0.047610193
92	0xbda5b28c	-0.08090696
93	0x3dbad9e4	0.091235906
94	0xbd68ceac	-0.056837723
95	0xbccd4728	-0.025058344
96	0xbdfeab7e	-0.12435053
97	0x3dab5552	0.08365883
98	0x3dc1f458	0.09470433
99	0x3d3a98f4	0.045556024
100	0xbdb28090	-0.087159276
101	0xbdfca818	-0.12336749
102	0xbdcfeaf6	-0.10152237
103	0x3dbee636	0.09321253
104	0x3d75d06c	0.06001322
105	0x3dd76cd6	0.10518806
106	0x3d861c56	0.065483734
107	0x3d01954c	0.03163652
108	0xbaa07180	-0.0012240857
109	0xbdc2b086	-0.095063254
110	0xbddb556c	-0.10709652
111	0xbdef7302	-0.11691858
112	0x3d5197e4	0.051170245
113	0xbd7b6028	-0.061371
114	0xbcce1528	-0.025156572
115	0xbd935450	-0.07193816
116	0xbcba98d0	-0.022777945
117	0xbdb42e86	-0.08797936
118	0xbda74640	-0.08167696
119	0x3d29d600	0.041463852
120	0xbd182a20	-0.03714955
121	0x3d9e0a34	0.0771679
122	0xbd24410c	-0.040101096
123	0xbdbbcb10	-0.091695905
124	0xbcb4ac68	-0.022054866
125	0xbd7830d0	-0.060593426
126	0xbd1ca460	-0.038242698
127	0xbdf3b5fc	-0.11899945
128	0x3c3e1c44	0.011603419
129	0xbe146594	-0.14491874
130	0x3c415980	0.011801124
131	0xbb54314e	-0.003237802
132	0x3db6e510	0.08930409
133	0xbdc45d86	-0.09588151
134	0x3d28a075	0.04116865
135	0xbdf02785	-0.11726288
136	0xbc341667	-0.010991669
137	0x3df069d2	0.117389336
138	0xbc906aa8	-0.017628983
139	0xba7d6900	-0.00096668303
140	0xbda8d23b	-0.08243223
141	0xbe242f10	-0.16033578
142	0x3ac6d5aa	0.0015169878
143	0xbe346ea4	-0.17620331
144	0x3c985b71	0.01859829
145	0x3dbf8bae	0.09352814
146	0x3d972e42	0.0738187
147	0xbcf18a68	-0.029484943
148	0xbe1945c4	-0.1496802
149	0x3ce639e8	0.028103784
150	0x3cb094c0	0.021555305
151	0xbdfecc8e	-0.124413595
152	0xbcff5a2e	-0.03117093
153	0xbddf517a	-0.10904212
154	0xbd46b69a	-0.048513986
155	0xbd6ecf6e	-0.05830329
156	0xbdd77020	-0.10519433
157	0xbd98b7e4	-0.07456949
158	0xbe3266eb	-0.17422073
159	0x3ddf3922	0.10899569
160	0x3d433a3b	0.047662955
161	0xbca0a248	-0.019608632
162	0xbc693b00	-0.014235258
163	0xbd50f518	-0.05101499
164	0xbde72f20	-0.11288285
165	0xbe38bfe7	-0.18041955
166	0x3d3e4a04	0.046457306
167	0xbd8c8e4a	-0.06863077
168	0xbe0e2034	-0.13879472
169	0xbc1fcaa0	-0.009752899
170	0xbd2a8070	-0.041626394
171	0xbdd20ddc	-0.1025655
172	0x3b839c00	0.0040163994
173	0xbcd93400	-0.026514053
174	0xbdcb054d	-0.099131204
175	0xbdedefde	-0.11618017
176	0xbe244f71	-0.1604593
177	0x3dd6a868	0.1048134
178	0xbd328164	-0.043580428
179	0x3d81979c	0.06327745
180	0xbd6a6ca7	-0.057232525
181	0x3c266c50	0.01015766
182	0x3deeab3e	0.116537556
183	0x3d6be3d8	0.057590336
184	0xbe2985e0	-0.16554976
185	0x3d4b36d8	0.04961285
186	0x3d73f35a	0.05955825
187	0x3b880909	0.0041514677
188	0x3daba0f4	0.08380309
189	0x3e15a5f6	0.1461409
190	0xbc9ce810	-0.019153625
191	0x3cd48928	0.025944307
192	0xbeca6fcf	-0.39538428
193	0xbeab5f6f	-0.33471248
194	0xbe59b71f	-0.21261261
195	0xbe7ac88c	-0.24490565
196	0xbda1fe76	-0.07909863
197	0xbdcd4856	-0.100235626
198	0xbdaef0ec	-0.08542046
199	0xbedd39c0	-0.43208122
200	0xbecf9d0d	-0.40549508
201	0xbcfd3b88	-0.030912176
202	0x3dacc4c0	0.084359646
203	0x3cab6640	0.02092278
204	0xbecedb91	-0.4040189
205	0xbed0febc	-0.40819347
206	0xbe7c43de	-0.24635264
207	0xbecd5380	-0.40102768
208	0xbea60ad6	-0.32430142
209	0x3d759c08	0.059963256
210	0xbd6cf5b4	-0.05785151
211	0xbc5f5050	-0.013629988
212	0xbc324460	-0.01088056
213	0xbcf242e8	-0.029572919
214	0xbd81ccdc	-0.06337902
215	0xbde4354e	-0.111429796
216	0xbdcef07c	-0.101044625
217	0xbd891404	-0.06693271
218	0x3df74124	0.120729715
219	0xbd774db4	-0.060376838
220	0xbec8acc7	-0.3919432
221	0x3cf83630	0.030299276
222	0xbe8c6cb7	-0.27426693
223	0x3d8c43d0	0.06848872
224	0xbe5b3520	-0.21406984
225	0x3d8e8f4e	0.06960927
226	0xbdfdd302	-0.12393762
227	0x3c35a260	0.0110860765
228	0x3d9b12a2	0.07571913
229	0xbea42150	-0.32056665
230	0xbd96db00	-0.0736599
231	0x3df40e14	0.11916748
232	0xbeb414b0	-0.35172033
233	0xbd91c090	-0.071168065
234	0xbde6cc50	-0.11269438
235	0xbe9b53c9	-0.3033736
236	0x3d62e258	0.05539164
237	0x3ce2acf0	0.027670354
238	0xbe91769e	-0.2841081
239	0xbdc225ae	-0.09479843
240	0xbed89160	-0.42298412
241	0x3b104180	0.0022011697
242	0x3de96df6	0.113979265
243	0x3d93b11e	0.07211517
244	0xbd950d4e	-0.07277928
245	0xbc84ec88	-0.016226068
246	0xbdbcb810	-0.09214795
247	0xbd770034	-0.060302928
248	0xbe91eb3d	-0.28499785
249	0x3d8b66e0	0.06806731
250	0xbe526452	-0.20546082
251	0xbdeb0900	-0.11476326
252	0x3dab2a5e	0.0835769
253	0xbdb48e06	-0.08816151
254	0x3d3fba2c	0.046808407
255	0x3dd8a388	0.10578066

bias f4 [64]
0	0xbe047836	-0.12936482
1	0xbdca03f2	-0.09864034
2	0x3d174496	0.036930643
3	0xbe973f46	-0.2954046
4	0xbd96dd7a	-0.07366462
5	0xbdf77aa2	-0.12083937
6	0x3d1541d2	0.036439724
7	0xbe0aba18	-0.13547552
8	0x3ccaa8d8	0.024738714
9	0xbd9945e6	-0.07484035
10	0x3c6f807b	0.0146180345
11	0xbe4decf2	-0.20109919
12	0xbdbeb015	-0.09310929
13	0xbe1aa31c	-0.15101284
14	0x3cd7b331	0.026330562
15	0x3e6c1fa6	0.23058948
16	0x3c9eb3f7	0.019372923
17	0xbdb391c8	-0.0876804
18	0xbdedcaee	-0.116109714
19	0x3d1427bf	0.036170717
20	0xbd1e8b64	-0.038707152
21	0xbe3697ff	-0.1783142
22	0x3d80466e	0.062634334
23	0xbdfe17d4	-0.124068886
24	0x3d85a56c	0.06525692
25	0x3de16d6c	0.11007199
26	0x3d6e2b42	0.058146723
27	0xbcbbe25b	-0.022935083
28	0xbd77402f	-0.060363945
29	0xbd0c61ab	-0.03427283
30	0xbe470e9b	-0.19439165
31	0xbde2e344	-0.11078504
32	0xbc2424a2	-0.0100185
33	0x3c6bdaf1	0.014395461
34	0xbe69a32f	-0.22816156
35	0x3da59ed4	0.08086935
36	0xbd0e5b13	-0.034754824
37	0xbe040447	-0.12892257
38	0xbd75bb72	-0.059993215
39	0x3c88c355	0.016694704
40	0xbe0ac370	-0.13551116
41	0x3c08a0e3	0.00833914
42	0xbdf8ad40	-0.1214242
43	0xbde8958a	-0.11356647
44	0xbdb0e1d0	-0.0863682
45	0xbc32b86d	-0.010908228
46	0x3d063366	0.03276386
47	0xbcb2913d	-0.02179777
48	0xbdea3f10	-0.114378095
49	0xbe3552dd	-0.17707391
50	0xbe042fef	-0.1290891
51	0xbdfc95ec	-0.12333283
52	0x3d1b249b	0.037876707
53	0xbe024e01	-0.12725069
54	0xbb693900	-0.0035586953
55	0x3d26083e	0.040535204
56	0xbd01235c	-0.031527862
57	0xbe308862	-0.17239526
58	0xbc68a4f0	-0.01419948
59	0xbdbceb35	-0.0922455
60	0x3c15609f	0.009117275
61	0xbdaa3cf4	-0.08312407
62	0xbeb8886d	-0.36041585
63	0x3d838c01	0.06423188

weight f4 [64, 64]
0	0x3d6e043b	0.058109503
1	0x3d6d5704	0.057944313
2	0xbb898f0b	-0.0041979603
3	0x3da76ad6	0.08174674
4	0xbd4f1342	-0.050555475
5	0xbccdb1c0	-0.025109172
6	0x3cc86d58	0.024466202
7	0xbe416bfa	-0.18888846
8	0x3d2c7004	0.042099014
9	0xbb225631	-0.0024770612
10	0x3df2fa22	0.11864115
11	0xbd87fb6a	-0.0663975
12	0x3c979afd	0.018506521
13	0x3ef43b8a	0.47701675
14	0xbd6545ae	-0.055974655
15	0xbe081b88	-0.13291752
16	0xbd1a7f62	-0.037719138
17	0x3d33e419	0.043918703
18	0xbd279a6b	-0.04091875
19	0xbbfd9e94	-0.0077398513
20	0x3bc46f59	0.005994719
21	0xbd98becf	-0.07458269
22	0x3c77b560	0.015118927
23	0xbd41e550	-0.04733783
24	0xbbd42dc0	-0.0064751804
25	0xbb6c460a	-0.0036052489
26	0xbda606ea	-0.081067875
27	0xbdc44543	-0.09583523
28	0xbde5e3b0	-0.112250686
29	0x3e06c868	0.13162386
30	0xbc0e8143	-0.008697811
31	0xbd52a505	-0.051426906
32	0xbc39eaa3	-0.011347446
33	0x3c3666b6	0.011132887
34	0x3dea595e	0.11442827
35	0xbd41a865	-0.047279734
36	0xbdc2f3d3	-0.09519162
37	0x3dcef75f	0.10105776
38	0xbe3d0c8c	-0.18461818
39	0xbda4cfb8	-0.08047432
40	0x3cb4c8c6	0.022068392
41	0x3e1694aa	0.14705148
42	0x3d1a7c38	0.03771612
43	0xbf1777ac	-0.5916698
44	0xbd237178	-0.039903134
45	0x3d43b735	0.04778214
46	0xbda73c12	-0.081657544
47	0xbdd06afc	-0.10176656
48	0xbdf6e293	-0.12054934
49	0xbe03e5af	-0.12880586
50	0xbd63f697	-0.05565509
51	0xbcc8368b	-0.02444007
52	0xbcf11f89	-0.029433982
53	0x3dedf8d1	0.116197236
54	0x3d13df9d	0.036101926
55	0xbd6d697a	-0.05796192
56	0x3da8a9ed	0.08235536
57	0x3da9308c	0.08261213
58	0xbddcce70	-0.10781562
59	0x3c622199	0.013801956
60	0xbd24e8c5	-0.04026105
61	0x3daadfd8	0.08343476
62	0xbe6b2791	-0.22964312
63	0xbc8813c4	-0.016610987
64	0xbaae5500	-0.0013300478
65	0x3d6d89fc	0.05799292
66	0x3c8046e9	0.015658813
67	0xbdb9b37c	-0.09067437
68	0xbd34a110	-0.044098914
69	0x3d970372	0.07373704
70	0xbb299c37	-0.0025880465
71	0xbc887cde	-0.016661104
72	0xbd739676	-0.059469663
73	0xbd791dc8	-0.060819417
74	0xbc811a10	-0.015759498
75	0x3c192140	0.009346306
76	0xba671e00	-0.0008816421
77	0xbd076b20	-0.033061147
78	0x3d9edce8	0.07756978
79	0xbcda27a3	-0.026630228
80	0xbbb579b6	-0.0055381907
81	0xbd078034	-0.03308125
82	0xbd9682e6	-0.07349186
83	0x3b1dc687	0.002407463
84	0xbdf17c6a	-0.11791308
85	0x3d9f9b5b	0.077933036
86	0xbdc65bb4	-0.0968546
87	0xbc8e8eb5	-0.017402032
88	0x3dd527e6	0.10408001
89	0xbddcb0fc	-0.107759446
90	0xbccb71e1	-0.024834575
91	0xbdca4664	-0.09876707
92	0x3d08a344	0.033358827
93	0xbce72dca	-0.028220076
94	0xbdf0c966	-0.11757164
95	0x3dddd81f	0.108322375
96	0x3d5473e8	0.05186835
97	0xbd8993ec	-0.06717667
98	0xbbdecd40	-0.00679937
99	0xbd5c6918	-0.053811163
100	0x3d5549ff	0.05207252
101	0x3df57461	0.11985088
102	0xbe05d23a	-0.13068476
103	0xbdb1cba6	-0.08681421
104	0x3e29ca0b	0.1658098
105	0xbdd207fe	-0.10255431
106	0xbd2fd674	-0.042929128
107	0x3d4547d0	0.04816419
108	0x3de2468e	0.110486135
109	0x3d250a3b	0.04029296
110	0xbc62750b	-0.0138218505
111	0x3d2ada48	0.041712075
112	0xbde0d3c6	-0.109778926
113	0xbcc74010	-0.02432254
114	0x3cf959a5	0.030438254
115	0xbd178d26	-0.036999844
116	0xbd687ef4	-0.056761697
117	0x3de97710	0.113996625
118	0x3d844230	0.06457937
119	0x3dc7834e	0.09741841
120	0xbd934bd2	-0.07192196
121	0x3e3b1ef3	0.18273525
122	0xbdf1dece	-0.11810075
123	0xbd11166c	-0.035421774
124	0x3d8b9b98	0.068167865
125	0x3d034a54	0.032053307
126	0xbd9068f4	-0.07051268
127	0xbde3fd16	-0.11132257
128	0x3e06741a	0.13130227
129	0xbdf04326	-0.117315575
130	0xbcb31e90	-0.02186516
131	0xbc0b47e0	-0.008501023
132	0xbd7f528c	-0.062334582
133	0xbdf355dc	-0.11881611
134	0xbd502544	-0.05081679
135	0x3e054974	0.13016301
136	0x3da467ab	0.080275856
137	0xbd235d50	-0.03988391
138	0x3b874c1f	0.0041289474
139	0x3e15f1ef	0.14643072
140	0xbdf1c784	-0.11805633
141	0x3e039500	0.12849808
142	0xbdf7aa0c	-0.12092981
143	0x3e7cb7a8	0.24679434
144	0x3cc2d385	0.023782501
145	0xbd0a3620	-0.033743024
146	0xbd4ad4c6	-0.049519323
147	0x3cea1cdf	0.02857822
148	0xbc99a290	-0.018754274
149	0xbd8e4eb4	-0.06948605
150	0x3e24c063	0.16089015
151	0x3da3731a	0.07980938
152	0xbb17bcd6	-0.0023153326
153	0x3de333a9	0.11093838
154	0x3c38711d	0.011257437
155	0xba9aae80	-0.0011801273
156	0x3d59ee9c	0.05320607
157	0xbd9b3b88	-0.07579714
158	0x3d5962af	0.053072628
159	0x3cca8ff2	0.024726842
160	0xbda62d82	-0.08114149
161	0xbc644107	-0.013931519
162	0x3d94534c	0.0724245
163	0x3c29078d	0.010316742
164	0x3c68bc0e	0.014204992
165	0xbcb58b0a	-0.022161026
166	0xbe4a78c0	-0.19772625
167	0xbdfd1998	-0.12358397
168	0x3b56bb05	0.003276528
169	0x3d6eaf5f	0.058272716
170	0x3d8eff74	0.069823176
171	0xbcf44964	-0.029820152
172	0xbd785c8c	-0.060635135
173	0xbd1dfcd6	-0.0385712
174	0xbb06f5a7	-0.0020593198
175	0x3b1ffe80	0.0024413168
176	0xbdb7bf7a	-0.08972068
177	0x3c961ed8	0.018325254
178	0xbc891f81	-0.016738655
179	0x3d39aba0	0.04532969
180	0x3badfe17	0.005309831
181	0x3e01eeea	0.12688795
182	0x3e14f90f	0.14548133
183	0xbdb65356	-0.08902614
184	0xbd911f26	-0.07086019
185	0xbbef58d8	-0.007304292
186	0xbc633820	-0.013868362
187	0x3d1a6705	0.037695903
188	0xba23bf57	-0.00062464684
189	0xbd8a4d17	-0.06752985
190	0xbde8efc4	-0.11373857
191	0x3b8c5db6	0.004283632
192	0xbd87235c	-0.06598541
193	0xbdee6ca2	-0.11641814
194	0x3d48642b	0.048923653
195	0x3dbdd216	0.09268586
196	0xbe176db4	-0.14787942
197	0x3c5030a0	0.012706906
198	0x3d523db9	0.051328395
199	0xbdfd1f4f	-0.12359487
200	0xbe1f6ba4	-0.15568405
201	0x3e041f68	0.12902606
202	0xbb224080	-0.0024757683
203	0x3d230a50	0.039804757
204	0x3c00261f	0.007821589
205	0x3cb9a978	0.022663817
206	0x3e01b0c5	0.12665088
207	0xbd4c9a8a	-0.049952067
208	0xbdaf0aba	-0.08546968
209	0xbd767a7b	-0.0601754
210	0xbcdb0b55	-0.026738802
211	0x3d06aa82	0.032877453
212	0xbdf1f008	-0.118133605
213	0xbd651a7d	-0.055933464
214	0x3d3b8d3f	0.045789
215	0xbddea794	-0.10871807
216	0xbdb913af	-0.090369575
217	0xbda5f8eb	-0.08104118
218	0xbdc02737	-0.0938248
219	0x3d991cac	0.07476172
220	0xbd792bd4	-0.060832813
221	0x3c74bbd2	0.014937358
222	0xbdce2cc2	-0.100671306
223	0xbd7f6317	-0.06235036
224	0xbc0a2d40	-0.00843364
225	0x3cfdbf98	0.030975148
226	0xbd9f04a4	-0.07764557
227	0xbde8f4b2	-0.11374797
228	0xbe06358f	-0.13106368
229	0xbe038e9c	-0.1284737
230	0xbdd00d8c	-0.10158834
231	0x3de43aee	0.111440524
232	0xbe036d77	-0.12834726
233	0xbde40cd6	-0.11135261
234	0xbdd0b130	-0.10190046
235	0xbd809adc	-0.06279537
236	0xbb65f9c0	-0.003509149
237	0xbe1fa8bc	-0.15591711
238	0xbd28b08d	-0.041183997
239	0x3d7ec6c0	0.06220126
240	0xbd2b59e2	-0.041833766
241	0x3de5393c	0.11192557
242	0xbc86c234	-0.016450025
243	0x3d431c7b	0.047634583
244	0xbd4c2f22	-0.049849637
245	0x3d868489	0.06568248
246	0x3dad1ebb	0.08453127
247	0x3df4de79	0.11956496
248	0x3d122ff1	0.03569025
249	0xbe038c46	-0.12846479
250	0xbdab7474	-0.08371821
251	0x3d8463ec	0.06464371
252	0x3abdb56f	0.0014473627
253	0x3db96e23	0.0905421
254	0x3cde2f65	0.027122209
255	0xbd85e281	-0.06537343

bias f4 [64]
0	0xba9e9962	-0.0012100155
1	0xbd7f35a6	-0.062307023
2	0x3e167601	0.14693452
3	0xbca84f41	-0.020545604
4	0xbaf8740b	-0.0018955482
5	0xbd2beddf	-0.0419749
6	0xbc6743bb	-0.014115269
7	0xbe3b2948	-0.18277466
8	0xbd906ac2	-0.070516124
9	0xbd84e2bb	-0.06488558
10	0xbd9a1e75	-0.075253405
11	0xbd1edda3	-0.038785588
12	0xbda52b36	-0.080648825
13	0xbcb0b541	-0.021570804
14	0xbd72f124	-0.059312
15	0xbd38890c	-0.045052573
16	0xbcb3c6b1	-0.02194533
17	0xbd91a7aa	-0.071120575
18	0xbdf7b90b	-0.12095841
19	0xbd657e59	-0.056028698
20	0xbe66c3c6	-0.22535619
21	0xbeb2f49f	-0.34952256
22	0xbd088088	-0.033325702
23	0xbe1d07ea	-0.1533505
24	0xbcd3cd63	-0.025854772
25	0xbe1f763e	-0.1557245
26	0xbd5c2630	-0.053747356
27	0xbd4541a8	-0.048158318
28	0xbb2bbd8e	-0.0026205513
29	0xbe9a94dc	-0.30191696
30	0xbcafefe7	-0.021476699
31	0xbd6db9ee	-0.058038644
32	0xbe06d3e3	-0.13166766
33	0x3cabbc2e	0.020963755
34	0xbce22544	-0.02760566
35	0xbe8c48b0	-0.27399206
36	0xbe29b5d3	-0.16573267
37	0xbdd6a494	-0.104806095
38	0xbc5560de	-0.013023583
39	0xbd67f823	-0.056633126
40	0xbe88ba26	-0.2670452
41	0xbe4061f0	-0.1878736
42	0xbcc46b24	-0.02397687
43	0xbdb761e3	-0.08954217
44	0xbe9a174f	-0.30095908
45	0xbc8b43fe	-0.017000195
46	0x3cc02561	0.023455324
47	0xbd44577f	-0.047935005
48	0xbddbc942	-0.10731746
49	0xbdbb4106	-0.091432616
50	0xbd89f04d	-0.06735287
51	0xbd25c30e	-0.04046922
52	0xbd2463b5	-0.04013415
53	0xbda068f6	-0.0783252
54	0xbd6ce4a3	-0.057835232
55	0xbe159178	-0.14606273
56	0xbb8d394a	-0.004309808
57	0xbe6e2473	-0.23256092
58	0xbe156394	-0.14588767
59	0xbdb6f10b	-0.08932694
60	0xbc6c0953	-0.01440652
61	0xbe00636d	-0.12537928
62	0xbe46a32b	-0.19398181
63	0xbe99c8f5	-0.3003613

weight f4 [1, 64]
0	0x3c55787c	0.013029214
1	0xbc87c9c7	-0.016575707
2	0x3e0b9cc4	0.1363402
3	0x3cc77475	0.024347523
4	0x3c8739c3	0.016507035
5	0xbcb3285f	-0.021869836
6	0xbd31f711	-0.04344851
7	0x3c806325	0.015672276
8	0xbd4e66e3	-0.05039109
9	0xbd0f4e94	-0.034987047
10	0x3e116234	0.14197618
11	0x3d0774bf	0.033070322
12	0xbcc0ecf3	-0.023550486
13	0xbb753bd6	-0.0037419698
14	0x3d10f79c	0.03539239
15	0x3c614ce8	0.013751246
16	0x3d006c12	0.031353064
17	0xbd5cdf3c	-0.05392383
18	0xbd7fa7b8	-0.06241581
19	0xbc98b0ec	-0.01863905
20	0xbd8a56fc	-0.06754872
21	0xbe1eefc6	-0.15521154
22	0xbaf44a9c	-0.0018637958
23	0xbc03b676	-0.008039108
24	0xbcc52657	-0.024066133
25	0xbd885bfc	-0.066581696
26	0xbd8109d8	-0.06300706
27	0xbd4c7a10	-0.049921095
28	0x3bea782f	0.0071554403
29	0xbe43751e	-0.19087645
30	0x3d15306a	0.036423124
31	0x3d339e1c	0.043851957
32	0xbc663a31	-0.01405196
33	0x3c89f8ad	0.01684221
34	0xbd019686	-0.03163769
35	0x3e2fd622	0.17171529
36	0xbc9609b0	-0.018315166
37	0xbd984723	-0.07435443
38	0x3b065e07	0.0020502822
39	0xbb093bbb	-0.0020940143
40	0x3c9d1009	0.019172685
41	0xbce2136b	-0.02759715
42	0x3ce00f3b	0.027351012
43	0x3d74978c	0.05971484
44	0x3dfd911b	0.12381192
45	0xbb5bb439	-0.003352417
46	0x3c8f92d0	0.01752606
47	0x3d11949c	0.035542116
48	0xbbcd3c76	-0.006263311
49	0x3c279364	0.010228012
50	0x3d6d1fd7	0.057891693
51	0x3d607e4a	0.05480794
52	0x3cac6d0e	0.021048095
53	0x3dac8730	0.084242225
54	0x3c451e20	0.012031108
55	0x3d46270e	0.04837709
56	0x3c7566f6	0.014978161
57	0xbde2e2ba	-0.11078401
58	0xbd269e49	-0.040678296
59	0x3cc9fc03	0.024656301
60	0xbd02bcbc	-0.031918272
61	0xbba41250	-0.005007066
62	0x3d2d8134	0.042359546
63	0x3e38b6d9	0.18038501
