Curie_Weiss/checkpoints/SDE_method_ours_patch_L_8_L_64_seed_42/epoch_75.pt (torch, 40326 bytes, 7 tensors)

weight f4 [64, 1]
0.1327297 0.9199093 -0.6271589 1.172983 -0.21910357 0.20179069 -0.84108907 0.41325146
0.53927535 -0.73362815 0.8691962 0.1871593 1.0935459 0.22375426 0.35608923 -0.5490162
0.9883218 0.14780891 -0.65668684 0.2548983 -0.5245393 -0.117272854 -0.43936607 0.66337097
-0.64330447 -0.54055715 -0.34877977 -0.840994 0.00431717 -0.8338418 1.170771 -0.7574534
0.12136689 0.16641915 -0.32470453 0.61794996 0.15585077 0.7641687 0.10931969 -0.31537318
0.17557819 -0.27117944 0.42085755 1.1050698 0.57805955 -0.43717253 -0.1606698 -0.05575084
0.11036001 -0.60950506 -0.8213943 -0.29485628 -0.67129606 0.8205389 0.28803134 0.41421354
0.3046671 -0.017395973 0.78268546 -0.60840917 0.062963724 -0.6103425 0.308352 -0.3443823
00000000: 4bea 073e 2d7f 6b3f 7c8d 20bf 4f24 963f
00000010: b05c 60be 38a2 4e3e 9d51 57bf b295 d33e
00000020: f30d 0a3f 0ecf 3bbf a483 5e3f b0a6 3f3e
00000030: 50f9 8b3f d61f 653e 5451 b63e 538c 0cbf
00000040: a802 7d3f 385b 173e a11c 28bf 0882 823e
00000050: 3548 06bf c02c f0bd 97f4 e0be aed2 293f
00000060: 9aaf 24bf f461 0abf 4393 b2be 624b 57bf
00000070: 0c77 8d3b a876 55bf d3db 953f 77e8 41bf
00000080: 348f f83d c869 2a3e ac3f a6be f831 1e3f
00000090: 5897 1f3e 8fa0 433f 00e3 df3d 9878 a1be
000000a0: c5ca 333e 08d8 8abe a47a d73e ed72 8d3f
000000b0: b6fb 133f 14d5 dfbe a086 24be fe5a 64bd
000000c0: 6e04 e23d 8608 1cbf e646 52bf 67f7 96be
000000d0: 0fda 2bbf d60e 523f d878 933e cc13 d43e
000000e0: 53fd 9b3e 0082 8ebc 135e 483f b4c0 1bbf
000000f0: 20f3 803d 683f 1cbf 50e0 9d3e e052 b0be

bias f4 [64]
0.07004041 -0.13643202 0.120443314 -0.4083563 -0.596398 -0.596434 0.6343582 0.060893897
0.2886938 -0.82527626 -0.9918761 -0.7823638 -0.37963066 -0.1459126 0.22639935 0.6507809
-0.4197075 -0.6817118 0.35031456 -0.4042045 0.3963744 -0.23730063 0.32943827 -0.776968
-0.6439021 0.28841782 0.06612963 -0.10025036 -0.01427887 0.44557095 -0.49471942 -0.668062
0.75810236 -0.3374325 -0.3545164 -0.9675946 -0.5726702 0.20455243 -0.13199317 -0.725886
-0.07509093 -0.6830815 -0.84839666 -0.46872324 -0.8752121 -0.63673806 0.37838158 -0.0067275646
0.22462086 -0.9326843 -0.8216458 -0.42402896 0.13228062 -0.8799213 -0.43087304 -0.5986686
-0.12663211 -0.3721032 -0.11924891 -0.77994424 -0.68639517 -0.65528876 -0.34229743 -0.7892809
00000000: 5971 8f3d d6b4 0bbe fcaa f63d 1414 d1be
00000010: 8aad 18bf e6af 18bf 4d65 223f e16b 793d
00000020: accf 933e 4e45 53bf 98eb 7dbf fe48 48bf
00000030: f35e c2be 1d6a 15be 3bd5 673e 9499 263f
00000040: e7e3 d6be aa84 2ebf 6e5c b33e e4f3 cebe
00000050: 96f1 ca3e f0fe 72be 22ac a83e 60e7 46bf
00000060: c5d6 24bf 80ab 933e f96e 873d 1050 cdbd
00000070: ecf1 69bc e021 e43e dd4b fdbe 1c06 2bbf
00000080: ff12 423f f4c3 acbe 2c83 b5be 48b4 77bf
00000090: 849a 12bf 3176 513e 3829 07be aad3 39bf
000000a0: 46c9 99bd 6ede 2ebf 8630 59bf 7efc efbe
000000b0: e60d 60bf 4401 23bf 3bbb c13e e772 dcbb
000000c0: 0303 663e 66c4 6ebf 6157 52bf 531a d9be
000000d0: 9274 073e 8642 61bf 649b dcbe 5842 19bf
000000e0: d9ab 01be 5084 bebe c638 f4bd 6daa 47bf
000000f0: 98b7 2fbf 01c1 27bf 9c41 afbe 500e 4abf

weight f4 [64, 64]
0.059479542 -0.08012824 0.06286897 -0.016129902 -0.10584962 0.0865044 -0.07895348 -0.09311175
-0.14874816 -0.12427008 0.03576383 -0.027305484 -0.0043754173 -0.14751025 0.047679737 -0.13646847
-0.07655453 0.026108712 0.019913219 0.10091379 0.069329634 -0.09911527 -0.013114409 -0.053765744
-0.075947575 -0.15651532 0.052104298 -0.1555449 0.021972897 -0.019400494 -0.014111678 -0.13137299
0.06864295 0.0274688 0.016080007 -0.11015685 0.05247356 -0.06423725 -0.057265535 0.10736832
-0.026833095 -0.06915955 -0.063267365 -0.06111909 0.06979516 -0.031941727 -0.11624806 -0.087909065
-0.13855767 0.04457906 0.0329224 -0.16257107 -0.0335255 0.06457397 0.022666171 -0.04451558
0.009925028 0.06568915 -0.008590093 -0.054011784 -0.033100158 -0.04640541 -0.022081763 -0.03725013
0.07990086 0.107424945 -0.012374669 -0.027987108 0.0018240362 -0.0074635297 0.03005141 0.035029203
-0.113532096 -0.04612972 0.10526618 0.048694372 -0.0062171966 -0.07536322 -0.076475635 -0.11197086
-0.040745303 0.042213023 0.079702705 0.057712168 -0.110493004 -0.07517031 -0.019727081 0.12091869
0.018082187 -0.032371342 0.051714405 -0.047610193 -0.08090696 0.091235906 -0.056837723 -0.025058344
-0.12435053 0.08365883 0.09470433 0.045556024 -0.087159276 -0.12336749 -0.10152237 0.09321253
0.06001322 0.10518806 0.065483734 0.03163652 -0.0012240857 -0.095063254 -0.10709652 -0.11691858
0.051170245 -0.061371 -0.025156572 -0.07193816 -0.022777945 -0.08797936 -0.08167696 0.041463852
-0.03714955 0.0771679 -0.040101096 -0.091695905 -0.022054866 -0.060593426 -0.038242698 -0.11899945
0.015645936 -0.140323 0.014008154 0.0013476496 0.08930409 -0.09588151 0.04298246 -0.11332386
-0.0074664415 0.117389336 -0.017628983 -0.00096668303 -0.07176984 -0.15721463 0.0054615075 -0.17384385
0.023420312 0.09352814 0.07472713 -0.029484943 -0.14841321 0.028103784 0.023625221 -0.124413595
-0.032818142 -0.11057565 -0.049038634 -0.060936682 -0.102412984 -0.07516048 -0.1689616 0.10756763
0.051127557 -0.019608632 -0.014235258 -0.05101499 -0.11288285 -0.17623933 0.046457306 -0.06863077
-0.1345316 -0.009752899 -0.041626394 -0.09722831 0.0040163994 -0.026514053 -0.095854975 -0.11269646
-0.1565023 0.1048134 -0.044860594 0.0589598 -0.061210893 0.01015766 0.116537556 0.057590336
-0.16125518 0.04961285 0.064076826 0.0066878255 0.08380309 0.14578074 -0.019153625 0.025944307
-0.08687939 -0.025759637 0.09257297 0.06408073 -0.07909863 -0.100235626 -0.08542046 -0.12335971
-0.09645487 -0.030912176 0.084359646 0.02092278 -0.09507568 -0.10027799 0.06218441 -0.09298016
-0.015390933 0.059963256 -0.05785151 -0.013629988 -0.01088056 -0.029572919 -0.06337902 -0.111429796
-0.101044625 -0.06693271 0.120729715 -0.060376838 -0.083941 0.030299276 0.03445129 0.06848872
0.09501505 0.06960927 -0.12393762 0.0110860765 0.07571913 -0.011553183 -0.0736599 0.11916748
-0.04675348 -0.071168065 -0.11269438 0.0055835396 0.05539164 0.027670354 0.024718717 -0.09479843
-0.116735905 0.0022011697 0.113979265 0.07211517 -0.07277928 -0.016226068 -0.09214795 -0.060302928
0.022637293 0.06806731 0.10354616 -0.11476326 0.0835769 -0.08816151 0.046808407 0.10578066
00000000: d2a0 733d 461a a4bd 72c1 803d db22 84bc
00000010: b0c7 d8bd 3829 b13d 5db2 a1bd 60b1 bebd
00000020: 7051 18be 5081 febd 187d 123d c0af dfbc
00000030: a95f 8fbb ed0c 17be d44b 433d 64be 0bbe
00000040: 9fc8 9cbd f0e1 d53c 0c21 a33c e4ab ce3d
00000050: b2fc 8d3d f2fc cabd d1dd 56bc 7839 5cbd
00000060: 678a 9bbd 8d45 20be 516b 553d 2a47 1fbe
00000070: 8100 b43c c9ed 9ebc ab34 67bc a486 06be
00000080: ad94 8c3d 4006 e13c 38ba 833c ea99 e1bd
00000090: 84ee 563d d28e 83bd 448f 6abd ece3 db3d
000000a0: 14d1 dbbc 86a3 8dbd 5292 81bd 0358 7abd
000000b0: c4f0 8e3d 54d5 02bd 7613 eebd ab09 b4bd
000000c0: 10e2 0dbe 8898 363d a3d9 063d 0879 26be
000000d0: 0952 09bd 5c3f 843d 68ae b93c f855 36bd
000000e0: 969c 223c 0888 863d 76bd 0cbc 763b 5dbd
000000f0: 0894 07bd 9913 3ebd d0e4 b4bc 9893 18bd
00000100: 10a3 a33d 9c01 dc3d 20bf 4abc 3845 e5bc
00000110: 8014 ef3a a090 f4bb 602e f63c c87a 0f3d
00000120: 8483 e8bd 84f2 3cbd cc95 d73d c073 473d
00000130: a0b9 cbbb 0858 9abd 429f 9cbd fa50 e5bd
00000140: 8ce4 26bd 90e7 2c3d 2c3b a33d 9863 6c3d
00000150: 284a e2bd e4f2 99bd b09a a1bc 38a4 f73d
00000160: 1821 943c d097 04bd 7cd2 533d e802 43bd
00000170: 8cb2 a5bd e4d9 ba3d acce 68bd 2847 cdbc
00000180: 7eab febd 5255 ab3d 58f4 c13d f498 3a3d
00000190: 9080 b2bd 18a8 fcbd f6ea cfbd 36e6 be3d
000001a0: 6cd0 753d d66c d73d 561c 863d 4c95 013d
000001b0: 8071 a0ba 86b0 c2bd 6c55 dbbd 0273 efbd
000001c0: e497 513d 2860 7bbd 2815 cebc 5054 93bd
000001d0: d098 babc 862e b4bd 4046 a7bd 00d6 293d
000001e0: 202a 18bd 340a 9e3d 0c41 24bd 10cb bbbd
000001f0: 68ac b4bc d030 78bd 60a4 1cbd fcb5 f3bd
00000200: e82b 803c d5b0 0fbe 7582 653c 9ea3 b03a
00000210: 10e5 b63d 865d c4bd 600e 303d 5716 e8bd
00000220: 0da9 f4bb d269 f03d a86a 90bc 0069 7dba
00000230: 11fc 92bd dffc 20be 72f6 b23b 1f04 32be
00000240: f4db bf3c ae8b bf3d 8a0a 993d 688a f1bc
00000250: a2f9 17be e839 e63c ae89 c13c 8ecc febd
00000260: 516c 06bd 7d75 e2bd bcdc 48bd be98 79bd
00000270: e6bd d1bd bded 99bd 4504 2dbe 6b4c dc3d
00000280: 216b 513d 48a2 a0bc 003b 69bc 18f5 50bd
00000290: 202f e7bd 1578 34be 044a 3e3d 4a8e 8cbd
000002a0: a7c2 09be a0ca 1fbc 7080 2abd a31f c7bd
000002b0: 009c 833b 0034 d9bc 9d4f c4bd 67cd e6bd
000002c0: 2442 20be 68a8 d63d bebf 37bd d57f 713d
000002d0: 46b8 7abd 506c 263c 3eab ee3d d8e3 6b3d
000002e0: 1420 25be d836 4b3d b63a 833d 8c25 db3b
000002f0: f4a0 ab3d 8c47 153e 10e8 9cbc 2889 d43c
00000300: d2ed b1bd e005 d3bc e696 bd3d c23c 833d
00000310: 76fe a1bd 5648 cdbd ecf0 aebd 04a4 fcbd
00000320: 228a c5bd 883b fdbc c0c4 ac3d 4066 ab3c
00000330: 0ab7 c2bd 8c5e cdbd 14b5 7e3d 626c bebd
00000340: 402a 7cbc 089c 753d b4f5 6cbd 5050 5fbc
00000350: 6044 32bc e842 f2bc dccc 81bd 4e35 e4bd
00000360: 7cf0 cebd 0414 89bd 2441 f73d b44d 77bd
00000370: 42e9 abbd 3036 f83c cc1c 0d3d d043 8c3d
00000380: 4097 c23d 4e8f 8e3d 02d3 fdbd 60a2 353c
00000390: a212 9b3d 9049 3dbc 00db 96bd 140e f43d
000003a0: 9480 3fbd 90c0 91bd 50cc e6bd 20f6 b63b
000003b0: 58e2 623d f0ac e23c e87e ca3c ae25 c2bd
000003c0: 3c13 efbd 8041 103b f66d e93d 1eb1 933d
000003d0: 4e0d 95bd 88ec 84bc 10b8 bcbd 3400 77bd
000003e0: d871 b93c e066 8b3d 0210 d43d 0009 ebbd
000003f0: 5e2a ab3d 068e b4bd 2cba 3f3d 88a3 d83d

bias f4 [64]
-0.12936904 -0.09864034 0.03956693 0.013655171 0.04970938 -0.12083937 0.043023888 -0.13473165
0.031001607 -0.0747692 0.0040732175 -0.24539986 -0.093081824 -0.19299832 0.026455184 -0.16282411
0.019783411 -0.0875619 -0.11600421 0.033147514 -0.038658313 -0.1699553 0.067840636 -0.1625636
0.07036009 -0.12459787 0.08294045 -0.022890642 -0.060347904 -0.034261957 -0.06855618 -0.11185166
0.008617593 0.015457976 -0.11357824 0.03301015 -0.037944827 -0.121731386 -0.060371373 0.01672244
-0.12904184 0.0025188732 -0.21307553 -0.2991567 -0.19457857 -0.09936235 0.009961349 -0.021729048
-0.114368275 -0.17701821 -0.12511285 -0.1364312 -0.005240265 -0.12712729 -0.0035430656 0.040568326
-0.031741858 -0.16145438 -0.01419948 -0.09198612 0.063009426 -0.08306614 -0.16406067 0.013741676
00000000: 5179 04be f203 cabd ef10 223d f0b9 5f3c
00000010: 109c 4b3d a27a f7bd d139 303d 18f7 09be
00000020: 15f7 fd3c 9820 99bd a078 853b 1a4a 7bbe
00000030: afa1 bebd 5aa1 45be 8bb8 d83c 5dbb 26be
00000040: d210 a23c a753 b3bd 9e93 edbd b0c5 073d
00000050: 2e58 1ebd c308 2ebe 08f0 8a3d 1377 26be
00000060: f318 903d 2b2d ffbd afdc a93d 2885 bbbc
00000070: 5d2f 77bd 4456 0cbd 2f67 8cbd 7c12 e5bd
00000080: ce30 0d3c 7343 7d3c b59b e8bd a735 073d
00000090: 096c 1bbd 4e4e f9bd f947 77bd 80fd 883c
000000a0: 8b23 04be ae13 253b 7930 5abe 112b 99be
000000b0: 9b3f 47be 7d7e cbbd ed34 233c 1e01 b2bc
000000c0: ea39 eabd 4344 35be 951d 00be 9fb4 0bbe
000000d0: 87b6 abbb a82d 02be c732 68bb f92a 263d
000000e0: c003 02bd 4c54 25be f0a4 68bc 3863 bcbd
000000f0: 160b 813d 951e aabd 85ff 27be c424 613c

weight f4 [64, 64]
0.05607765 0.057944313 -0.0053676306 0.08174674 -0.08215179 -0.025109172 0.019764856 -0.18371686
0.04145649 -0.0020137285 -0.117048234 -0.0663975 0.018655263 0.0028347522 -0.05744904 -0.13743381
-0.04082933 0.044017974 -0.0426756 -0.008794357 0.0064420896 -0.077977754 0.014443717 -0.13060613
-0.007984512 -0.016866654 -0.083957136 -0.09509895 -0.112140805 0.12348493 -0.007836157 -0.05032326
-0.010226725 0.0072300783 0.028288394 0.06898306 -0.10046572 0.114096664 -0.15318918 -0.08367794
0.016852511 0.1424319 0.03771612 -0.12060794 -0.039903134 0.067468934 -0.12990734 -0.10200394
-0.12905416 -0.12837486 -0.061864287 -0.07526662 -0.039007973 0.11167378 0.036364917 -0.057833057
0.07626326 0.07570183 -0.10781562 0.013729804 -0.06900884 0.07900724 -0.22244978 -0.057715397
-0.0013300478 0.05799292 0.062295023 -0.09067437 -0.041879192 0.07373704 -0.007060085 -0.024292983
-0.04334922 -0.060819417 -0.015759498 0.009346306 -0.0008816421 -0.033061147 0.07756978 -0.048589505
0.003017406 -0.03308125 -0.07349186 0.0050983536 -0.11791308 0.079880565 -0.0968546 -0.064849816
0.11596316 -0.09779208 -0.021532942 -0.09876707 0.033358827 -0.010308945 -0.1110612 0.10670554
0.05186835 -0.053591214 -0.09927259 -0.053811163 0.07111856 0.11779075 -0.12383875 -0.08681421
0.17614776 -0.091850325 -0.008553741 0.04816419 0.110486135 0.1808696 -0.020773591 0.041712075
-0.109778926 -0.02432254 0.039307464 -0.041763727 -0.10024539 0.1237184 0.06457937 0.09741841
-0.07079489 0.19256087 -0.11810075 -0.02972795 -0.0360824 0.032053307 -0.054716334 -0.10552569
0.12959455 -0.117315575 -0.1059251 -0.008501023 -0.24366893 -0.11881611 -0.1492334 0.047518812
-0.011973225 -0.03988391 -0.005137354 -0.10895233 -0.11805633 -0.08717239 -0.12092981 0.06600537
-0.0523342 -0.033743024 -0.04782689 -0.03232955 -0.018754274 -0.13841043 0.13022079 -0.045351848
-0.06138571 0.050563034 -0.07347556 -0.0011801273 0.05320607 -0.074014686 0.056842968 0.023731455
-0.08114149 -0.11347889 -0.027945124 0.04002075 0.019088132 -0.021378512 -0.22208524 -0.12358397
0.0037324796 0.058317665 0.069823176 0.11075325 -0.060635135 -0.06824769 -0.03673827 0.0024413168
-0.08972068 0.018325254 -0.0855334 -0.05978606 0.05265493 0.13043985 0.14379758 -0.08902614
-0.070789315 -0.06406079 -0.013868362 0.038505077 -0.087784484 -0.06843255 -0.11570245 -0.015752612
-0.06590224 -0.11641814 0.048635315 0.09268586 -0.24189907 0.012706906 0.05208294 -0.1195713
-0.1560705 0.12216202 -0.0024757683 0.039804757 0.007378071 0.022663817 0.12788875 -0.04721202
-0.08583583 -0.060334418 -0.02566184 0.032458235 -0.118133605 -0.056252822 0.045621984 -0.10922889
-0.09064951 -0.035036407 -0.094057254 0.07416488 -0.06103955 0.01543104 -0.09928137 -0.06258647
-0.00843364 0.030770184 0.017011542 -0.11374797 -0.1309337 -0.13109262 -0.21060441 0.114028126
-0.12813812 -0.11132188 -0.10190046 -0.06279537 -0.003509149 -0.16291127 -0.041501813 0.06157788
-0.040533137 0.07699438 -0.016907943 -0.08303837 -0.05020812 0.06591694 0.08586292 0.119436294
0.035805088 -0.12886493 -0.08371821 0.06541303 -0.09705655 0.09136991 -0.0745976 0.09764694
00000000: aeb1 653d 0457 6d3d f3e2 afbb d66a a73d
00000010: 333f a8bd c0b1 cdbc e8e9 a13c 4620 3cbe
00000020: 48ce 293d c2f8 03bb fcb6 efbd 6afb 87bd
00000030: ecd2 983c 40c7 393b af4f 6bbd 73bb 0cbe
00000040: a83c 27bd 314c 343d 9ccc 2ebd 3516 10bc
00000050: 2a18 d33b cdb2 9fbd 57a5 6c3c 9dbd 05be
00000060: 78d1 02bc f02b 8abc b8f1 abbd 3dc3 c2bd
00000070: 14aa e5bd abe5 fc3d 3a63 00bc c31f 4ebd
00000080: fe8d 27bc 4bea ec3b 10bd e73c fe46 8d3d
00000090: f9c0 cdbd 83ab e93d a0dd 1cbe 575f abbd
000000a0: 470e 8a3c abd9 113e 387c 1a3d 4c01 f7bd
000000b0: 7871 23bd 272d 8a3d 6e06 05be 71e7 d0bd
000000c0: c626 04be b374 03be 6865 7dbd 6325 9abd
000000d0: d3c6 1fbd 39b5 e43d 61f3 143d 5be2 6cbd
000000e0: e92f 9c3d 9009 9b3d 70ce dcbd f9f2 603c
000000f0: 8254 8dbd 8cce a13d e0c9 63be fb66 6cbd
00000100: 0055 aeba fc89 6d3d 1129 7f3d 7cb3 b9bd
00000110: 8489 2bbd 7203 973d 4958 e7bb 1402 c7bc
00000120: f48e 31bd c81d 79bd 101a 81bc 4021 193c
00000130: 001e 67ba 206b 07bd e8dc 9e3d ca05 47bd
00000140: acbf 453b 3480 07bd e682 96bd 1710 a73b
00000150: 6a7c f1bd 6c98 a33d b45b c6bd fbcf 84bd
00000160: 187e ed3d 3747 c8bd da65 b0bc 6446 cabd
00000170: 44a3 083d d9e6 28bc 0e74 e3bd 6f88 da3d
00000180: e873 543d 7682 5bbd 6d4f cbbd 1869 5cbd
00000190: 9ca6 913d 473c f13d 2c9f fdbd a6cb b1bd
000001a0: 1460 343e 061c bcbd fd24 0cbc d047 453d
000001b0: 8e46 e23d e135 393e 612d aabc 48da 2a3d
000001c0: c6d3 e0bd 1040 c7bc dd00 213d 7110 2bbd
000001d0: 744d cdbd 1360 fd3d 3042 843d 4e83 c73d
000001e0: e9fc 90bd ad2e 453e cede f1bd 0888 f3bc
000001f0: 23cb 13bd 544a 033d 3c1e 60bd da1d d8bd
00000200: 6fb4 043e 2643 f0bd 42ef d8bd e047 0bbc
00000210: 5984 79be dc55 f3bd a4d0 18be 16a3 423d
00000220: 582b 44bc 505d 23bd 4057 a8bb 6622 dfbd
00000230: 84c7 f1bd 7087 b2bd 0caa f7bd d32d 873d
00000240: 635c 56bd 2036 0abd 21e6 43bd fd6b 04bd
00000250: 90a2 99bc 77bb 0dbe 9958 053e dcc2 39bd
00000260: 956f 7bbd 2f1b 4f3d 5b7a 96bd 80ae 9aba
00000270: 9cee 593d 0395 97bd 2cd4 683d 7868 c23c
00000280: 822d a6bd 9f67 e8bd 2ced e4bc ccec 233d
00000290: b75e 9c3c fd21 afbc 506a 63be 9819 fdbd
000002a0: 9e9c 743b 81de 6e3d 74ff 8e3d 9ad2 e23d
000002b0: 8c5c 78bd 72c5 8bbd de7a 16bd 80fe 1f3b
000002c0: 7abf b7bd d81e 963c 232c afbd 3ae2 74bd
000002d0: b2ac 573d 0692 053e ac3f 133e 5653 b6bd
000002e0: fdf9 90bd 4e32 83bd 2038 63bc 80b7 1d3d
000002f0: 5ac8 b3bd 5d26 8cbd 68f5 ecbd 9f0b 81bc
00000300: c1f7 86bd a26c eebd d335 473d 16d2 bd3d
00000310: 64b4 77be a030 503c ec54 553d cce1 f4bd
00000320: f2d0 1fbe 1530 fa3d 8040 22bb 500a 233d
00000330: bfc3 f13b 78a9 b93c 45f5 023e 6461 41bd
00000340: b2ca afbd 3921 77bd c738 d2bc edf2 043d
00000350: 08f0 f1bd 5c69 66bd 1ede 3a3d 65b3 dfbd
00000360: 73a6 b9bd 5682 0fbd 17a1 c0bd c2e3 973d
00000370: 9b04 7abd 79d2 7c3c 0854 cbbd 562d 80bd
00000380: 402d 0abc c111 fc3c ca5b 8b3c b2f4 e8bd
00000390: 7c13 06be 253d 06be afa8 57be 9487 e93d
000003a0: a436 03be bafc e3bd 30b1 d0bd dc9a 80bd
000003b0: c0f9 65bb 36d2 26be cefd 29bd 1639 7c3d
000003c0: 1306 26bd 3baf 9d3d 8782 8abc 0510 aabd
000003d0: 08a7 4dbd 76ff 863d e6d8 af3d 049b f43d
000003e0: 5ba8 123d 2bf5 03be 7474 abbd 44f7 853d
000003f0: 96c5 c6bd 2620 bb3d a0c6 98bd 1efb c73d

bias f4 [64]
0.018835023 -0.03164735 0.039492477 -0.012044061 -0.03603271 -0.0033148571 -0.056316834 -0.039598722
-0.0054962956 -0.06488187 -0.056174874 0.08917553 -0.08029265 0.051728982 -0.075298466 -0.026265195
0.19948147 -0.14628898 -0.13486053 -0.05864819 -0.25028634 -0.16440377 -0.05056564 -0.27707413
-0.08570165 -0.14399028 -0.1356731 -0.048158318 0.0068975845 -0.092909634 -0.028507559 -0.05929685
-0.20231324 0.0022450238 -0.09027651 -0.19683093 -0.16586559 -0.060706787 0.024288638 -0.071134344
-0.37960085 -0.19753604 0.0013651095 -0.09015191 -0.12354546 -0.012243135 0.020060368 -0.011163295
-0.113676734 -0.06295121 -0.110548824 -0.040178392 -0.040962156 -0.0783252 -0.063936375 -0.14618354
-0.034579292 -0.36070207 -0.1458013 -0.33706188 0.10907507 -0.25231856 -0.14258596 -0.12293734
00000000: e84b 9a3c a7a0 01bd ddc2 213d 7454 45bc
00000010: 0997 13bd 133e 59bb 7bac 66bd 4532 22bd
00000020: 451a b4bb c9e0 84bd a017 66bd a9a1 b63d
00000030: 7970 a4bd c5e1 533d 1536 9abd 1b2a d7bc
00000040: df44 4c3e c7cc 15be e118 0abe 1639 70bd
00000050: 8825 80be 7659 28be eb1d 4fbd a9dc 8dbe
00000060: 5984 afbd 3072 13be e4ed 0abe a841 45bd
00000070: 2205 e23b 6847 bebd af88 e9bc 41e1 72bd
00000080: 342b 4fbe 4021 133b e4e2 b8bd 0c8e 49be
00000090: abd8 29be aea7 78bd f7f8 c63c e2ae 91bd
000000a0: 0b5b c2be e346 4abe 79ed b23a 91a1 b8bd
000000b0: 6705 fdbd 6e97 48bc a455 a43c 41e6 36bc
000000c0: 59cf e8bd 90ec 80bd 6c67 e2bd 1992 24bd
000000d0: efc7 27bd f668 a0bd 13f1 82bd 23b1 15be
000000e0: 04a3 0dbd f1ad b8be f04c 15be 6093 acbe
000000f0: c062 df3d e62f 81be 0e02 12be 92c6 fbbd

weight f4 [1, 64]
-0.04010344 -0.054880433 0.05047999 0.20840782 0.017789142 -0.0053941784 0.049449377 0.038338963
0.027366756 -0.034991376 -0.07856892 0.043665614 -0.022802338 -0.037208032 -0.08530188 0.017695148
0.12342636 0.03983851 0.03690727 -0.08143972 -0.14394742 0.031158125 -0.024317684 0.1464563
0.033921417 -0.049166787 -0.09094093 -0.049921095 -0.058834236 0.018120602 0.03349342 0.043835532
0.026800128 0.011540198 -0.018753828 0.032647617 -0.018474981 -0.083385 -0.039041493 -0.051991615
0.21725176 -0.0635505 0.051165055 0.0596121 -0.011603928 -0.0042506014 0.0016909594 0.03564688
-0.0779255 -0.08199431 0.1322645 0.054634597 0.020962324 0.084242225 0.012667535 0.04805795
-0.051603176 -0.24282846 -0.0404882 0.2969383 0.03887577 0.026356542 0.049921375 0.032176238
00000000: 8143 24bd 4eca 60bd 1bc4 4e3d dc68 553e
00000010: 89ba 913c a6c1 b0bb 6e8b 4a3d 5109 1d3d
00000020: 3f30 e03c 1e53 0fbd bee8 a0bd b7da 323d
00000030: f8cb babc 7367 18bd c1b2 aebd 6af5 903c
00000040: f6c6 fc3d b52d 233d 142c 173d dec9 a6bd
00000050: f466 13be 533f ff3c e135 c7bc a4f8 153e
00000060: 2ff1 0a3d 1d63 49bd 3d3f babd 107a 4cbd
00000070: 2bfc 70bd a871 943c 6530 093d e38c 333d
00000080: f18b db3c 1913 3d3c a1a1 99bc 82b9 053d
00000090: d858 97bc c1c5 aabd f9e9 1fbd 29f5 54bd
000000a0: 3f77 5e3e c426 82bd 7392 513d d12b 743d
000000b0: 671e 3ebc a148 8bbb 2fa3 dd3a 7602 123d
000000c0: 6897 9fbd a2ec a7bd 5870 073e 87c8 5f3d
000000d0: 2eb9 ab3c 3087 ac3d 7e8b 4f3c 6ad8 443d
000000e0: da5d 53bd 06a8 78be f4d6 25bd 4c08 983e
000000f0: 333c 1f3d ade9 d73c 5b7a 4c3d 3bcb 033d
