Curie_Weiss/checkpoints/SDE_method_naive_patch_L_16_L_64_seed_42/epoch_50.pt (torch, 40326 bytes, 7 tensors)

weight f4 [64, 1]
00000000: dc07 5c3e 05f7 643f c081 9ebe 27ff 923f
00000010: b05c 60be 38a2 4e3e 50b1 44bf 7bfd b83e
00000020: 8d8b a53e 0ecf 3bbf a483 5e3f b0a6 3f3e
00000030: 628b 8e3f 84de 0fbc 4922 fd3d aadb 17bf
00000040: afeb 783f 385b 173e fd7f fabe 0882 823e
00000050: 74f6 e6be c02c f0bd edc3 b2be aed2 293f
00000060: ed09 62bf defe f8be 645f 5cbe f75e 03bf
00000070: 407a 67bd 0f02 7cbf 315c 993f 25c7 73bf
00000080: 7fa1 223f c869 2a3e ac3f a6be f831 1e3f
00000090: 5897 1f3e 1f95 643f 00e3 df3d 9878 a1be
000000a0: 1d36 dd3d 08d8 8abe a47a d73e 2ef3 8d3f
000000b0: b6fb 133f 14d5 dfbe caf7 2fbc 7086 943c
000000c0: ae33 bc3d 8608 1cbf cef4 37bf a88f 97be
000000d0: bd74 28bf d60e 523f d878 933e cc13 d43e
000000e0: 10f8 703e 0082 8ebc f45c 3f3f 1438 33bf
000000f0: 20f3 803d 890f 1dbf 50e0 9d3e e052 b0be
0.21487373 0.8943942 -0.30958366 1.1484116 -0.21910357 0.20179069 -0.7683306 0.3613089
0.3233303 -0.73362815 0.8691962 0.1871593 1.1136286 -0.008781079 0.12360055 -0.59319556
0.97234625 0.14780891 -0.48925772 0.2548983 -0.45109904 -0.117272854 -0.34915105 0.66337097
-0.88296396 -0.48631948 -0.21520764 -0.5131678 -0.05651307 -0.9844064 1.198126 -0.95225745
0.63527673 0.16641915 -0.32470453 0.61794996 0.15585077 0.8929004 0.10931969 -0.31537318
0.10801337 -0.27117944 0.42085755 1.1089838 0.57805955 -0.43717253 -0.01074023 0.018130511
0.091895446 -0.60950506 -0.7185792 -0.2960179 -0.6580313 0.8205389 0.28803134 0.41421354
0.23532128 -0.017395973 0.7475121 -0.70007443 0.062963724 -0.6135183 0.308352 -0.3443823

bias f4 [64]
00000000: 927a 17be b5ee 89be 5daa 353e 213e f6be
00000010: 8aad 18bf e6af 18bf f5f2 243f 29c4 fdbc
00000020: 0696 633e 4e45 53bf 98eb 7dbf fe48 48bf
00000030: 927c dfbe 35e6 fc3d 6205 b23d e575 143f
00000040: 90de d0be aa84 2ebf 2498 d03e e4f3 cebe
00000050: 47d3 bc3e f0fe 72be 09bc 943e 60e7 46bf
00000060: a1ac 34bf 1faf d03e 9b0f d73d 1119 d0be
00000070: 83c5 4b3e 1076 f43e a061 fbbe a85a b7be
00000080: 2b4a ea3e f4c3 acbe 2c83 b5be 48b4 77bf
00000090: 849a 12bf f4ea d33c 3829 07be aad3 39bf
000000a0: 4194 13be 6ede 2ebf 8630 59bf 57e3 edbe
000000b0: e60d 60bf 4401 23bf 7c59 ef3e 7dce a1bc
000000c0: 9afb f3bb 66c4 6ebf 6f44 6cbf 5478 d8be
000000d0: dfb3 263e 8642 61bf 649b dcbe 5842 19bf
000000e0: 134c 09be 5084 bebe 0b91 fdbd 60f4 33bf
000000f0: 98b7 2fbf 33f7 26bf 9c41 afbe 500e 4abf
-0.1479285 -0.26939932 0.1774077 -0.48094276 -0.596398 -0.596434 0.64433223 -0.030977326
0.22225198 -0.82527626 -0.9918761 -0.7823638 -0.43649727 0.12348596 0.08692433 0.5799239
-0.40794802 -0.6817118 0.40741074 -0.4042045 0.36879942 -0.23730063 0.2904971 -0.776968
-0.7057591 0.40758607 0.105010234 -0.40644124 0.19899563 0.47746325 -0.4909792 -0.35811353
0.4575971 -0.3374325 -0.3545164 -0.9675946 -0.5726702 0.02586887 -0.13199317 -0.725886
-0.14412023 -0.6830815 -0.84839666 -0.4646251 -0.8752121 -0.63673806 0.4674796 -0.019751782
-0.0074457647 -0.9326843 -0.9229192 -0.42279303 0.16279553 -0.8799213 -0.43087304 -0.5986686
-0.13407926 -0.3721032 -0.123811804 -0.7029476 -0.68639517 -0.65220946 -0.34229743 -0.7892809

weight f4 [64, 64]
00000000: fb06 743d 5927 a4bd 42c6 803d 614c 86bc
00000010: b0c7 d8bd 3829 b13d f9a4 a1bd 729b bebd
00000020: 1458 18be 5081 febd 187d 123d c0af dfbc
00000030: 9abc d9bb 4d03 17be 3c63 433d 74bd 0bbe
00000040: 638a 9dbd f0e1 d53c 68d7 a43c e4ab ce3d
00000050: ff43 8e3d f2fc cabd 52bb 54bc 7839 5cbd
00000060: dcbd 9cbd 6223 21be d051 4c3d c399 1fbe
00000070: 621b b43c 8f64 a3bc 7a1f 71bc 1c5a 07be
00000080: 7288 8c3d 4006 e13c 38ba 833c ea99 e1bd
00000090: 84ee 563d 8c22 83bd 448f 6abd ece3 db3d
000000a0: cd36 a3bc 86a3 8dbd 5292 81bd 6222 7bbd
000000b0: c4f0 8e3d 54d5 02bd 7a20 eebd 81da b3bd
000000c0: 0bd7 0dbe 8898 363d a0ff 023d 2250 35be
000000d0: 938d 0abd 5c3f 843d 68ae b93c f855 36bd
000000e0: 8229 223c 0888 863d cdf9 0cbc 3fc3 8dbd
000000f0: 0894 07bd 4f08 5ebd d0e4 b4bc 9893 18bd
00000100: 10a3 a33d 9c01 dc3d 20bf 4abc 3845 e5bc
00000110: 8014 ef3a a090 f4bb 602e f63c c87a 0f3d
00000120: 8483 e8bd 84f2 3cbd cc95 d73d c073 473d
00000130: a0b9 cbbb 0858 9abd 429f 9cbd fa50 e5bd
00000140: 8ce4 26bd 90e7 2c3d 2c3b a33d 9863 6c3d
00000150: 284a e2bd e4f2 99bd b09a a1bc 38a4 f73d
00000160: 1821 943c d097 04bd 7cd2 533d e802 43bd
00000170: 8cb2 a5bd e4d9 ba3d acce 68bd 2847 cdbc
00000180: 7eab febd 5255 ab3d 58f4 c13d f498 3a3d
00000190: 9080 b2bd 18a8 fcbd f6ea cfbd 36e6 be3d
000001a0: 6cd0 753d d66c d73d 561c 863d 4c95 013d
000001b0: 8071 a0ba 86b0 c2bd 6c55 dbbd 0273 efbd
000001c0: e497 513d 2860 7bbd 2815 cebc 5054 93bd
000001d0: d098 babc 862e b4bd 4046 a7bd 00d6 293d
000001e0: 202a 18bd 340a 9e3d 0c41 24bd 10cb bbbd
000001f0: 68ac b4bc d030 78bd 60a4 1cbd fcb5 f3bd
00000200: ed68 773c fc7b 10be 435b 5d3c e283 f3ba
00000210: 10e5 b63d 865d c4bd b609 2e3d 3727 e9bd
00000220: 7e68 02bc d269 f03d a86a 90bc 0069 7dba
00000230: 80e3 a7bd 357f 21be 58c2 a13b 0985 32be
00000240: 4543 a13c ae8b bf3d 8506 983d 688a f1bc
00000250: 697b 18be e839 e63c 69a0 bd3c 8ecc febd
00000260: fbba 01bd cf50 e3bd 37d9 4abd f9fc 76bd
00000270: e0c2 d2bd ee07 9bbd c52f 32be f881 df3d
00000280: 9466 4f3d 48a2 a0bc 003b 69bc 18f5 50bd
00000290: 202f e7bd c405 35be 044a 3e3d 4a8e 8cbd
000002a0: 35bb 0abe a0ca 1fbc 7080 2abd 82ad cdbd
000002b0: 009c 833b 0034 d9bc 3f54 c5bd 75d8 e7bd
000002c0: aecb 20be 68a8 d63d 2686 31bd aba1 753d
000002d0: 33a0 7cbd 506c 263c 3eab ee3d d8e3 6b3d
000002e0: 17cd 25be d836 4b3d 7ac0 813d f344 2abb
000002f0: f4a0 ab3d 8291 143e 10e8 9cbc 2889 d43c
00000300: 046e 6fbe 9450 30be edaf 16be 53de a9bd
00000310: 76fe a1bd 5648 cdbd 08c5 a6be 1067 88be
00000320: d382 a2be 883b fdbc c0c4 ac3d 4066 ab3c
00000330: 4cec 77be ebec e2be de91 23be c38b d5be
00000340: c245 26be 089c 753d 1395 98be 5050 5fbc
00000350: 5972 80be e842 f2bc 2f45 9bbe 4e35 e4bd
00000360: 29e2 d0be f739 9dbe 45b0 02be 7d24 bcbe
00000370: 8a11 d9be 0a51 5bbe 83bc e6bd c786 74be
00000380: d9ae 08be 4e8f 8e3d 02d3 fdbd 60a2 353c
00000390: a212 9b3d 5dfb 1ebe 00db 96bd 140e f43d
000003a0: 9480 3fbd 90c0 91bd 50cc e6bd d3d8 10be
000003b0: 58e2 623d f0ac e23c 2a4b a3be ae25 c2bd
000003c0: 0257 8ebe 8041 103b f66d e93d 1eb1 933d
000003d0: 00c8 a4be 88ec 84bc 10b8 bcbd 3400 77bd
000003e0: e03c f8bd e066 8b3d 508f 2cbd 0009 ebbd
000003f0: 5e2a ab3d 068e b4bd 2cba 3f3d 88a3 d83d
0.05957697 -0.080153175 0.06287815 -0.016393842 -0.10584962 0.0865044 -0.07892794 -0.093069926
-0.14877349 -0.12427008 0.03576383 -0.027305484 -0.0066447975 -0.14747353 0.04770206 -0.1364649
-0.07692411 0.026108712 0.020122245 0.10091379 0.06946563 -0.09911527 -0.012984114 -0.053765744
-0.076534 -0.15736154 0.04988271 -0.15585999 0.021985713 -0.019945411 -0.014716977 -0.13217968
0.068619624 0.0274688 0.016080007 -0.11015685 0.05247356 -0.06403074 -0.057265535 0.10736832
-0.019923592 -0.06915955 -0.063267365 -0.061312087 0.06979516 -0.031941727 -0.11627288 -0.08781911
-0.13851564 0.04457906 0.031982064 -0.1770635 -0.033826422 0.06457397 0.022666171 -0.04451558
0.009897592 0.06568915 -0.008604479 -0.06922006 -0.033100158 -0.054207142 -0.022081763 -0.03725013
0.07990086 0.107424945 -0.012374669 -0.027987108 0.0018240362 -0.0074635297 0.03005141 0.035029203
-0.113532096 -0.04612972 0.10526618 0.048694372 -0.0062171966 -0.07536322 -0.076475635 -0.11197086
-0.040745303 0.042213023 0.079702705 0.057712168 -0.110493004 -0.07517031 -0.019727081 0.12091869
0.018082187 -0.032371342 0.051714405 -0.047610193 -0.08090696 0.091235906 -0.056837723 -0.025058344
-0.12435053 0.08365883 0.09470433 0.045556024 -0.087159276 -0.12336749 -0.10152237 0.09321253
0.06001322 0.10518806 0.065483734 0.03163652 -0.0012240857 -0.095063254 -0.10709652 -0.11691858
0.051170245 -0.061371 -0.025156572 -0.07193816 -0.022777945 -0.08797936 -0.08167696 0.041463852
-0.03714955 0.0771679 -0.040101096 -0.091695905 -0.022054866 -0.060593426 -0.038242698 -0.11899945
0.0151007 -0.14109796 0.013510528 -0.0018578733 0.08930409 -0.09588151 0.04248973 -0.11384433
-0.007959483 0.117389336 -0.017628983 -0.00096668303 -0.08197689 -0.15771182 0.0049364977 -0.17433561
0.019685397 0.09352814 0.074231185 -0.029484943 -0.14890827 0.028103784 0.023147779 -0.124413595
-0.03167246 -0.110993974 -0.04952356 -0.060299847 -0.10291076 -0.07569872 -0.17401035 0.109134614
0.050634935 -0.019608632 -0.014235258 -0.05101499 -0.11288285 -0.1767798 0.046457306 -0.06863077
-0.13547976 -0.009752899 -0.041626394 -0.100428596 0.0040163994 -0.026514053 -0.09635209 -0.11320583
-0.15702698 0.1048134 -0.043340825 0.05996863 -0.061676215 0.01015766 0.116537556 0.057590336
-0.16191517 0.04961285 0.0633554 -0.0025981038 0.08380309 0.14508632 -0.019153625 0.025944307
-0.23381811 -0.17218238 -0.14715548 -0.08294358 -0.07909863 -0.100235626 -0.32572198 -0.2664113
-0.31740436 -0.030912176 0.084359646 0.02092278 -0.24211234 -0.4432138 -0.15973613 -0.41708192
-0.16237548 0.059963256 -0.29801235 -0.013629988 -0.2508724 -0.029572919 -0.3032622 -0.111429796
-0.40797547 -0.30708286 -0.12762554 -0.36746588 -0.42396194 -0.21417633 -0.112664245 -0.23879538
-0.13347949 0.06960927 -0.12393762 0.0110860765 0.07571913 -0.15525575 -0.0736599 0.11916748
-0.04675348 -0.071168065 -0.11269438 -0.14145212 0.05539164 0.027670354 -0.31893283 -0.09479843
-0.27800757 0.0022011697 0.113979265 0.07211517 -0.32183838 -0.016226068 -0.09214795 -0.060302928
-0.12120986 0.06806731 -0.04212886 -0.11476326 0.0835769 -0.08816151 0.046808407 0.10578066

bias f4 [64]
00000000: 417d 04be f203 cabd 440a 203d 4aef a8be
00000010: 1a8c a8bc a27a f7bd da74 2f3d cb41 07be
00000020: 1b85 033d e545 99bd 3607 13be 7bea 32be
00000030: 12b0 bebd 6f3e b0be 00f0 d73c f8f0 b83c
00000040: 9e21 a63c 075e b2bd 611d eebd 65ee 0a3d
00000050: 698b 1ebd 0609 2ebe dc09 8b3d e310 a4bd
00000060: 7620 913d 1d81 563d ea95 9f3c 7de2 bbbc
00000070: c689 75bd 7c6c 0ebd 31a6 8bbd 2371 e2bd
00000080: f257 0c3c 91fe 803c 1049 80bc 74cc f03d
00000090: 7618 16bd a639 fcbd 7b00 5e3c 8a36 893c
000000a0: 61d4 03be c3f3 223b 137b 81be 2f96 a6be
000000b0: d0e1 b0bd 87b5 cbbb 029e 5b3d c0c3 b2bc
000000c0: 84f7 e9bd dd52 35be f6d5 00be c3de efbd
000000d0: 623c 863d 78d9 03be 68ff a3bb 3b08 263d
000000e0: 8bba 01bd bb45 24be f0a4 68bc 4e14 c7bd
000000f0: d662 2c3c 1966 aabd 8123 afbd f6b8 ac3d
-0.12938406 -0.09864034 0.03907229 -0.32995063 -0.020574618 -0.12083937 0.042836048 -0.13208692
0.03210936 -0.074840344 -0.1435822 -0.1747226 -0.093109265 -0.34422633 0.026359558 0.02257584
0.020279702 -0.087093405 -0.11626697 0.033918757 -0.03870717 -0.1699563 0.0678899 -0.080110334
0.070862696 0.052369226 0.019480664 -0.022935146 -0.059945844 -0.034771428 -0.06818808 -0.11056735
0.00856589 0.015746387 -0.015659839 0.11757746 -0.03664442 -0.12315683 0.013549919 0.016749639
-0.12873985 0.0024864532 -0.2528921 -0.32536456 -0.0863682 -0.006216708 0.053617485 -0.021821856
-0.11424163 -0.17707391 -0.1258162 -0.1171241 0.06554486 -0.12875926 -0.005004812 0.040535193
-0.031672042 -0.16042225 -0.01419948 -0.0972067 0.010521611 -0.08320255 -0.08551694 0.08433716

weight f4 [64, 64]
00000000: 49cf 713d 0457 6d3d 97cd 76bb 7b25 66be
00000010: c30f b53c c0b1 cdbc 945a e43c 5cbb 3cbe
00000020: e697 2c3d 0d55 22bb 9043 8cbd fb53 4a3e
00000030: 009b 973c fa88 e23a 8ea5 67bd bc3b b0bd
00000040: 8af0 13bd 2847 343d b392 26bd 2094 03bc
00000050: 7a70 c43b b3a9 98bd d6b8 803c 018e aabd
00000060: 2a89 c1bb cf03 353c 41d8 a4bd c445 c4bd
00000070: 10d7 e5bd 5ed0 053e 7d79 aebb ee53 4dbd
00000080: 30e8 39bc bbb7 4d3c 5e59 ea3d fe46 8d3d
00000090: 5fad c4bd f95b 003e ed95 17be d4c7 a5bd
000000a0: 4447 b23c 380b 173e 387c 1a3d 4c01 f7bd
000000b0: 7871 23bd 0658 8c3d 5246 58bd 9765 cfbd
000000c0: 694b f8bd abe5 03be 4aa1 63bd f957 cd3c
000000d0: a3b4 8b3b 6adc ed3d feee 143d 9569 6dbd
000000e0: d324 a93d 2950 a73d 70ce dcbd ad89 613c
000000f0: 99c2 3abd 7746 ab3d 6395 88be 0e35 a83c
00000100: 0055 aeba fc89 6d3d 881a 803d 7cb3 b9bd
00000110: e7f4 0a3d 7203 973d bd02 1abc edd7 cabc
00000120: 9d3a 1bbd c81d 79bd 101a 81bc 3010 8c3e
00000130: 001e 67ba 206b 07bd e8dc 9e3d 27f3 b93c
00000140: a848 4e3b 3480 07bd e682 96bd 8d5f f23b
00000150: 6a7c f1bd 9d35 a53d b45b c6bd 407d b9bc
00000160: bc03 f43d 3544 2bbd 1016 61bc 6446 cabd
00000170: 44a3 083d ec77 e9bc 5697 e6bd 105d df3d
00000180: e873 543d 2bbd 59bd 40cd debb 1869 5cbd
00000190: 7598 883d d3ad f73d 2a5f c7bd a6cb b1bd
000001a0: 2e5c 313e ce9c b7bd 74d6 2fbd 72fd 1e3e
000001b0: 8e46 e23d 4d98 393e 8344 443d 48da 2a3d
000001c0: c6d3 e0bd 1040 c7bc 6749 223d c9bc 8d3b
000001d0: c822 8ebd ecd7 f33d 3042 843d 4e83 c73d
000001e0: 1616 92bd 63af 453e cede f1bd b694 0c3c
000001f0: 4267 b63d 544a 033d d70e 8dbd 214c 06bd
00000200: 9c4d 053e 2643 f0bd 1823 d4bd 6887 3ebe
00000210: a3c5 a7bc dc55 f3bd 2e2e 1bbe 8986 413d
00000220: 58ea 1bbc 505d 23bd cf16 e73d 4d6d 183e
00000230: 84c7 f1bd b1bb c2be 0caa f7bd e12a 763e
00000240: 3451 51bd 2036 0abd 8aab 3fbd e419 04bd
00000250: 90a2 99bc 5bad 0dbe a754 033e 53ff 5e3b
00000260: 37c6 71bd 62dc be3d c493 91bd 80ae 9aba
00000270: 9cee 593d 9d99 9bbd a618 593d 0501 c23c
00000280: 822d a6bd 3f84 e4bd 12a5 fdbd ccec 233d
00000290: b0f5 873c ea4b babc 1132 5fbe 9819 fdbd
000002a0: 1b5a 013b 00ac 6e3d 74ff 8e3d ecc7 223e
000002b0: 8c5c 78bd d975 8dbd 0ba9 873c 80fe 1f3b
000002c0: 7abf b7bd d81e 963c 5fd3 adbd c0b5 a13d
000002d0: 720c 4f3d c054 033e b929 143e 5653 b6bd
000002e0: 4022 91bd 6969 7abd 2038 63bc b2f2 153d
000002f0: 2984 a9bd 414e 8abd a659 b0bd ea00 fa3c
00000300: 1c3f 87bd a26c eebd 70b5 473d 16d2 bd3d
00000310: 9a6d 18be a030 503c d19b 583d 4cd1 f2bd
00000320: 5eaa 1fbe 8e1e 043e 8040 22bb 500a 233d
00000330: 6325 003c 78a9 b93c 9ca7 033e 64f1 48bd
00000340: 4268 afbd e470 77bd f1ac d3bc 6f83 053d
00000350: 08f0 f1bd b5e1 65bd a0df 3a3d e286 e0bd
00000360: d88e b9bd 9573 a6bd 270f c1bd 111d 993d
00000370: 9777 79bd 7989 833c 4fcc cdbd 40fa 7fbd
00000380: 402d 0abc 061f fe3c a404 9fbd b2f4 e8bd
00000390: 4c72 06be 414c 08be f52a cfbd e2f6 eb3d
000003a0: 6120 03be 0e15 e3bd 30b1 d0bd dc9a 80bd
000003b0: c0f9 65bb 5523 27be fac2 29bd 8ced 7d3d
000003c0: 8489 22bd dc64 e43d 5d69 88bc 3f78 3e3d
000003d0: 7def 4cbd d54e 863d 5f3b ab3d 86de f43d
000003e0: a739 143d f2c3 03be 7474 abbd dce8 853d
000003f0: 635d a83a c8d8 bb3d df68 d63c 4ee2 85bd
0.059035573 0.057944313 -0.0037659162 -0.22475235 0.022102242 -0.025109172 0.027875222 -0.18430847
0.04213705 -0.0024769932 -0.06848824 0.19758599 0.018506527 0.0017283254 -0.05655437 -0.086051434
-0.036118068 0.044013172 -0.040667247 -0.008030921 0.0059948536 -0.074542426 0.015713137 -0.08327866
-0.005906244 0.011048271 -0.0804906 -0.09583619 -0.112226605 0.13067767 -0.005324541 -0.05012887
-0.011346862 0.012556012 0.11442827 0.06898306 -0.096033804 0.12535085 -0.14803286 -0.08094755
0.021762498 0.14750373 0.03771612 -0.12060794 -0.039903134 0.06852727 -0.052801438 -0.101267986
-0.12123758 -0.1288058 -0.05557374 0.025066363 0.004263477 0.11614306 0.036360733 -0.05796202
0.08258977 0.08169586 -0.10781562 0.013765735 -0.04559574 0.083630495 -0.26676473 0.020533111
-0.0013300478 0.05799292 0.062550604 -0.09067437 0.033924963 0.07373704 -0.009400067 -0.024761165
-0.037897695 -0.060819417 -0.015759498 0.273561 -0.0008816421 -0.033061147 0.07756978 0.022698952
0.0031476412 -0.03308125 -0.07349186 0.0073966444 -0.11791308 0.080668665 -0.0968546 -0.022642732
0.11914775 -0.041813094 -0.01373817 -0.09876707 0.033358827 -0.028499566 -0.11259334 0.10906422
0.05186835 -0.05315892 -0.00679937 -0.053811163 0.06669704 0.12093701 -0.09734948 -0.08681421
0.1732032 -0.08965455 -0.042929128 0.15526369 0.110486135 0.18124504 0.0479169 0.041712075
-0.109778926 -0.02432254 0.039620783 0.0043254835 -0.06940228 0.11906418 0.06457937 0.09741841
-0.07133119 0.19305186 -0.11810075 0.008580377 0.089064136 0.032053307 -0.06887596 -0.032787446
0.13017887 -0.117315575 -0.10358256 -0.18606341 -0.020479983 -0.11881611 -0.15154335 0.047247443
-0.009516321 -0.03988391 0.11283647 0.14885445 -0.11805633 -0.38033822 -0.12092981 0.24039795
-0.051102832 -0.033743024 -0.04679445 -0.032251254 -0.018754274 -0.13835661 0.12825261 0.0034026697
-0.059026923 0.093193784 -0.07108262 -0.0011801273 0.05320607 -0.07597659 0.053002022 0.023682127
-0.08114149 -0.111580364 -0.12385 0.04002075 0.016596645 -0.022741277 -0.21796443 -0.12358397
0.0019737545 0.0582695 0.069823176 0.15896577 -0.060635135 -0.06907243 0.016560098 0.0024413168
-0.08972068 0.018325254 -0.084875815 0.07895994 0.05054898 0.12825298 0.14469041 -0.08902614
-0.07086611 -0.061135683 -0.013868362 0.036608405 -0.08277161 -0.06753207 -0.08610849 0.030518014
-0.06603834 -0.11641814 0.048757017 0.09268586 -0.1488556 0.012706906 0.052882973 -0.118563265
-0.15592334 0.1290228 -0.0024757683 0.039804757 0.007821414 0.022663817 0.12856907 -0.049058333
-0.085648075 -0.060410395 -0.0258393 0.032596048 -0.118133605 -0.056123454 0.04562342 -0.10963227
-0.090604484 -0.08127514 -0.09426718 0.07476247 -0.060905065 0.016056763 -0.100487344 -0.062494516
-0.00843364 0.031020653 -0.07764557 -0.11374797 -0.13129538 -0.13310339 -0.10115615 0.115216985
-0.1280532 -0.11088 -0.10190046 -0.06279537 -0.003509149 -0.16322072 -0.04144571 0.06199412
-0.039681926 0.1115205 -0.016651804 0.046501394 -0.05003308 0.06558005 0.083609335 0.119565055
0.036187794 -0.12867716 -0.08371821 0.06538555 0.0012845214 0.09172207 0.026173053 -0.06537305

bias f4 [64]
00000000: dad6 373d 10c0 043c 652d 1c3e b533 643b
00000010: 626a 8bbe d8b1 eebb f2c4 35bd 0de1 57bd
00000020: 21ee 51bb bde2 84bd a6e5 66bd 4bc9 6bbd
00000030: bf2a a5bd 5f26 bc3c c973 99bd 55c8 03bd
00000040: 9ce3 aebc ac13 8ebd afce eebd 355f 80bd
00000050: 1b1f 0dbe d00d e1be 9026 413d 91c6 1cbe
00000060: 6503 dabb ab8b 1cbe 58eb 70bd a841 45bd
00000070: bb20 6c3c 6847 bebd 3eb6 dfbc f1b9 6dbd
00000080: 3da0 49be 67ff 093d 3fa5 84bd 6539 b6be
00000090: 5ecd 29be cc89 94bd 9ae0 eaba 9abb c5bc
000000a0: 22df d2bd abe9 38be ad4d 85bd 0ab4 b7bd
000000b0: 03af 6bbe c5ae 48bc 30e9 6b3d 673b 00bb
000000c0: acf7 d4bd e535 87bd 4b10 9bbd 39c3 25bd
000000d0: 76c6 25bd f668 a0bd a525 c8bc 5c97 14be
000000e0: 0d39 53bc ca25 8abe 343c 15be a81f b4bd
000000f0: aec9 a1bc d33c 00be 7479 0dbe ab34 3fbe
0.044882633 0.008102432 0.15251692 0.003482086 -0.272296 -0.007284384 -0.044377275 -0.05270486
-0.0032032805 -0.064885594 -0.056371354 -0.057565015 -0.08064794 0.022967516 -0.074927874 -0.032173473
-0.021348767 -0.06937346 -0.116605155 -0.06268159 -0.13781397 -0.4395585 0.047155917 -0.15310122
-0.0066532367 -0.15287654 -0.05881819 -0.048158318 0.0144121 -0.092909634 -0.02730858 -0.058038656
-0.19690032 0.033690836 -0.06476831 -0.35590664 -0.16582248 -0.07252845 -0.001791972 -0.024137307
-0.102964655 -0.18057887 -0.06508956 -0.089698866 -0.2301598 -0.0122487 0.05759543 -0.0019566657
-0.10398802 -0.066020764 -0.07571467 -0.040469382 -0.04047247 -0.0783252 -0.024432013 -0.14510864
-0.01289202 -0.26981956 -0.14573747 -0.087951005 -0.019749489 -0.12523203 -0.13815862 -0.18672435

weight f4 [1, 64]
00000000: fe67 b0bb 5ee7 bab9 23ee fc3d 1e77 de3c
00000010: 3fcc 17bc 4f30 d0bb 195d d53c fcc3 023d
00000020: 0d2c d03c 944e 0fbd ccae aa3b 2577 2a3d
00000030: 34ed c0bc fd3e a23c bfef 88bb 22ce 0ebd
00000040: eba7 fe3c db97 58bd ed9a 90bd 60e5 013c
00000050: 0aca 743c 9aca 7ebe ce47 5e3c 625a 06bc
00000060: 16ac afbc fe8e 65bd 092e 203d 107a 4cbd
00000070: 6c66 38bd a871 943c cc61 123d 1b9e 333d
00000080: b95a 073d 7bec ae3a be13 b73d d52c 443e
00000090: 4eb4 98bc a3f1 c8bd 6099 00bd 67b1 08ba
000000a0: 0d95 a83b cf57 40bd 3212 a13d 7fbf 743d
000000b0: 85bc df3d 92e8 8abb 4604 2a3c 8c33 123d
000000c0: d1ab ae3c ef06 703c 866f 673c 877e 603d
000000d0: 5ae2 ab3c 3087 ac3d 8ece 1bbd d7cc 483d
000000e0: b0a6 17bb ccf6 15be 5c72 25bd 6cf8 1f3d
000000f0: 247d 1f3d e1f2 a8bb aac4 513d 5b37 38bc
-0.0053834906 -0.00035649067 0.123501085 0.027156409 -0.009265005 -0.006353415 0.026045369 0.031925187
0.02541163 -0.034987047 0.0052088257 0.04161753 -0.023550607 0.019805426 -0.0041789706 -0.034864552
0.031085929 -0.052879196 -0.070608 0.007928222 0.014940748 -0.24881974 0.013566924 -0.00820026
-0.021444362 -0.05604457 0.039106403 -0.049921095 -0.045019552 0.018120602 0.035737798 0.043851953
0.033045504 0.0013345623 0.089393124 0.19157727 -0.018640663 -0.098117135 -0.03139627 -0.0005214423
0.0051447214 -0.04695874 0.078647986 0.059752937 0.10924629 -0.0042391503 0.010376995 0.03569369
0.021322163 0.014650091 0.01412571 0.054808166 0.020981956 0.084242225 -0.038038783 0.049023475
-0.0023140125 -0.14644927 -0.040392265 0.039055273 0.038937703 -0.0051559065 0.051212944 -0.0112436665
