Curie_Weiss/checkpoints/SDE_method_ours_patch_L_32_L_64_seed_42/epoch_75.pt (torch, 40326 bytes, 7 tensors)

weight f4 [64, 1]
000000 d7 24 fa 3e 81 23 62 3f 32 bd c3 be 1e ba 8d 3f
       0.48856232 0.88335425 -0.38230282 1.1072423
000010 b0 5c 60 be 38 a2 4e 3e 15 c6 3b bf 54 3f f9 3e
       -0.21910357 0.20179069 -0.73349124 0.48681128
000020 0d 3a 58 3f 0e cf 3b bf a4 83 5e 3f b0 a6 3f 3e
       0.8446358 -0.73362815 0.8691962 0.1871593
000030 4e cc 82 3f d4 92 85 3e 4c ba c4 3e c3 63 97 be
       1.0218599 0.26088583 0.38423383 -0.295683
000040 ca a5 62 3f 38 5b 17 3e c3 09 13 bf 08 82 82 3e
       0.88534224 0.14780891 -0.5743677 0.2548983
000050 cd 90 ee be c0 2c f0 bd 4f 14 c6 be ae d2 29 3f
       -0.4659485 -0.117272854 -0.3868737 0.66337097
000060 a3 6b 38 bf 70 e8 01 bf 0a be 3f be 8b 94 f1 be
       -0.7203924 -0.50745296 -0.18724838 -0.47183642
000070 dd d8 32 bb 22 f2 60 bf 8f 3b 81 3f 2e 80 58 bf
       -0.0027289905 -0.87869465 1.0096301 -0.84570587
000080 c7 5f 3e 3f c8 69 2a 3e ac 3f a6 be f8 31 1e 3f
       0.74364895 0.16641915 -0.32470453 0.61794996
000090 58 97 1f 3e d8 5c 5a 3f 00 e3 df 3d 98 78 a1 be
       0.15585077 0.8529792 0.10931969 -0.31537318
0000a0 68 41 bc 3d 08 d8 8a be a4 7a d7 3e 3c 3c 86 3f
       0.09192163 -0.27117944 0.42085755 1.0487132
0000b0 b6 fb 13 3f 14 d5 df be 9a a8 04 3f ae e7 e6 3c
       0.57805955 -0.43717253 0.51819766 0.028186645
0000c0 24 7a 99 3e 86 08 1c bf 52 54 4c bf 0c e3 95 be
       0.29975998 -0.60950506 -0.7981616 -0.29274786
0000d0 ca a7 30 bf d6 0e 52 3f d8 78 93 3e cc 13 d4 3e
       -0.69006026 0.8205389 0.28803134 0.41421354
0000e0 75 dc 9f 3e 00 82 8e bc 84 ad 45 3f e9 37 2e bf
       0.31222883 -0.017395973 0.7721789 -0.6805406
0000f0 20 f3 80 3d 8e e0 1c bf 50 e0 9d 3e e0 52 b0 be
       0.062963724 -0.61280143 0.308352 -0.3443823

bias f4 [64]
000000 4d b1 07 be 40 a8 72 be 7b d8 17 3f 5c ba df be
       -0.13251229 -0.23696995 0.593147 -0.43696868
000010 8a ad 18 bf e6 af 18 bf d9 fd 27 3f 77 88 27 3e
       -0.596398 -0.596434 0.65621716 0.16360651
000020 12 31 37 3f 4e 45 53 bf 98 eb 7d bf fe 48 48 bf
       0.7155925 -0.82527626 -0.9918761 -0.7823638
000030 5f c6 db be 89 fc 8d 3e 22 4c 8e 3e 6e c6 3b 3f
       -0.42924783 0.27731732 0.2779246 0.73349655
000040 60 3c e5 be aa 84 2e bf 64 94 d6 3e e4 f3 ce be
       -0.44772625 -0.6817118 0.41910088 -0.4042045
000050 8a be 12 3f f0 fe 72 be 3f 24 17 3e 60 e7 46 bf
       0.5732199 -0.23730063 0.1475992 -0.776968
000060 d2 0e 2e bf cf d1 9b 3e c4 1a d7 3d 1c 13 d4 be
       -0.67991364 0.3043351 0.10503152 -0.4142083
000070 72 28 cc 3e 8e 16 fc 3e f6 db 26 bf 2a 91 00 bf
       0.39874607 0.49235958 -0.65179384 -0.502215
000080 bc f2 46 3f f4 c3 ac be 2c 83 b5 be 48 b4 77 bf
       0.77714133 -0.3374325 -0.3545164 -0.9675946
000090 84 9a 12 bf 35 0d f5 3d 38 29 07 be aa d3 39 bf
       -0.5726702 0.1196541 -0.13199317 -0.725886
0000a0 80 2a 27 be 6e de 2e bf 86 30 59 bf 64 38 e1 be
       -0.16324806 -0.6830815 -0.84839666 -0.43988335
0000b0 e6 0d 60 bf 44 01 23 bf 2f 56 09 3f 79 69 81 bc
       -0.8752121 -0.63673806 0.5364713 -0.015797364
0000c0 e0 9b 5d 3e 66 c4 6e bf 41 da 58 bf 8f 1d da be
       0.21641493 -0.9326843 -0.8470803 -0.42600676
0000d0 0d 79 cb 3d 86 42 61 bf 64 9b dc be 58 42 19 bf
       0.09935198 -0.8799213 -0.43087304 -0.5986686
0000e0 77 ad c0 bd 50 84 be be 77 70 36 be 41 46 36 bf
       -0.09408086 -0.3721032 -0.1781634 -0.7120095
0000f0 98 b7 2f bf 57 21 27 bf 9c 41 af be 50 0e 4a bf
       -0.68639517 -0.6528525 -0.34229743 -0.7892809

weight f4 [64, 64]
000000 d3 1e 74 3d b3 26 a4 bd 80 84 81 3d c9 30 86 bc
       0.05959971 -0.08015194 0.063241005 -0.016380684
000010 b0 c7 d8 bd 38 29 b1 3d ec b3 a0 bd 8b 80 be bd
       -0.10584962 0.0865044 -0.078468174 -0.093018614
000020 38 38 18 be 50 81 fe bd 18 7d 12 3d c0 af df bc
       -0.14865196 -0.12427008 0.03576383 -0.027305484
000030 22 15 d6 bb cf cb 16 be b2 ae 43 3d 84 65 0b be
       -0.006533281 -0.14726184 0.047774024 -0.13612944
000040 9a 80 9d bd f0 e1 d5 3c 46 bb a9 3c e4 ab ce 3d
       -0.076905444 0.026108712 0.020719182 0.10091379
000050 16 66 8f 3d f2 fc ca bd 39 03 4c bc 78 39 5c bd
       0.07001893 -0.09911527 -0.01245194 -0.053765744
000060 2b d0 95 bd 7c ff 1f be 96 54 50 3d 14 97 1c be
       -0.073150955 -0.15624803 0.050861917 -0.15292007
000070 6e 30 b6 3c 3b af 9a bc 12 9e 70 bc 6e 5c 04 be
       0.02223989 -0.018882385 -0.014686124 -0.12925884
000080 ab cd 8c 3d 40 06 e1 3c 38 ba 83 3c ea 99 e1 bd
       0.068751656 0.0274688 0.016080007 -0.11015685
000090 84 ee 56 3d 61 1f 83 bd 44 8f 6a bd ec e3 db 3d
       0.05247356 -0.064024694 -0.057265535 0.10736832
0000a0 fc e6 b6 bc 86 a3 8d bd 52 92 81 bd 5c 18 7b bd
       -0.022326939 -0.06915955 -0.063267365 -0.061302528
0000b0 c4 f0 8e 3d 54 d5 02 bd 65 ca ed bd 91 a2 b3 bd
       0.06979516 -0.031941727 -0.11610869 -0.087712415
0000c0 86 c8 0d be 88 98 36 3d c1 ff 0e 3d 71 f7 28 be
       -0.13846025 0.04457906 0.034911875 -0.16500641
0000d0 53 e1 00 bd 5c 3f 84 3d 68 ae b9 3c f8 55 36 bd
       -0.031464886 0.06457397 0.022666171 -0.04451558
0000e0 35 2f 22 3c 08 88 86 3d c8 f6 0c bc 03 02 5c bd
       0.00989895 0.06568915 -0.008603759 -0.053712856
0000f0 08 94 07 bd eb bd 4e bd d0 e4 b4 bc 98 93 18 bd
       -0.033100158 -0.05047409 -0.022081763 -0.03725013
000100 10 a3 a3 3d 9c 01 dc 3d 20 bf 4a bc 38 45 e5 bc
       0.07990086 0.107424945 -0.012374669 -0.027987108
000110 80 14 ef 3a a0 90 f4 bb 60 2e f6 3c c8 7a 0f 3d
       0.0018240362 -0.0074635297 0.03005141 0.035029203
000120 84 83 e8 bd 84 f2 3c bd cc 95 d7 3d c0 73 47 3d
       -0.113532096 -0.04612972 0.10526618 0.048694372
000130 a0 b9 cb bb 08 58 9a bd 42 9f 9c bd fa 50 e5 bd
       -0.0062171966 -0.07536322 -0.076475635 -0.11197086
000140 8c e4 26 bd 90 e7 2c 3d 2c 3b a3 3d 98 63 6c 3d
       -0.040745303 0.042213023 0.079702705 0.057712168
000150 28 4a e2 bd e4 f2 99 bd b0 9a a1 bc 38 a4 f7 3d
       -0.110493004 -0.07517031 -0.019727081 0.12091869
000160 18 21 94 3c d0 97 04 bd 7c d2 53 3d e8 02 43 bd
       0.018082187 -0.032371342 0.051714405 -0.047610193
000170 8c b2 a5 bd e4 d9 ba 3d ac ce 68 bd 28 47 cd bc
       -0.08090696 0.091235906 -0.056837723 -0.025058344
000180 7e ab fe bd 52 55 ab 3d 58 f4 c1 3d f4 98 3a 3d
       -0.12435053 0.08365883 0.09470433 0.045556024
000190 90 80 b2 bd 18 a8 fc bd f6 ea cf bd 36 e6 be 3d
       -0.087159276 -0.12336749 -0.10152237 0.09321253
0001a0 6c d0 75 3d d6 6c d7 3d 56 1c 86 3d 4c 95 01 3d
       0.06001322 0.10518806 0.065483734 0.03163652
0001b0 80 71 a0 ba 86 b0 c2 bd 6c 55 db bd 02 73 ef bd
       -0.0012240857 -0.095063254 -0.10709652 -0.11691858
0001c0 e4 97 51 3d 28 60 7b bd 28 15 ce bc 50 54 93 bd
       0.051170245 -0.061371 -0.025156572 -0.07193816
0001d0 d0 98 ba bc 86 2e b4 bd 40 46 a7 bd 00 d6 29 3d
       -0.022777945 -0.08797936 -0.08167696 0.041463852
0001e0 20 2a 18 bd 34 0a 9e 3d 0c 41 24 bd 10 cb bb bd
       -0.03714955 0.0771679 -0.040101096 -0.091695905
0001f0 68 ac b4 bc d0 30 78 bd 60 a4 1c bd fc b5 f3 bd
       -0.022054866 -0.060593426 -0.038242698 -0.11899945
000200 82 f5 36 3c ec 81 14 be d1 15 3a 3c 72 37 60 ba
       0.011166932 -0.14502686 0.0113577405 -0.0008553184
000210 10 e5 b6 3d 86 5d c4 bd 9b a7 27 3d 05 0f f1 bd
       0.08930409 -0.09588151 0.040931325 -0.11770443
000220 9c 7e 3c bc d2 69 f0 3d a8 6a 90 bc 00 69 7d ba
       -0.011504795 0.117389336 -0.017628983 -0.00096668303
000230 43 94 9e bd e9 c1 24 be 85 0c 6e 3a 59 ee 34 be
       -0.077431224 -0.16089596 0.0009080845 -0.17669047
000240 5b 8d ad 3c ae 8b bf 3d 49 f0 96 3d 68 8a f1 bc
       0.021185568 0.09352814 0.073700495 -0.029484943
000250 d2 8a 19 be e8 39 e6 3c 2f f0 af 3c 8e cc fe bd
       -0.14994362 0.028103784 0.021476833 -0.124413595
000260 11 fd b5 bc 6b c5 dd bd 63 5b 45 bd a6 37 52 bd
       -0.022215398 -0.1082867 -0.048182856 -0.0513226
000270 54 84 d8 bd 2f 8f 96 bd 93 af 2e be 02 bc f1 3d
       -0.105721146 -0.07351529 -0.17059164 0.11803438
000280 27 1b 41 3d 48 a2 a0 bc 00 3b 69 bc 18 f5 50 bd
       0.047145035 -0.019608632 -0.014235258 -0.05101499
000290 20 2f e7 bd dd 27 39 be 04 4a 3e 3d 4a 8e 8c bd
       -0.11288285 -0.18081613 0.046457306 -0.06863077
0002a0 43 57 0e be a0 ca 1f bc 70 80 2a bd c3 9e cd bd
       -0.13900475 -0.009752899 -0.041626394 -0.10040047
0002b0 00 9c 83 3b 00 34 d9 bc 98 12 cc bd 6c e8 ee bd
       0.0040163994 -0.026514053 -0.09964484 -0.11665425
0002c0 ae c1 24 be 68 a8 d6 3d ca af 0c bd 4a 6f 90 3d
       -0.16089508 0.1048134 -0.034347333 0.07052477
0002d0 d2 28 5c bd 50 6c 26 3c 3e ab ee 3d d8 e3 6b 3d
       -0.053749867 0.01015766 0.116537556 0.057590336
0002e0 13 d8 29 be d8 36 4b 3d cb ad 72 3d 8c 96 54 3c
       -0.16586332 0.04961285 0.059247773 0.012975346
0002f0 f4 a0 ab 3d 99 9c 1d 3e 10 e8 9c bc 28 89 d4 3c
       0.08380309 0.15391769 -0.019153625 0.025944307
000300 d2 ed b1 bd e0 05 d3 bc e6 96 bd 3d c2 3c 83 3d
       -0.08687939 -0.025759637 0.09257297 0.06408073
000310 76 fe a1 bd 56 48 cd bd ec f0 ae bd 04 a4 fc bd
       -0.07909863 -0.100235626 -0.08542046 -0.12335971
000320 22 8a c5 bd 88 3b fd bc c0 c4 ac 3d 40 66 ab 3c
       -0.09645487 -0.030912176 0.084359646 0.02092278
000330 0a b7 c2 bd 8c 5e cd bd 14 b5 7e 3d 62 6c be bd
       -0.09507568 -0.10027799 0.06218441 -0.09298016
000340 40 2a 7c bc 08 9c 75 3d b4 f5 6c bd 50 50 5f bc
       -0.015390933 0.059963256 -0.05785151 -0.013629988
000350 60 44 32 bc e8 42 f2 bc dc cc 81 bd 4e 35 e4 bd
       -0.01088056 -0.029572919 -0.06337902 -0.111429796
000360 7c f0 ce bd 04 14 89 bd 24 41 f7 3d b4 4d 77 bd
       -0.101044625 -0.06693271 0.120729715 -0.060376838
000370 42 e9 ab bd 30 36 f8 3c cc 1c 0d 3d d0 43 8c 3d
       -0.083941 0.030299276 0.03445129 0.06848872
000380 40 97 c2 3d 4e 8f 8e 3d 02 d3 fd bd 60 a2 35 3c
       0.09501505 0.06960927 -0.12393762 0.0110860765
000390 a2 12 9b 3d 90 49 3d bc 00 db 96 bd 14 0e f4 3d
       0.07571913 -0.011553183 -0.0736599 0.11916748
0003a0 94 80 3f bd 90 c0 91 bd 50 cc e6 bd 20 f6 b6 3b
       -0.04675348 -0.071168065 -0.11269438 0.0055835396
0003b0 58 e2 62 3d f0 ac e2 3c e8 7e ca 3c ae 25 c2 bd
       0.05539164 0.027670354 0.024718717 -0.09479843
0003c0 3c 13 ef bd 80 41 10 3b f6 6d e9 3d 1e b1 93 3d
       -0.116735905 0.0022011697 0.113979265 0.07211517
0003d0 4e 0d 95 bd 88 ec 84 bc 10 b8 bc bd 34 00 77 bd
       -0.07277928 -0.016226068 -0.09214795 -0.060302928
0003e0 d8 71 b9 3c e0 66 8b 3d 02 10 d4 3d 00 09 eb bd
       0.022637293 0.06806731 0.10354616 -0.11476326
0003f0 5e 2a ab 3d 06 8e b4 bd 2c ba 3f 3d 88 a3 d8 3d
       0.0835769 -0.08816151 0.046808407 0.10578066

bias f4 [64]
000000 50 31 04 be f2 03 ca bd f3 2e 15 3d f0 b9 5f 3c
       -0.12909436 -0.09864034 0.036421727 0.013655171
000010 e2 9d 87 bb a2 7a f7 bd 87 b2 f6 3c a2 46 03 be
       -0.004138694 -0.12083937 0.030114425 -0.12819913
000020 3c 3b 0a 3d 28 44 99 bd df cf 88 be b4 65 7b 3d
       0.033747897 -0.07483703 -0.26721093 0.06137629
000030 5f af be bd b8 a3 0f bd f5 95 d2 3c 80 83 f4 bd
       -0.09310793 -0.035068244 0.02570627 -0.11939144
000040 16 dc a9 3c 87 bd b4 bd 79 b4 ee bd 37 7a 1a 3d
       0.020734828 -0.08825212 -0.11655516 0.03771421
000050 04 89 1e bd e5 5f 34 be 8a eb 90 3d d7 04 37 be
       -0.038704887 -0.17614706 0.070761755 -0.1787294
000060 01 fd 8e 3d 2a 26 c2 bd 37 c7 a5 3d 25 de bb bc
       0.069818504 -0.094799355 0.08094638 -0.022933075
000070 9e e2 78 bd fc 1f 13 bd 50 5a 90 bd c1 29 dc bd
       -0.060762994 -0.035919175 -0.07048476 -0.107501514
000080 c9 61 0c 3c 83 f3 6e 3c 80 15 89 be fe 7e 32 3e
       0.008568236 0.014584425 -0.26774216 0.17431256
000090 48 4f 32 bd e1 71 fe bd 2c 51 8d bd 39 d0 87 3c
       -0.04353264 -0.124240644 -0.06900248 0.01657878
0000a0 e7 fb 0c be 24 11 13 3c 40 ad f8 bd d4 3f e4 bd
       -0.13767968 0.008976255 -0.1214242 -0.11144987
0000b0 d0 e1 b0 bd ff 83 a9 bc 06 3c 16 3d a3 68 b7 bc
       -0.0863682 -0.020692823 0.036678337 -0.022388762
0000c0 90 5d eb bd 30 52 35 be 01 3a 01 be 78 c5 e4 bd
       -0.11492455 -0.17707133 -0.12619783 -0.11170477
0000d0 b8 4e 35 3c 19 09 02 be 82 2e cb bb d7 09 26 3d
       0.011066131 -0.12698783 -0.0062006125 0.040536728
0000e0 7e 0a 03 bd e9 d1 2d be f0 a4 68 bc f0 40 bd bd
       -0.031992428 -0.16974606 -0.01419948 -0.092409015
0000f0 18 d4 d5 3c 97 91 aa bd d5 87 97 bd e5 cf 33 3d
       0.02610211 -0.0832855 -0.07398955 0.043899436

weight f4 [64, 64]
000000 7d 36 6e 3d 04 57 6d 3d 8b 82 99 bb d6 6a a7 3d
       0.058157433 0.057944313 -0.0046847514 0.08174674
000010 75 91 5f bd c0 b1 cd bc ec 41 8e 3c 7e bf 3b be
       -0.054582078 -0.025109172 0.017365418 -0.18334767
000020 09 a5 29 3d 9b e9 20 bb fc b6 ef bd 6a fb 87 bd
       0.041417155 -0.0024553302 -0.117048234 -0.0663975
000030 92 a9 97 3c 40 c7 39 3b 88 fc 67 bd 62 a9 01 be
       0.018513475 0.0028347522 -0.056637317 -0.1266227
000040 b0 ed 10 bd 0b fb 33 3d 89 be 31 bd 6b 0d 00 bc
       -0.035382926 0.043940585 -0.0433946 -0.007815699
000050 c1 20 c5 3b 2d 4e 93 bd d6 a6 71 3c b1 0c 25 3c
       0.0060158675 -0.07192645 0.014749249 0.010073827
000060 a5 ae dd bb 2b f3 29 bc 47 ea a2 bd 2e 34 c4 bd
       -0.006765204 -0.010372917 -0.07954841 -0.09580265
000070 92 dd e5 bd e0 98 07 3e ef 71 12 bc 46 b5 4f bd
       -0.11223902 0.13241911 -0.008938297 -0.050709985
000080 4e 05 39 bc 04 21 46 3c 5e 59 ea 3d 20 9d f1 bd
       -0.011292769 0.0120928325 0.11442827 -0.11797547
000090 09 e6 d9 bd a8 b8 fa 3d 0c 50 00 be f0 37 a2 bd
       -0.10639579 0.12242252 -0.12530535 -0.079208255
0000a0 a7 ad a5 3c f2 80 17 3e 38 7c 1a 3d 4c 01 f7 bd
       0.020224405 0.14795282 0.03771612 -0.12060794
0000b0 78 71 23 bd ae 4e a9 3c 49 42 00 be 32 e0 d2 bd
       -0.039903134 0.0206674 -0.12525286 -0.10296668
0000c0 64 b1 f3 bd 6a e0 03 be 19 cb 55 bd 35 f7 6f bd
       -0.11899069 -0.12878576 -0.052195642 -0.058585364
0000d0 3e c8 20 bd 15 ce e9 3d 4b 31 0a 3d 6a 63 6d bd
       -0.039253466 0.1141626 0.033738416 -0.057956137
0000e0 d2 ab aa 3d 7e df ae 3d 70 ce dc bd c5 a2 42 3c
       0.083335534 0.085387215 -0.10781562 0.011879628
0000f0 7b 6c 96 bd 42 d7 a8 3d 15 6a ff bd c9 f6 58 bd
       -0.0734491 0.08244182 -0.124714054 -0.052969728
000100 00 55 ae ba fc 89 6d 3d e5 57 79 3c 7c b3 b9 bd
       -0.0013300478 0.05799292 0.01521871 -0.09067437
000110 2f be 72 bd 72 03 97 3d 51 a6 36 bc 9c 51 da bc
       -0.059263404 0.07373704 -0.011148051 -0.026650243
000120 84 4a 6c bd c8 1d 79 bd 10 1a 81 bc 40 21 19 3c
       -0.05768825 -0.060819417 -0.015759498 0.009346306
000130 00 1e 67 ba 20 6b 07 bd e8 dc 9e 3d 86 a2 0d bd
       -0.0008816421 -0.033061147 0.07756978 -0.034578823
000140 b0 ff 2b bc 34 80 07 bd e6 82 96 bd 13 9d f0 39
       -0.010497972 -0.03308125 -0.07349186 0.00045893397
000150 6a 7c f1 bd f9 2a 94 3d b4 5b c6 bd 59 1e e5 3c
       -0.11791308 0.07234759 -0.0968546 0.027968572
000160 3a 94 bd 3d 14 84 14 be 7f 16 18 bd 64 46 ca bd
       0.092567876 -0.14503509 -0.03713083 -0.09876707
000170 44 a3 08 3d 0a 64 bc bc 05 5c ef bd d0 67 cd 3d
       0.033358827 -0.022996921 -0.11687473 0.10029566
000180 e8 73 54 3d d8 0d 92 bd 40 cd de bb 18 69 5c bd
       0.05186835 -0.07131547 -0.00679937 -0.053811163
000190 48 23 46 3d 82 58 ea 3d 2d dd 0a be a6 cb b1 bd
       0.04837349 0.11442663 -0.13560934 -0.08681421
0001a0 1a cb 27 3e 64 26 e7 bd 74 d6 2f bd d0 47 45 3d
       0.16386071 -0.11286619 -0.042929128 0.04816419
0001b0 8e 46 e2 3d 30 d5 19 3b 69 da 60 bd 48 da 2a 3d
       0.110486135 0.0023473017 -0.054895792 0.041712075
0001c0 c6 d3 e0 bd 10 40 c7 bc c9 e6 df 3c fe fb 9e bd
       -0.109778926 -0.02432254 0.027331727 -0.077629074
0001d0 b2 07 bf bd 72 80 d2 3d 30 42 84 3d 4e 83 c7 3d
       -0.0932764 0.10278405 0.06457937 0.09741841
0001e0 08 f0 93 bd d5 4f 38 3e ce de f1 bd 6c 16 11 bd
       -0.07223517 0.17999204 -0.11810075 -0.035421774
0001f0 4e 80 51 3d 54 4a 03 3d fa 63 14 3b cb 28 2c be
       0.05114775 0.032053307 0.0022642598 -0.16812436
000200 bf 6f 06 3e 26 43 f0 bd 73 a5 94 bc e0 47 0b bc
       0.13128565 -0.117315575 -0.018145299 -0.008501023
000210 16 95 ef bd dc 55 f3 bd 58 8d 32 bd a0 11 02 3e
       -0.11698358 -0.11881611 -0.043591827 0.12702036
000220 67 8c bc 3d 50 5d 23 bd 9c 5c bf 3b 66 22 df bd
       0.09206467 -0.03988391 0.0058398973 -0.10895233
000230 84 c7 f1 bd 70 87 b2 bd 0c aa f7 bd 1b 14 f7 3d
       -0.11805633 -0.08717239 -0.12092981 0.12064382
000240 79 ca d0 3c 20 36 0a bd 8f 78 50 bd 74 18 6a 3d
       0.025487171 -0.033743024 -0.050896224 0.057152227
000250 90 a2 99 bc 40 5c 5a bd 31 cc 28 3e 04 eb 06 3e
       -0.018754274 -0.053310633 0.16484143 0.13175589
000260 2b eb a0 ba c2 f6 c9 3d 9a 84 7f ba 80 ae 9a ba
       -0.0012277117 0.098615184 -0.0009747237 -0.0011801273
000270 9c ee 59 3d 8c 5c 93 bd fd f1 5a 3d fc d1 76 3d
       0.05320607 -0.07195386 0.053453434 0.06025885
000280 82 2d a6 bd ef 9c 0c bc 70 a5 55 be d2 79 8e 3e
       -0.08114149 -0.008582338 -0.2086389 0.27827317
000290 fc 5a 96 3b 0e 04 a8 bc 4d 60 04 be 98 19 fd bd
       0.004588483 -0.020509746 -0.12927361 -0.12358397
0002a0 88 01 b1 3b 10 33 84 3d 74 ff 8e 3d b0 a2 54 3c
       0.005401794 0.06455052 0.069823176 0.012978241
0002b0 8c 5c 78 bd d2 28 e9 bd 0c a9 69 3b 80 fe 1f 3b
       -0.060635135 -0.11384739 0.0035653738 0.0024413168
0002c0 7a bf b7 bd d8 1e 96 3c c1 e1 49 bc 22 93 f7 bc
       -0.08972068 0.018325254 -0.01232189 -0.030221526
0002d0 1e 25 b0 3d c9 18 03 3e f5 d0 13 3e 56 53 b6 bd
       0.086008295 0.12802424 0.1443518 -0.08902614
0002e0 f4 12 91 bd 5b 35 99 bb 20 38 63 bc 88 c3 12 3d
       -0.07083693 -0.00467555 -0.013868362 0.035831004
0002f0 5a 5a 33 bd ae 5d 8a bd f4 78 d7 bd d1 e6 e5 3c
       -0.043787338 -0.06756149 -0.10521117 0.028064163
000300 df f3 86 bd a2 6c ee bd c8 5f 49 3d 16 d2 bd 3d
       -0.065894835 -0.11641814 0.04916361 0.09268586
000310 34 95 17 be a0 30 50 3c 6e db 57 3d 2c 3d f2 bd
       -0.1480301 0.012706906 0.0526995 -0.11828074
000320 7d 33 1f be b1 b6 03 3e 80 40 22 bb 50 0a 23 3d
       -0.15546985 0.1286266 -0.0024757683 0.039804757
000330 8d 92 ff 3b 78 a9 b9 3c eb 80 04 3e e0 1a 33 bd
       0.0077994526 0.022663817 0.12939803 -0.043726802
000340 ac 6e ae bd 64 9b 76 bd 20 d6 b2 bc 2f fa 06 3d
       -0.08517203 -0.060206786 -0.021830618 0.032953437
000350 08 f0 f1 bd af b4 64 bd cc ae 3b 3d f4 ec de bd
       -0.118133605 -0.055836376 0.045820996 -0.10885039
000360 7f 99 b8 bd bc 16 a5 bd 81 41 bf bd df 0e 99 3d
       -0.09013652 -0.08060977 -0.09338666 0.074735396
000370 22 46 79 bd 70 e8 86 3c be bf cf bd 2f 55 7f bd
       -0.0608579 0.016468257 -0.10143994 -0.062337097
000380 40 2d 0a bc 6b b2 02 3d a4 04 9f bd b2 f4 e8 bd
       -0.00843364 0.031908434 -0.07764557 -0.11374797
000390 15 81 05 be b1 ab 07 be 49 36 cd bd 36 15 ed 3d
       -0.13037522 -0.13249089 -0.1002012 0.11576311
0003a0 d9 4c 01 be 5b cb e1 bd 30 b1 d0 bd dc 9a 80 bd
       -0.12626971 -0.11025115 -0.10190046 -0.06279537
0003b0 c0 f9 65 bb c4 fa 1f be 20 8c 26 bd 14 65 86 3d
       -0.003509149 -0.15623003 -0.040660977 0.06562248
0003c0 be 43 1f bd c8 6b da 3d b7 d4 83 bc 2f 0f 44 3d
       -0.038882963 0.10665089 -0.016092641 0.047866043
0003d0 31 42 4a bd 91 35 87 3d 35 34 b9 3d 79 db f4 3d
       -0.04937953 0.06602014 0.09043161 0.119559236
0003e0 ca 48 17 3d 2b 2b 03 be 74 74 ab bd e4 ce 92 3d
       0.03693465 -0.12809436 -0.08371821 0.071683675
0003f0 1d d0 fa 3a 1b f2 bf 3d ca 0e df 3c 1a c5 84 bd
       0.0019135509 0.0937235 0.027228732 -0.06482907

bias f4 [64]
000000 b9 41 ee 3c 01 5e 8f bd ff 17 13 3e 3d ff 91 3b
       0.029084073 -0.07000352 0.14364623 0.0044554756
000010 08 6e 20 bd 6e b3 06 bd ff fd 45 be 08 2e 22 be
       -0.039167434 -0.03288596 -0.19335173 -0.15837872
000020 66 3b 4d 3e a8 e2 84 bd 11 0c af bd 3c a8 8e bd
       0.2004219 -0.06488544 -0.08547223 -0.06965682
000030 7e 24 a5 bd a7 ef 71 3c b4 27 5c bd 14 89 0f 3d
       -0.08063601 0.01476661 -0.0537488 0.035042837
000040 9a bf ab bc 40 3e 4f be cb 8d e7 bd 8d d0 a1 bd
       -0.020965386 -0.2023859 -0.11306342 -0.07901106
000050 53 a1 f2 be 38 25 21 be 3b 4b d3 bc 35 3a 1c be
       -0.47388706 -0.15736854 -0.025792709 -0.15256579
000060 88 43 18 be 47 4d 21 be d1 fa 08 bd 82 90 45 be
       -0.14869511 -0.15752135 -0.033442322 -0.19293407
000070 38 b8 80 3b 8f 68 43 be e3 63 ad bc a0 f2 dc 3d
       0.0039282106 -0.19082855 -0.021165794 0.107884645
000080 da 97 f3 bd fe f6 1a 3d a4 8e d2 bd 0c ee 89 bd
       -0.11894198 0.037833206 -0.10281113 -0.06734857
000090 33 6e 29 be 9f b6 26 3c ae 35 08 3c 31 f7 83 bd
       -0.16545944 0.010175376 0.0083135795 -0.064436324
0000a0 f6 3b e3 bd 80 e5 4e be 28 02 aa 3b 7e 04 b5 bd
       -0.11095421 -0.20204735 0.0051882453 -0.088387474
0000b0 85 d0 fa bd 78 f3 e4 bd 92 7d 4b 3d 2e 72 82 bd
       -0.12246803 -0.111792505 0.0496803 -0.06369434
0000c0 d1 0b c5 bd a9 4e ea bd 0c 8d e2 bd 9a b5 25 bd
       -0.096213944 -0.114407845 -0.11062059 -0.040456392
0000d0 75 82 c0 bd f6 68 a0 bd a2 bc 8c bd db 86 e4 be
       -0.09399883 -0.0783252 -0.06871916 -0.44634137
0000e0 1d 8d a7 bc 20 95 b0 bd f3 45 e1 be e6 0b bb bd
       -0.02045303 -0.08622193 -0.4399868 -0.09133129
0000f0 b9 97 84 3b 8c ff 1c be c1 0f cc bd 1d 87 c6 bd
       0.004046407 -0.15331858 -0.09963942 -0.096937396

weight f4 [1, 64]
000000 ee cb f0 bc 89 e5 97 bd 49 13 e7 3d b2 61 e0 3c
       -0.029394116 -0.07416827 0.11282975 0.027390335
000010 07 bd a4 3c 9a f0 b3 3c 67 4d a7 bd 75 d0 b4 bd
       0.020109667 0.021965314 -0.0816906 -0.088288225
000020 65 e3 99 3d cc 4e 0f bd 49 38 72 bd 7e de 03 bd
       0.07514075 -0.034987256 -0.05913571 -0.032194607
000030 03 b8 c0 bc 31 c7 55 bc ed 2e 57 bd 3f 27 66 ba
       -0.023525244 -0.013047979 -0.052534986 -0.0008779652
000040 7b c6 01 3d f0 b7 4e bd 7c e9 b3 bc c3 7d 92 bd
       0.031683426 -0.050468385 -0.02196192 -0.071528934
000050 64 50 8a 3e 0d 91 38 3d ae 27 7d 3b 80 ca b8 bb
       0.27014458 0.045060206 0.0038628387 -0.0056393743
000060 94 b5 66 3d ed 37 89 bd 0c ed c8 bc 5a 8f b5 3d
       0.05632551 -0.0670012 -0.024527095 0.08865233
000070 5a 04 7c bd df 18 a3 bd 5e 3d 15 3d a3 6f 64 3d
       -0.061527587 -0.07963728 0.036435477 0.055770528
000080 ea 7c f0 3d 3b f2 45 ba ab de 3c bb 7d 8c a3 bd
       0.117425755 -0.0007551049 -0.0028819244 -0.079857804
000090 30 8d 96 bc 79 57 35 bd fd 36 f6 bc c4 8c 0c 3b
       -0.01837787 -0.044272874 -0.030055517 0.0021446208
0000a0 bd 62 9a bd 17 01 8d bd 2c bb 0d 3d 7c a3 74 3d
       -0.07538364 -0.068849735 0.03460233 0.059726223
0000b0 3f 14 12 bc dc 2a 6f bd 4c a3 4c 3c a8 05 28 3b
       -0.00891596 -0.058390483 0.012490105 0.0025638137
0000c0 07 f2 4b bd 3e 59 b5 bd 97 e6 2c 3c e2 76 60 3d
       -0.049791362 -0.08854912 0.010553024 0.054800875
0000d0 ec e7 88 3c 30 87 ac 3d b4 96 70 3b 06 d7 ee 3c
       0.016712151 0.084242225 0.003671092 0.029155266
0000e0 00 de 27 bd 80 6d 10 3d 67 7b 1e bd 7b e9 fe 3c
       -0.0409832 0.035260677 -0.038691904 0.031117192
0000f0 3f ee 39 bd 3e 62 a0 3b 36 87 5a 3d ad 90 0b bc
       -0.045393225 0.004894524 0.053351603 -0.00851838
