Curie_Weiss/checkpoints/SDE_method_ours_patch_L_32_L_64_seed_42/model.pt (torch, 39836 bytes, 7 tensors)

weight f4 [64, 1]
00000000: 3301 fa3e 37cc 623f 3f1d c4be bd06 8e3f
00000010: b05c 60be 38a2 4e3e cfdc 3bbf a4ce f83e
00000020: f80a 583f 0ecf 3bbf a483 5e3f b0a6 3f3e
00000030: de3d 833f 89cc 853e 2818 c43e a8c5 98be
00000040: 75ee 623f 385b 173e a02f 13bf 0882 823e
00000050: 4411 efbe c02c f0bd 8fac c0be aed2 293f
00000060: c99c 38bf 744f 02bf de87 3dbe 3763 f2be
00000070: d96e 08bb a564 61bf a252 813f efde 58bf
00000080: b8c0 3e3f c869 2a3e ac3f a6be f831 1e3f
00000090: 5897 1f3e df14 5a3f 00e3 df3d 9878 a1be
000000a0: 6841 bc3d 08d8 8abe a47a d73e e389 863f
000000b0: b6fb 133f 14d5 dfbe f055 043f b7c2 e43c
000000c0: af82 973e 8608 1cbf 5254 4cbf 0ce3 95be
000000d0: 2d82 30bf d60e 523f d878 933e cc13 d43e
000000e0: a046 a13e 0082 8ebc 95f4 453f e937 2ebf
000000f0: 20f3 803d 8ee0 1cbf 50e0 9d3e e052 b0be
0.4882904 0.8859286 -0.38303563 1.1095806 -0.21910357 0.20179069 -0.733838 0.48595154
0.84391737 -0.73362815 0.8691962 0.1871593 1.0253255 0.2613261 0.3829968 -0.298383
0.88645107 0.14780891 -0.57494545 0.2548983 -0.4669286 -0.117272854 -0.37631652 0.66337097
-0.72114235 -0.50902486 -0.1850886 -0.4734132 -0.0020818023 -0.88044196 1.0103343 -0.8471517
0.74512815 0.16641915 -0.32470453 0.61794996 0.15585077 0.85188097 0.10931969 -0.31537318
0.09192163 -0.27117944 0.42085755 1.051083 0.57805955 -0.43717253 0.5169363 0.027924879
0.2959189 -0.60950506 -0.7981616 -0.29274786 -0.6894863 0.8205389 0.28803134 0.41421354
0.31499195 -0.017395973 0.7732633 -0.6805406 0.062963724 -0.61280143 0.308352 -0.3443823

bias f4 [64]
00000000: 06e2 09be 2157 73be d6a1 163f 08e2 dfbe
00000010: 8aad 18bf e6af 18bf 6943 273f 825f 273e
00000020: 1c6c 363f 4e45 53bf 98eb 7dbf fe48 48bf
00000030: 209f dbbe 49cd 8b3e 1fdd 8d3e e148 3b3f
00000040: 22ec e5be aa84 2ebf 59ca d53e e4f3 cebe
00000050: f8c9 113f f0fe 72be 05db 153e 60e7 46bf
00000060: 157f 30bf 40e5 9a3e 7b69 d33d c25f d6be
00000070: 2393 ca3e ec04 fb3e a92d 27bf 0b0c 00bf
00000080: 8936 463f f4c3 acbe 2c83 b5be 48b4 77bf
00000090: 849a 12bf 0939 f63d 3829 07be aad3 39bf
000000a0: 802a 27be 6ede 2ebf 8630 59bf aa44 e1be
000000b0: e60d 60bf 4401 23bf a17a 073f 8882 84bc
000000c0: f4ce 593e 66c4 6ebf 41da 58bf 8f1d dabe
000000d0: 4cb1 c43d 8642 61bf 649b dcbe 5842 19bf
000000e0: 2f9a c2bd 5084 bebe 1c06 37be 4146 36bf
000000f0: 98b7 2fbf 5721 27bf 9c41 afbe 500e 4abf
-0.13465127 -0.23763706 0.5884069 -0.43727136 -0.596398 -0.596434 0.65337235 0.16345027
0.7125871 -0.82527626 -0.9918761 -0.7823638 -0.4289484 0.27305058 0.27707765 0.7315808
-0.44906718 -0.6817118 0.41755942 -0.4042045 0.56948805 -0.23730063 0.1463433 -0.776968
-0.6894391 0.3025303 0.10322853 -0.41869932 0.3956538 0.49027193 -0.65304047 -0.50018376
0.77426964 -0.3374325 -0.3545164 -0.9675946 -0.5726702 0.12022597 -0.13199317 -0.725886
-0.16324806 -0.6830815 -0.84839666 -0.439977 -0.8752121 -0.63673806 0.5292149 -0.016175523
0.21270353 -0.9326843 -0.8470803 -0.42600676 0.09604129 -0.8799213 -0.43087304 -0.5986686
-0.095020644 -0.3721032 -0.17873424 -0.7120095 -0.68639517 -0.6528525 -0.34229743 -0.7892809

weight f4 [64, 64]
00000000: d31e 743d b326 a4bd 8084 813d c930 86bc
00000010: b0c7 d8bd 3829 b13d ecb3 a0bd 8b80 bebd
00000020: 3838 18be 5081 febd 187d 123d c0af dfbc
00000030: 2215 d6bb cfcb 16be b2ae 433d 8465 0bbe
00000040: 9a80 9dbd f0e1 d53c 46bb a93c e4ab ce3d
00000050: 1666 8f3d f2fc cabd 3903 4cbc 7839 5cbd
00000060: 2bd0 95bd 7cff 1fbe 9654 503d 1497 1cbe
00000070: 6e30 b63c 3baf 9abc 129e 70bc 6e5c 04be
00000080: abcd 8c3d 4006 e13c 38ba 833c ea99 e1bd
00000090: 84ee 563d 611f 83bd 448f 6abd ece3 db3d
000000a0: fce6 b6bc 86a3 8dbd 5292 81bd 5c18 7bbd
000000b0: c4f0 8e3d 54d5 02bd 65ca edbd 91a2 b3bd
000000c0: 86c8 0dbe 8898 363d c1ff 0e3d 71f7 28be
000000d0: 53e1 00bd 5c3f 843d 68ae b93c f855 36bd
000000e0: 352f 223c 0888 863d c8f6 0cbc 0302 5cbd
000000f0: 0894 07bd ebbd 4ebd d0e4 b4bc 9893 18bd
00000100: 10a3 a33d 9c01 dc3d 20bf 4abc 3845 e5bc
00000110: 8014 ef3a a090 f4bb 602e f63c c87a 0f3d
00000120: 8483 e8bd 84f2 3cbd cc95 d73d c073 473d
00000130: a0b9 cbbb 0858 9abd 429f 9cbd fa50 e5bd
00000140: 8ce4 26bd 90e7 2c3d 2c3b a33d 9863 6c3d
00000150: 284a e2bd e4f2 99bd b09a a1bc 38a4 f73d
00000160: 1821 943c d097 04bd 7cd2 533d e802 43bd
00000170: 8cb2 a5bd e4d9 ba3d acce 68bd 2847 cdbc
00000180: 7eab febd 5255 ab3d 58f4 c13d f498 3a3d
00000190: 9080 b2bd 18a8 fcbd f6ea cfbd 36e6 be3d
000001a0: 6cd0 753d d66c d73d 561c 863d 4c95 013d
000001b0: 8071 a0ba 86b0 c2bd 6c55 dbbd 0273 efbd
000001c0: e497 513d 2860 7bbd 2815 cebc 5054 93bd
000001d0: d098 babc 862e b4bd 4046 a7bd 00d6 293d
000001e0: 202a 18bd 340a 9e3d 0c41 24bd 10cb bbbd
000001f0: 68ac b4bc d030 78bd 60a4 1cbd fcb5 f3bd
00000200: 82f5 363c ec81 14be d115 3a3c 7237 60ba
00000210: 10e5 b63d 865d c4bd 9ba7 273d 050f f1bd
00000220: 9c7e 3cbc d269 f03d a86a 90bc 0069 7dba
00000230: 4394 9ebd e9c1 24be 850c 6e3a 59ee 34be
00000240: 5b8d ad3c ae8b bf3d 49f0 963d 688a f1bc
00000250: d28a 19be e839 e63c 2ff0 af3c 8ecc febd
00000260: 11fd b5bc 6bc5 ddbd 635b 45bd a637 52bd
00000270: 5484 d8bd 2f8f 96bd 93af 2ebe 02bc f13d
00000280: 271b 413d 48a2 a0bc 003b 69bc 18f5 50bd
00000290: 202f e7bd dd27 39be 044a 3e3d 4a8e 8cbd
000002a0: 4357 0ebe a0ca 1fbc 7080 2abd c39e cdbd
000002b0: 009c 833b 0034 d9bc 9812 ccbd 6ce8 eebd
000002c0: aec1 24be 68a8 d63d caaf 0cbd 4a6f 903d
000002d0: d228 5cbd 506c 263c 3eab ee3d d8e3 6b3d
000002e0: 13d8 29be d836 4b3d cbad 723d 8c96 543c
000002f0: f4a0 ab3d 999c 1d3e 10e8 9cbc 2889 d43c
00000300: d2ed b1bd e005 d3bc e696 bd3d c23c 833d
00000310: 76fe a1bd 5648 cdbd ecf0 aebd 04a4 fcbd
00000320: 228a c5bd 883b fdbc c0c4 ac3d 4066 ab3c
00000330: 0ab7 c2bd 8c5e cdbd 14b5 7e3d 626c bebd
00000340: 402a 7cbc 089c 753d b4f5 6cbd 5050 5fbc
00000350: 6044 32bc e842 f2bc dccc 81bd 4e35 e4bd
00000360: 7cf0 cebd 0414 89bd 2441 f73d b44d 77bd
00000370: 42e9 abbd 3036 f83c cc1c 0d3d d043 8c3d
00000380: 4097 c23d 4e8f 8e3d 02d3 fdbd 60a2 353c
00000390: a212 9b3d 9049 3dbc 00db 96bd 140e f43d
000003a0: 9480 3fbd 90c0 91bd 50cc e6bd 20f6 b63b
000003b0: 58e2 623d f0ac e23c e87e ca3c ae25 c2bd
000003c0: 3c13 efbd 8041 103b f66d e93d 1eb1 933d
000003d0: 4e0d 95bd 88ec 84bc 10b8 bcbd 3400 77bd
000003e0: d871 b93c e066 8b3d 0210 d43d 0009 ebbd
000003f0: 5e2a ab3d 068e b4bd 2cba 3f3d 88a3 d83d
0.05959971 -0.08015194 0.063241005 -0.016380684 -0.10584962 0.0865044 -0.078468174 -0.093018614
-0.14865196 -0.12427008 0.03576383 -0.027305484 -0.006533281 -0.14726184 0.047774024 -0.13612944
-0.076905444 0.026108712 0.020719182 0.10091379 0.07001893 -0.09911527 -0.01245194 -0.053765744
-0.073150955 -0.15624803 0.050861917 -0.15292007 0.02223989 -0.018882385 -0.014686124 -0.12925884
0.068751656 0.0274688 0.016080007 -0.11015685 0.05247356 -0.064024694 -0.057265535 0.10736832
-0.022326939 -0.06915955 -0.063267365 -0.061302528 0.06979516 -0.031941727 -0.11610869 -0.087712415
-0.13846025 0.04457906 0.034911875 -0.16500641 -0.031464886 0.06457397 0.022666171 -0.04451558
0.00989895 0.06568915 -0.008603759 -0.053712856 -0.033100158 -0.05047409 -0.022081763 -0.03725013
0.07990086 0.107424945 -0.012374669 -0.027987108 0.0018240362 -0.0074635297 0.03005141 0.035029203
-0.113532096 -0.04612972 0.10526618 0.048694372 -0.0062171966 -0.07536322 -0.076475635 -0.11197086
-0.040745303 0.042213023 0.079702705 0.057712168 -0.110493004 -0.07517031 -0.019727081 0.12091869
0.018082187 -0.032371342 0.051714405 -0.047610193 -0.08090696 0.091235906 -0.056837723 -0.025058344
-0.12435053 0.08365883 0.09470433 0.045556024 -0.087159276 -0.12336749 -0.10152237 0.09321253
0.06001322 0.10518806 0.065483734 0.03163652 -0.0012240857 -0.095063254 -0.10709652 -0.11691858
0.051170245 -0.061371 -0.025156572 -0.07193816 -0.022777945 -0.08797936 -0.08167696 0.041463852
-0.03714955 0.0771679 -0.040101096 -0.091695905 -0.022054866 -0.060593426 -0.038242698 -0.11899945
0.011166932 -0.14502686 0.0113577405 -0.0008553184 0.08930409 -0.09588151 0.040931325 -0.11770443
-0.011504795 0.117389336 -0.017628983 -0.00096668303 -0.077431224 -0.16089596 0.0009080845 -0.17669047
0.021185568 0.09352814 0.073700495 -0.029484943 -0.14994362 0.028103784 0.021476833 -0.124413595
-0.022215398 -0.1082867 -0.048182856 -0.0513226 -0.105721146 -0.07351529 -0.17059164 0.11803438
0.047145035 -0.019608632 -0.014235258 -0.05101499 -0.11288285 -0.18081613 0.046457306 -0.06863077
-0.13900475 -0.009752899 -0.041626394 -0.10040047 0.0040163994 -0.026514053 -0.09964484 -0.11665425
-0.16089508 0.1048134 -0.034347333 0.07052477 -0.053749867 0.01015766 0.116537556 0.057590336
-0.16586332 0.04961285 0.059247773 0.012975346 0.08380309 0.15391769 -0.019153625 0.025944307
-0.08687939 -0.025759637 0.09257297 0.06408073 -0.07909863 -0.100235626 -0.08542046 -0.12335971
-0.09645487 -0.030912176 0.084359646 0.02092278 -0.09507568 -0.10027799 0.06218441 -0.09298016
-0.015390933 0.059963256 -0.05785151 -0.013629988 -0.01088056 -0.029572919 -0.06337902 -0.111429796
-0.101044625 -0.06693271 0.120729715 -0.060376838 -0.083941 0.030299276 0.03445129 0.06848872
0.09501505 0.06960927 -0.12393762 0.0110860765 0.07571913 -0.011553183 -0.0736599 0.11916748
-0.04675348 -0.071168065 -0.11269438 0.0055835396 0.05539164 0.027670354 0.024718717 -0.09479843
-0.116735905 0.0022011697 0.113979265 0.07211517 -0.07277928 -0.016226068 -0.09214795 -0.060302928
0.022637293 0.06806731 0.10354616 -0.11476326 0.0835769 -0.08816151 0.046808407 0.10578066

bias f4 [64]
00000000: 5031 04be f203 cabd f32e 153d f0b9 5f3c
00000010: 6b19 92bb a27a f7bd 87b2 f63c a246 03be
00000020: 3c3b 0a3d 2844 99bd dfcf 88be b465 7b3d
00000030: 5faf bebd b8a3 0fbd f595 d23c d88e f3bd
00000040: 16dc a93c 87bd b4bd 79b4 eebd 377a 1a3d
00000050: 0489 1ebd e55f 34be 8aeb 903d d704 37be
00000060: 01fd 8e3d 2a26 c2bd 37c7 a53d 25de bbbc
00000070: 9ee2 78bd fc1f 13bd 505a 90bd c129 dcbd
00000080: c961 0c3c 83f3 6e3c 8015 89be 8078 323e
00000090: 484f 32bd e171 febd 2952 8cbd 39d0 873c
000000a0: e7fb 0cbe 2411 133c 40ad f8bd d43f e4bd
000000b0: d0e1 b0bd 714a b2bc 063c 163d a368 b7bc
000000c0: 905d ebbd 3052 35be 013a 01be 4407 e5bd
000000d0: b84e 353c 1909 02be 822e cbbb d709 263d
000000e0: 7e0a 03bd e9d1 2dbe f0a4 68bc f040 bdbd
000000f0: 18d4 d53c 9791 aabd d587 97bd e672 343d
-0.12909436 -0.09864034 0.036421727 0.013655171 -0.0044585965 -0.12083937 0.030114425 -0.12819913
0.033747897 -0.07483703 -0.26721093 0.06137629 -0.09310793 -0.035068244 0.02570627 -0.1189248
0.020734828 -0.08825212 -0.11655516 0.03771421 -0.038704887 -0.17614706 0.070761755 -0.1787294
0.069818504 -0.094799355 0.08094638 -0.022933075 -0.060762994 -0.035919175 -0.07048476 -0.107501514
0.008568236 0.014584425 -0.26774216 0.1742878 -0.04353264 -0.124240644 -0.06851608 0.01657878
-0.13767968 0.008976255 -0.1214242 -0.11144987 -0.0863682 -0.021764012 0.036678337 -0.022388762
-0.11492455 -0.17707133 -0.12619783 -0.111830264 0.011066131 -0.12698783 -0.0062006125 0.040536728
-0.031992428 -0.16974606 -0.01419948 -0.092409015 0.02610211 -0.0832855 -0.07398955 0.04405489

weight f4 [64, 64]
00000000: 7d36 6e3d 0457 6d3d 8b82 99bb d66a a73d
00000010: 7591 5fbd c0b1 cdbc ec41 8e3c 7ebf 3bbe
00000020: 09a5 293d 9be9 20bb fcb6 efbd 6afb 87bd
00000030: 92a9 973c 40c7 393b 88fc 67bd 62a9 01be
00000040: b0ed 10bd 0bfb 333d 89be 31bd 6b0d 00bc
00000050: c120 c53b 2d4e 93bd d6a6 713c b10c 253c
00000060: a5ae ddbb 2bf3 29bc 47ea a2bd 2e34 c4bd
00000070: 92dd e5bd e098 073e ef71 12bc 46b5 4fbd
00000080: 4e05 39bc 0421 463c 5e59 ea3d 209d f1bd
00000090: 09e6 d9bd a8b8 fa3d 0c50 00be f037 a2bd
000000a0: a7ad a53c f280 173e 387c 1a3d 4c01 f7bd
000000b0: 7871 23bd ae4e a93c 4942 00be 32e0 d2bd
000000c0: 64b1 f3bd 6ae0 03be 19cb 55bd 35f7 6fbd
000000d0: 3ec8 20bd 15ce e93d 4b31 0a3d 6a63 6dbd
000000e0: d2ab aa3d 7edf ae3d 70ce dcbd c5a2 423c
000000f0: 7b6c 96bd 42d7 a83d 156a ffbd c9f6 58bd
00000100: 0055 aeba fc89 6d3d e557 793c 7cb3 b9bd
00000110: 2fbe 72bd 7203 973d 51a6 36bc 9c51 dabc
00000120: 844a 6cbd c81d 79bd 101a 81bc 4021 193c
00000130: 001e 67ba 206b 07bd e8dc 9e3d 86a2 0dbd
00000140: b0ff 2bbc 3480 07bd e682 96bd 139d f039
00000150: 6a7c f1bd f92a 943d b45b c6bd 591e e53c
00000160: 3a94 bd3d 1484 14be 7f16 18bd 6446 cabd
00000170: 44a3 083d 0a64 bcbc 055c efbd d067 cd3d
00000180: e873 543d d80d 92bd 40cd debb 1869 5cbd
00000190: 4823 463d 8258 ea3d 2ddd 0abe a6cb b1bd
000001a0: 1acb 273e 6426 e7bd 74d6 2fbd d047 453d
000001b0: 8e46 e23d 30d5 193b 69da 60bd 48da 2a3d
000001c0: c6d3 e0bd 1040 c7bc c9e6 df3c fefb 9ebd
000001d0: b207 bfbd 7280 d23d 3042 843d 4e83 c73d
000001e0: 08f0 93bd d54f 383e cede f1bd 6c16 11bd
000001f0: 4e80 513d 544a 033d fa63 143b cb28 2cbe
00000200: bf6f 063e 2643 f0bd 73a5 94bc e047 0bbc
00000210: 865c efbd dc55 f3bd 588d 32bd a011 023e
00000220: 678c bc3d 505d 23bd 9c5c bf3b 6622 dfbd
00000230: 84c7 f1bd 7087 b2bd 0caa f7bd 8faf f83d
00000240: 79ca d03c 2036 0abd 8f78 50bd 7418 6a3d
00000250: 90a2 99bc 405c 5abd 31cc 283e 04eb 063e
00000260: 2beb a0ba c2f6 c93d 9a84 7fba 80ae 9aba
00000270: 9cee 593d 8c5c 93bd fdf1 5a3d fcd1 763d
00000280: 822d a6bd ef9c 0cbc 70a5 55be 0edb 8f3e
00000290: fc5a 963b 0e04 a8bc 40bc 04be 9819 fdbd
000002a0: 8801 b13b 1033 843d 74ff 8e3d b0a2 543c
000002b0: 8c5c 78bd d228 e9bd 0ca9 693b 80fe 1f3b
000002c0: 7abf b7bd d81e 963c c1e1 49bc 2293 f7bc
000002d0: 1e25 b03d c918 033e f5d0 133e 5653 b6bd
000002e0: f412 91bd 5b35 99bb 2038 63bc 88c3 123d
000002f0: 5a5a 33bd ae5d 8abd f478 d7bd 1b33 e93c
00000300: dff3 86bd a26c eebd c85f 493d 16d2 bd3d
00000310: 3495 17be a030 503c 6edb 573d 2c3d f2bd
00000320: 7d33 1fbe b1b6 033e 8040 22bb 500a 233d
00000330: 8d92 ff3b 78a9 b93c eb80 043e e01a 33bd
00000340: ac6e aebd 649b 76bd 20d6 b2bc 2ffa 063d
00000350: 08f0 f1bd afb4 64bd ccae 3b3d f4ec debd
00000360: 7f99 b8bd bc16 a5bd 8141 bfbd df0e 993d
00000370: 2246 79bd 70e8 863c bebf cfbd 2f55 7fbd
00000380: 402d 0abc 6bb2 023d a404 9fbd b2f4 e8bd
00000390: 1581 05be b1ab 07be 4936 cdbd 3615 ed3d
000003a0: d94c 01be 5bcb e1bd 30b1 d0bd dc9a 80bd
000003b0: c0f9 65bb c4fa 1fbe 208c 26bd 1465 863d
000003c0: be43 1fbd c86b da3d b7d4 83bc 2f0f 443d
000003d0: 3142 4abd 9135 873d 3534 b93d 79db f43d
000003e0: ca48 173d 2b2b 03be 7474 abbd e4ce 923d
000003f0: 1dd0 fa3a 1bf2 bf3d ca0e df3c 1ac5 84bd
0.058157433 0.057944313 -0.0046847514 0.08174674 -0.054582078 -0.025109172 0.017365418 -0.18334767
0.041417155 -0.0024553302 -0.117048234 -0.0663975 0.018513475 0.0028347522 -0.056637317 -0.1266227
-0.035382926 0.043940585 -0.0433946 -0.007815699 0.0060158675 -0.07192645 0.014749249 0.010073827
-0.006765204 -0.010372917 -0.07954841 -0.09580265 -0.11223902 0.13241911 -0.008938297 -0.050709985
-0.011292769 0.0120928325 0.11442827 -0.11797547 -0.10639579 0.12242252 -0.12530535 -0.079208255
0.020224405 0.14795282 0.03771612 -0.12060794 -0.039903134 0.0206674 -0.12525286 -0.10296668
-0.11899069 -0.12878576 -0.052195642 -0.058585364 -0.039253466 0.1141626 0.033738416 -0.057956137
0.083335534 0.085387215 -0.10781562 0.011879628 -0.0734491 0.08244182 -0.124714054 -0.052969728
-0.0013300478 0.05799292 0.01521871 -0.09067437 -0.059263404 0.07373704 -0.011148051 -0.026650243
-0.05768825 -0.060819417 -0.015759498 0.009346306 -0.0008816421 -0.033061147 0.07756978 -0.034578823
-0.010497972 -0.03308125 -0.07349186 0.00045893397 -0.11791308 0.07234759 -0.0968546 0.027968572
0.092567876 -0.14503509 -0.03713083 -0.09876707 0.033358827 -0.022996921 -0.11687473 0.10029566
0.05186835 -0.07131547 -0.00679937 -0.053811163 0.04837349 0.11442663 -0.13560934 -0.08681421
0.16386071 -0.11286619 -0.042929128 0.04816419 0.110486135 0.0023473017 -0.054895792 0.041712075
-0.109778926 -0.02432254 0.027331727 -0.077629074 -0.0932764 0.10278405 0.06457937 0.09741841
-0.07223517 0.17999204 -0.11810075 -0.035421774 0.05114775 0.032053307 0.0022642598 -0.16812436
0.13128565 -0.117315575 -0.018145299 -0.008501023 -0.11687569 -0.11881611 -0.043591827 0.12702036
0.09206467 -0.03988391 0.0058398973 -0.10895233 -0.11805633 -0.08717239 -0.12092981 0.1214286
0.025487171 -0.033743024 -0.050896224 0.057152227 -0.018754274 -0.053310633 0.16484143 0.13175589
-0.0012277117 0.098615184 -0.0009747237 -0.0011801273 0.05320607 -0.07195386 0.053453434 0.06025885
-0.08114149 -0.008582338 -0.2086389 0.28096813 0.004588483 -0.020509746 -0.12962437 -0.12358397
0.005401794 0.06455052 0.069823176 0.012978241 -0.060635135 -0.11384739 0.0035653738 0.0024413168
-0.08972068 0.018325254 -0.01232189 -0.030221526 0.086008295 0.12802424 0.1443518 -0.08902614
-0.07083693 -0.00467555 -0.013868362 0.035831004 -0.043787338 -0.06756149 -0.10521117 0.028466752
-0.065894835 -0.11641814 0.04916361 0.09268586 -0.1480301 0.012706906 0.0526995 -0.11828074
-0.15546985 0.1286266 -0.0024757683 0.039804757 0.0077994526 0.022663817 0.12939803 -0.043726802
-0.08517203 -0.060206786 -0.021830618 0.032953437 -0.118133605 -0.055836376 0.045820996 -0.10885039
-0.09013652 -0.08060977 -0.09338666 0.074735396 -0.0608579 0.016468257 -0.10143994 -0.062337097
-0.00843364 0.031908434 -0.07764557 -0.11374797 -0.13037522 -0.13249089 -0.1002012 0.11576311
-0.12626971 -0.11025115 -0.10190046 -0.06279537 -0.003509149 -0.15623003 -0.040660977 0.06562248
-0.038882963 0.10665089 -0.016092641 0.047866043 -0.04937953 0.06602014 0.09043161 0.119559236
0.03693465 -0.12809436 -0.08371821 0.071683675 0.0019135509 0.0937235 0.027228732 -0.06482907

bias f4 [64]
00000000: b941 ee3c 015e 8fbd e46f 133e 3dff 913b
00000010: 086e 20bd 6eb3 06bd fffd 45be 082e 22be
00000020: 55a9 4a3e a8e2 84bd 110c afbd 3ca8 8ebd
00000030: 7e24 a5bd f0d1 623c b427 5cbd c1e6 0f3d
00000040: 9abf abbc e8e6 4dbe cb8d e7bd 8dd0 a1bd
00000050: 53a1 f2be 3825 21be f680 d1bc 353a 1cbe
00000060: 8843 18be 474d 21be d1fa 08bd 8290 45be
00000070: 38b8 803b 8f68 43be e363 adbc e05f dc3d
00000080: da97 f3bd 9b62 1b3d a48e d2bd 2d30 8bbd
00000090: 336e 29be d508 303c 1e78 053c a2d4 83bd
000000a0: f63b e3bd 80e5 4ebe 2802 aa3b 7e04 b5bd
000000b0: 85d0 fabd 78f3 e4bd 8308 4a3d 2e72 82bd
000000c0: d10b c5bd a94e eabd 0c8d e2bd 9ab5 25bd
000000d0: 7582 c0bd f668 a0bd a2bc 8cbd db86 e4be
000000e0: 1d8d a7bc 2095 b0bd f345 e1be e60b bbbd
000000f0: b997 843b 8cff 1cbe c10f ccbd 8857 cdbd
0.029084073 -0.07000352 0.14398152 0.0044554756 -0.039167434 -0.03288596 -0.19335173 -0.15837872
0.19791158 -0.06488544 -0.08547223 -0.06965682 -0.08063601 0.013843998 -0.0537488 0.035132173
-0.020965386 -0.20107615 -0.11306342 -0.07901106 -0.47388706 -0.15736854 -0.025574189 -0.15256579
-0.14869511 -0.15752135 -0.033442322 -0.19293407 0.0039282106 -0.19082855 -0.021165794 0.10760474
-0.11894198 0.037935834 -0.10281113 -0.06796298 -0.16545944 0.010744293 0.008146314 -0.06437041
-0.11095421 -0.20204735 0.0051882453 -0.088387474 -0.12246803 -0.111792505 0.049324524 -0.06369434
-0.096213944 -0.114407845 -0.11062059 -0.040456392 -0.09399883 -0.0783252 -0.06871916 -0.44634137
-0.02045303 -0.08622193 -0.4399868 -0.09133129 0.004046407 -0.15331858 -0.09963942 -0.10026461

weight f4 [1, 64]
00000000: eecb f0bc 89e5 97bd 319c e83d b261 e03c
00000010: 07bd a43c 9af0 b33c 674d a7bd 75d0 b4bd
00000020: a432 933d cc4e 0fbd 4938 72bd 7ede 03bd
00000030: 03b8 c0bc 3279 54bc ed2e 57bd 6ca3 97ba
00000040: 7bc6 013d 2fb6 51bd 7ce9 b3bc c37d 92bd
00000050: 6450 8a3e 0d91 383d e41d 763b 80ca b8bb
00000060: 94b5 663d ed37 89bd 0ced c8bc 5a8f b53d
00000070: 5a04 7cbd df18 a3bd 5e3d 153d 3620 623d
00000080: ea7c f03d 3792 e6ba abde 3cbb 3310 9ebd
00000090: 308d 96bc 2425 37bd 797d f6bc 9882 f33a
000000a0: bd62 9abd 1701 8dbd 2cbb 0d3d 7ca3 743d
000000b0: 3f14 12bc dc2a 6fbd c519 2c3c a805 283b
000000c0: 07f2 4bbd 3e59 b5bd 97e6 2c3c e276 603d
000000d0: ece7 883c 3087 ac3d b496 703b 06d7 ee3c
000000e0: 00de 27bd 806d 103d 677b 1ebd 7be9 fe3c
000000f0: 3fee 39bd 3e62 a03b 3687 5a3d 274c 15bc
-0.029394116 -0.07416827 0.11357916 0.027390335 0.020109667 0.021965314 -0.0816906 -0.088288225
0.07187393 -0.034987256 -0.05913571 -0.032194607 -0.023525244 -0.012968348 -0.052534986 -0.0011569089
0.031683426 -0.051199134 -0.02196192 -0.071528934 0.27014458 0.045060206 0.0037554437 -0.0056393743
0.05632551 -0.0670012 -0.024527095 0.08865233 -0.061527587 -0.07963728 0.036435477 0.0552065
0.117425755 -0.0017591183 -0.0028819244 -0.077179335 -0.01837787 -0.044713154 -0.030089127 0.0018578349
-0.07538364 -0.068849735 0.03460233 0.059726223 -0.00891596 -0.058390483 0.010504191 0.0025638137
-0.049791362 -0.08854912 0.010553024 0.054800875 0.016712151 0.084242225 0.003671092 0.029155266
-0.0409832 0.035260677 -0.038691904 0.031117192 -0.045393225 0.004894524 0.053351603 -0.009112394
